saved_model/D_state_dict: n_epoch= 10, z_dim= 25.pt (torch, 177105 bytes, 15 tensors)

main.0.weight f4 [16, 1, 4, 4]
0	0x3dfe19f0	0.12407291
1	0x3e3fe235	0.18738635
2	0x3de0b16b	0.1097134
3	0xbdc9e773	-0.098585986
4	0x3dd83269	0.1055649
5	0x3d1b10dc	0.037857875
6	0x3e39ca16	0.18143496
7	0xbeab3b5e	-0.3344373
8	0x3d31f456	0.043445908
9	0x3dc5a902	0.09651376
10	0x3d748de7	0.05970564
11	0xbe82ee50	-0.25572443
12	0xbdd9345d	-0.10605691
13	0x3dededb6	0.116176054
14	0xbe38546e	-0.18000957
15	0xbd92ccb0	-0.07167947
16	0xbf29cd56	-0.6632894
17	0xbdfaae31	-0.122402556
18	0x3cd14d61	0.025549592
19	0x3d89dac1	0.06731177
20	0xbef0efb9	-0.47057894
21	0xbee3014d	-0.4433693
22	0xbed0f5d9	-0.40812567
23	0x3e09603d	0.13415618
24	0xbdb64a04	-0.08900836
25	0xbe7a09ba	-0.24417773
26	0x3d255682	0.040365703
27	0x3c676fa5	0.014125739
28	0x3e1073d1	0.1410668
29	0x3e31663f	0.1732416
30	0xbdecee56	-0.115688965
31	0x3df938f5	0.12169067
32	0xbd923854	-0.0713965
33	0xbe9e6efb	-0.30944046
34	0xbeea6818	-0.45782542
35	0xbf2e55da	-0.6809975
36	0xbf399fd2	-0.7250949
37	0xbe6c2932	-0.2306259
38	0xbc1407c0	-0.009035051
39	0xbf6c108e	-0.9221276
40	0xbf2e838f	-0.6816949
41	0xbf2f26b4	-0.6841843
42	0xbf4f9929	-0.8109308
43	0xbe59bbf9	-0.21263112
44	0x3e17ec9f	0.14836358
45	0xbe286d6b	-0.1644799
46	0x3dae4144	0.08508542
47	0x3da2131f	0.07913803
48	0x3e087b78	0.1332835
49	0x3d121585	0.035665054
50	0x39b08450	0.00033667916
51	0xbc836842	-0.016040925
52	0xbb9cf6b0	-0.0047901496
53	0xbe894df9	-0.268173
54	0xbecd5bca	-0.40109092
55	0xbc57c7d6	-0.013170203
56	0xbc7637e3	-0.015027973
57	0xbf12a5bb	-0.57284135
58	0x3eecc8d1	0.4624696
59	0x3e840b7d	0.25790015
60	0x3e3074d1	0.17232062
61	0xbe85448f	-0.2602887
62	0xbe1144e2	-0.14186433
63	0xbe1ce1b6	-0.15320477
64	0xbd7a8b11	-0.06116778
65	0x3dcb17c4	0.09916642
66	0x3e63e42c	0.2225501
67	0x3d873164	0.066012174
68	0xbebc7a42	-0.36812025
69	0xbea966cd	-0.33086243
70	0xbdc21728	-0.09477073
71	0x3c0be10b	0.008537541
72	0xbf7d9188	-0.9905019
73	0xbcee0b05	-0.029057989
74	0x3c13f6a2	0.00903097
75	0x3d13a0b8	0.036041945
76	0xbfa7d1ac	-1.3110862
77	0xbe307f45	-0.1723605
78	0x3dcf80af	0.10131966
79	0x3a5ba01c	0.0008378045
80	0xbd9c2019	-0.0762331
81	0xbe872a18	-0.26399302
82	0x3c0e6820	0.0086918175
83	0xbdfde5a7	-0.12397318
84	0x3e6f2d5a	0.23357144
85	0x3d3275ae	0.04356926
86	0xbe42d7f6	-0.19027695
87	0xbe700e97	-0.23443066
88	0xbce7bd60	-0.028288543
89	0x3de8deb3	0.113706015
90	0x3ea0c5ae	0.31400818
91	0xbe40f4ec	-0.1884343
92	0x3d3745a0	0.044744134
93	0xbc89ec7e	-0.016836401
94	0x3e2b3499	0.16719283
95	0xbe2ed6dc	-0.1707415
96	0xbb33d69b	-0.0027441147
97	0x3ba622f7	0.005070086
98	0xbc6277b8	-0.0138224885
99	0xbc17c831	-0.009264038
100	0x3ab554c8	0.0013834471
101	0xbb1d2c0e	-0.0023982557
102	0xbfe1258f	-1.7589587
103	0x3b8ca5c1	0.0042922203
104	0xbbae1015	-0.0053119757
105	0xbfb21e8d	-1.3915573
106	0xbfa1cefa	-1.2641289
107	0xbf8863a7	-1.0655411
108	0xbc601c4d	-0.013678622
109	0x3d2132ff	0.039355274
110	0xbfbfef93	-1.4994987
111	0xbb98b9a3	-0.0046608015
112	0xbdb72d76	-0.08944218
113	0x3a8708eb	0.001030234
114	0x3e62c043	0.22143655
115	0x3ddd3b77	0.10802358
116	0x3e634054	0.22192508
117	0xbd6c11c3	-0.057634126
118	0xbd1d9ed7	-0.03848156
119	0x3e40d77f	0.18832205
120	0x3e772869	0.24136509
121	0xbe998349	-0.29982975
122	0xbec3bf2a	-0.38231784
123	0xbe61b21a	-0.22040597
124	0x3d9e5832	0.07731666
125	0x3b9473a3	0.0045303865
126	0x3d60cbd7	0.054881897
127	0x3d58181f	0.05275738
128	0xbeaa62f0	-0.33278608
129	0x3d317a76	0.04332968
130	0x3e96e2d4	0.2946993
131	0x3e435adf	0.19077633
132	0xbedcf08c	-0.43152273
133	0xbcde8131	-0.027161213
134	0xbdf532a8	-0.119725525
135	0x3e00eff8	0.12591541
136	0x3d9746c0	0.07386541
137	0xbe8abf1c	-0.2709893
138	0xbd6a83df	-0.05725467
139	0xbe96ca2e	-0.29451126
140	0xbcbf2f2f	-0.023337929
141	0xbe2c2a40	-0.16812992
142	0x3eae83b0	0.34084845
143	0xbd3f5837	-0.046714988
144	0xb9235513	-0.00015576584
145	0xba7927ad	-0.00095045083
146	0x3b5fca45	0.0034147662
147	0xbbb4d4dc	-0.005518539
148	0xb9b0eedc	-0.000337473
149	0xbe2a0f0f	-0.16607307
150	0xbe95ab58	-0.29232287
151	0xc008dbc0	-2.1384125
152	0xbf78a0a3	-0.9712011
153	0x3f074da3	0.5285284
154	0xbfab08e4	-1.3362088
155	0xbb79b9ad	-0.0038105056
156	0xba03a262	-0.00050214503
157	0x394a5030	0.00019294093
158	0xbb074108	-0.0020638127
159	0x393ee99a	0.00018206835
160	0x3e0f92ea	0.14020887
161	0x3e486659	0.19570293
162	0x3e004daf	0.12529634
163	0x3d901389	0.07034976
164	0xbe97a308	-0.2961657
165	0xbe9ad7e8	-0.30242848
166	0x3dfe4bad	0.12416778
167	0x3de04dc0	0.1095233
168	0x3da6ece7	0.08150654
169	0x3c8db7b8	0.017299518
170	0xbeb050f7	-0.3443677
171	0xbd97c4d9	-0.074105926
172	0xbc8896d1	-0.016673477
173	0x3e0bcb1c	0.13651699
174	0xbd5fae8f	-0.05460983
175	0xbdcbed94	-0.09957424
176	0xbd9f9280	-0.077916145
177	0x3e4d92eb	0.20075576
178	0xbb519374	-0.0031978758
179	0xbe2f219b	-0.17102663
180	0xbdb160df	-0.08661055
181	0x3e8cf74d	0.27532426
182	0x3eb96a5b	0.36213955
183	0x3e3f72c4	0.18696123
184	0xbbbb0155	-0.005706946
185	0xbe3445c3	-0.17604737
186	0xbdabdce0	-0.08391738
187	0x3e8e993d	0.27851287
188	0xbded43ff	-0.11585235
189	0x3d2ad5eb	0.041707914
190	0x3cd0ed1a	0.025503684
191	0xbdf2d80f	-0.11857616
192	0x3e08a39c	0.13343662
193	0x39c85de5	0.0003821693
194	0xbdf14fb5	-0.11782781
195	0xbde450f0	-0.1114825
196	0x3d9dbc93	0.07701983
197	0xbea8b927	-0.3295376
198	0xbe57becb	-0.21068875
199	0x3e7276fa	0.23678198
200	0xbceffb21	-0.029294552
201	0xbe742ce2	-0.23845246
202	0x3e0860e2	0.13318208
203	0x3e2b71bf	0.1674261
204	0xbe8bc7aa	-0.2730077
205	0xbe13085d	-0.14358659
206	0x3e9555b0	0.29166937
207	0x3dd2d4c1	0.10294486
208	0x3da75b7c	0.08171746
209	0xbe5507dd	-0.20803781
210	0xbdeb4813	-0.114883564
211	0xbe00714e	-0.12543222
212	0xbe0849db	-0.13309424
213	0xbe605c42	-0.21910194
214	0x3dc43d03	0.095819496
215	0x3ddb1561	0.10697437
216	0xbcd22557	-0.02565257
217	0x3e977984	0.29584897
218	0x3e44bd9a	0.19212952
219	0x3e3f419a	0.18677369
220	0xb9bc7e2a	-0.00035952154
221	0x3d9894a3	0.07450225
222	0x3e062ebc	0.13103765
223	0xbe049221	-0.12946369
224	0xbe0fba8f	-0.1403601
225	0x3e16ff17	0.14745747
226	0xbf0ac301	-0.542038
227	0xbd5ecfa2	-0.054397233
228	0x3e44ebe0	0.19230604
229	0xbe55dad2	-0.20884255
230	0x3ed0f24c	0.40809858
231	0x3e9f0826	0.31060904
232	0xbdd3daad	-0.103444435
233	0xbd94f9cb	-0.07274207
234	0xbde26d51	-0.11056007
235	0xbd987e64	-0.07445982
236	0x3a75e5be	0.00093802426
237	0xbf88a9aa	-1.0676777
238	0xbea8ef94	-0.32995284
239	0x3e44b26e	0.1920869
240	0xbd82b371	-0.06381882
241	0xbbc28c58	-0.0059371404
242	0x3e0259d5	0.1272958
243	0xbdc3ff3d	-0.09570167
244	0x3c551297	0.01300492
245	0x3c0b0e95	0.008487363
246	0xbe23cdd3	-0.15996484
247	0xbd981387	-0.074255995
248	0x3d900945	0.07033018
249	0x3ea18609	0.31547573
250	0xbf04b982	-0.5184556
251	0x3e84155e	0.25797552
252	0xbdff1506	-0.12455182
253	0x3ea397b7	0.31951687
254	0xbe80173b	-0.25017723
255	0xbc96e72a	-0.018420774

main.0.bias f4 [16]
0	0xbe9414b9	-0.2892206
1	0x3d4a1433	0.04933567
2	0x3ddce724	0.10786274
3	0x3d204da5	0.039136548
4	0x3da993d3	0.08280148
5	0x3cfc85f5	0.030825594
6	0xb7f61d7e	-2.9339219e-05
7	0xbe40af60	-0.188169
8	0xb93c1e10	-0.00017940276
9	0xbacda17a	-0.0015688383
10	0x3d29ea28	0.041483074
11	0xbeaebd67	-0.34128878
12	0xbe0f8560	-0.14015722
13	0xbe8894c2	-0.26675993
14	0xb9d8a87e	-0.00041324267
15	0x3cf178c6	0.029476535

main.2.weight f4 [32, 16, 4, 4]
0	0x3d597944	0.053094164
1	0x3d2ea366	0.042636298
2	0x3d61b49d	0.055103887
3	0x3db38ca9	0.08767063
4	0x3dc82512	0.097726956
5	0x3d9401a1	0.07226873
6	0x3e3b32cc	0.18281096
7	0x3e1a28b3	0.15054588
8	0xbc5d60e2	-0.013511868
9	0x3e81ef8e	0.25378078
10	0x3d80bff5	0.06286613
11	0x3e115ce1	0.14195587
12	0xbd6ac685	-0.05731823
13	0xbdb56dc1	-0.088588245
14	0x3e0cc88a	0.13748375
15	0x3d864355	0.06555811
16	0xbdb08311	-0.08618749
17	0xbdac7810	-0.084213376
18	0xbc93dc63	-0.018049425
19	0xbe827bbe	-0.25485033
20	0xbdff2fb3	-0.1246027
21	0x3bd5b13f	0.0065213735
22	0x3d5f961a	0.054586507
23	0xbe2bd627	-0.16780911
24	0xbde7e1c4	-0.11322358
25	0x3de5bace	0.11217271
26	0x3db5c1d2	0.08874859
27	0xbe1f3e31	-0.15551068
28	0xbe332741	-0.17495443
29	0xbbafc6b0	-0.0053642616
30	0xbc36da96	-0.011160513
31	0x3dd09c0f	0.10186016
32	0xbdd9a05d	-0.1062629
33	0xbdcd9bdc	-0.100394934
34	0xbe9230b3	-0.2855278
35	0xbe93e19d	-0.28883067
36	0x3e31fba1	0.17381145
37	0x3de223d8	0.11041993
38	0xbe0acef6	-0.13555512
39	0xbd85a9cd	-0.065265276
40	0xbc93ca2c	-0.018040739
41	0x3c89d624	0.016825743
42	0xbe17866a	-0.14797369
43	0xbd7bcfa2	-0.06147731
44	0xbd0dd9c7	-0.034631517
45	0x3c8fcc1d	0.017553383
46	0xbb195c99	-0.002340114
47	0xbccfa41d	-0.02534681
48	0x3d5c627d	0.053804863
49	0xbd7340b5	-0.05938788
50	0x3cec029f	0.028809844
51	0x3c831694	0.016001977
52	0x3e2548bf	0.16141032
53	0x3e5ee929	0.21768631
54	0x3ce18982	0.02753139
55	0x3daef9f5	0.08543769
56	0x3ce475de	0.027888235
57	0x3c6b79ad	0.0143722715
58	0x3da04b3d	0.078268506
59	0x3d5113c9	0.05104426
60	0xbe01b42a	-0.12666383
61	0xbdf8d857	-0.121506386
62	0xbdd363cf	-0.10321771
63	0xbe511c99	-0.20421065
64	0xbd07998f	-0.03310543
65	0x3d1fc3b0	0.03900498
66	0x3d41a0c9	0.047272477
67	0xbdc04fdd	-0.09390233
68	0xbdeab2bb	-0.114598714
69	0x3de07af0	0.109609485
70	0x3e146323	0.14490943
71	0x3d99c3f6	0.0750808
72	0x3e1b0b8d	0.15141125
73	0xbd8b63d5	-0.06806151
74	0x3e000359	0.12501277
75	0x3e1723ed	0.14759798
76	0x3d0554d7	0.032551613
77	0xbd948973	-0.07252779
78	0xbd24db84	-0.04024841
79	0xbcaeb408	-0.02132608
80	0x3cc6c73c	0.024264924
81	0xbd8f2408	-0.06989294
82	0x3d246dd3	0.0401438
83	0x3df7755f	0.12082934
84	0x3e0b52f7	0.13605867
85	0x3c117eeb	0.008880357
86	0x3e24f808	0.16110241
87	0x3e62e026	0.22155818
88	0x3b5f314e	0.0034056487
89	0x3e25ded4	0.16198283
90	0x3dc06e57	0.09396046
91	0x3de5cd51	0.112208016
92	0x3d8a6fab	0.0675958
93	0x3c977c23	0.01849181
94	0x3d5e9575	0.054341752
95	0xbc24d9fb	-0.010061736
96	0x3d7f7a4f	0.062372502
97	0x3e666d6b	0.22502677
98	0x3cb7c948	0.022434846
99	0xbe026ef3	-0.12737636
100	0x3d67fc73	0.05663724
101	0x3eb7e039	0.35913256
102	0x3e6d7af9	0.23191442
103	0x3de737f6	0.112899706
104	0xbbb94548	-0.005654011
105	0x3e39fe67	0.18163453
106	0x3db565a6	0.088572785
107	0xbe8bd27f	-0.27309033
108	0xbb4a06e1	-0.0030826854
109	0x3d42b6c6	0.047537588
110	0x3d1bda06	0.03804972
111	0xbe8ecfd3	-0.27892932
112	0x3c9a0330	0.018800348
113	0xbccbe405	-0.024889002
114	0xbdfd3876	-0.12364285
115	0xbd89c5ad	-0.06727157
116	0x3e07a009	0.13244642
117	0xbe805ed1	-0.2507234
118	0xbe4cb127	-0.19989453
119	0xbd276fc0	-0.040878057
120	0x3e486bf2	0.19572428
121	0xbe0abd48	-0.13548768
122	0xbdf74241	-0.12073184
123	0xbd1340f8	-0.03595063
124	0xbcc34398	-0.023835942
125	0xbe2fad98	-0.17156065
126	0xbd067941	-0.03283048
127	0x3b60be1c	0.0034293002
128	0x3d040412	0.032230444
129	0x3db506dd	0.088392
130	0x3dbf46db	0.093396865
131	0x3de94b9c	0.113913745
132	0x3dacde4f	0.084408395
133	0x3e4d994d	0.20078011
134	0x3e40c88b	0.18826501
135	0x3e1cb62d	0.1530387
136	0x3e06dfee	0.1317136
137	0xbc453149	-0.012035676
138	0x3d37d16c	0.044877455
139	0x3de11803	0.10990908
140	0x3d0cd415	0.034381945
141	0xbe007945	-0.1254626
142	0xbc161439	-0.009160095
143	0x3df27041	0.11837817
144	0x3e636132	0.22205046
145	0x3e624ff9	0.2210082
146	0x3d10bbc3	0.035335314
147	0xbbee63fc	-0.0072751027
148	0x3d9c24bd	0.07624195
149	0x3e34ffa3	0.17675643
150	0x3e204ad0	0.15653539
151	0x3d1fd729	0.039023552
152	0x3e1eeea9	0.15520729
153	0x3e7df86a	0.24801794
154	0x3def1975	0.116747774
155	0xbd267bfb	-0.04064558
156	0x3dab72a6	0.08371477
157	0x3d1c3179	0.03813312
158	0x3e054b9f	0.13017128
159	0xbd94916b	-0.07254299
160	0x3c801440	0.015634656
161	0xbd300bd4	-0.04298003
162	0xbe00cb89	-0.12577643
163	0xbe0be935	-0.1366318
164	0xbcf7bb3a	-0.030240644
165	0xbe059d42	-0.1304827
166	0xbe76a755	-0.2408727
167	0xbe66cbf9	-0.22538747
168	0x3d44efbb	0.048080187
169	0xbe4e1166	-0.20123824
170	0xbe4679d7	-0.19382416
171	0xbe167d22	-0.14696172
172	0x3ddf2725	0.10896138
173	0xbe239c2e	-0.15977547
174	0xbe065bea	-0.13121
175	0xbe0004b2	-0.12501791
176	0xbdbd3432	-0.09238471
177	0xbdc62314	-0.09674659
178	0xbc5970e1	-0.013271541
179	0xbd720458	-0.059086174
180	0x3df17d35	0.117914595
181	0xbe155682	-0.14583781
182	0xbd5dc2e1	-0.05414093
183	0xbc9b6b7b	-0.01897215
184	0x3df81fee	0.12115465
185	0xbd76b332	-0.060229488
186	0x3e26996e	0.16269466
187	0x3e54a40f	0.20765708
188	0x3d7b9bc2	0.06142784
189	0xbcbfbb36	-0.023404699
190	0x3d096d83	0.033551704
191	0x3e2ced48	0.1688739
192	0xbaf6f242	-0.0018840509
193	0x3d2c12ca	0.042010106
194	0xbbd81c74	-0.0065951888
195	0x3e122875	0.14273246
196	0xbe121674	-0.14266378
197	0x3dba43a1	0.090949304
198	0x3cd022a8	0.02540715
199	0xbc9d26a2	-0.01918346
200	0xbda91ab1	-0.08257044
201	0xbd9e4db9	-0.07729668
202	0xbd8c6bd1	-0.06856502
203	0xbcb93170	-0.022606581
204	0x3e02b7d2	0.12765434
205	0x3d0a5765	0.033774752
206	0x3d81a602	0.063304916
207	0x39724edc	0.00023108296
208	0xbe27f065	-0.16400297
209	0xbe129e3f	-0.14318179
210	0xbe32fd47	-0.1747943
211	0xbe7a133f	-0.24421404
212	0xbd04e468	-0.032444388
213	0xbe0b6bb3	-0.13615303
214	0xbe5bbaa2	-0.21457914
215	0xbe9cc23b	-0.30616936
216	0xbdc6ed8f	-0.097132795
217	0xbd9d1016	-0.07669084
218	0xbe26224a	-0.16224018
219	0xbea7416f	-0.3266711
220	0x3d55dfe3	0.05221547
221	0x3cf28b17	0.029607339
222	0xbe3fab5e	-0.18717715
223	0xbdbe3b1f	-0.0928862
224	0xbd473f55	-0.048644383
225	0xbd9753a0	-0.07388997
226	0xbce67492	-0.028131757
227	0x3df0809c	0.1174328
228	0xbab60eb6	-0.0013889882
229	0x3e1c8113	0.15283613
230	0x3db619ff	0.08891677
231	0x3e4855fc	0.1956405
232	0xbe6634e0	-0.22481108
233	0x3e5fa8b5	0.218417
234	0x3c2851ce	0.01027341
235	0x3ded1876	0.11576931
236	0xbe8a6bdf	-0.27035424
237	0xbd6192df	-0.055071708
238	0x3d1f0c0e	0.038829856
239	0x3d03ccf3	0.032177877
240	0x3d8c8e07	0.06863027
241	0xbcc3d4d7	-0.0239052
242	0x3de8dda6	0.11370401
243	0x3dce29e7	0.10066586
244	0x3db8b07a	0.09018035
245	0x3ccaa9e6	0.024739217
246	0xba77b860	-0.0009449776
247	0x3e28241c	0.16420025
248	0xbc3dceaa	-0.011584917
249	0x3d3fe353	0.046847653
250	0xbdd98424	-0.10620907
251	0xbb9e0692	-0.0048225606
252	0xbd792a07	-0.060831096
253	0xbaf30c1f	-0.0018543041
254	0xbe0e4b0f	-0.1389582
255	0xbdd1a347	-0.10236221

main.2.bias f4 [32]
0	0xbda72643	-0.08161595
1	0x3d363ad8	0.04448971
2	0xbadff07f	-0.0017085223
3	0x3dcbf0c0	0.09958029
4	0xbbe76f6d	-0.0070628435
5	0x3dd8ebdc	0.105918616
6	0x3e0c8524	0.13722664
7	0xbd48b738	-0.049002856
8	0xbe48a058	-0.19592416
9	0x3d9ff365	0.07810096
10	0x3e8afbee	0.27145332
11	0x3d1fed92	0.039044924
12	0xbd642bb5	-0.055705745
13	0x3dc16c3c	0.09444472
14	0xbd3ee3c3	-0.04660393
15	0x3dfd5147	0.12369018
16	0xbdb1b4bb	-0.0867705
17	0xbe07cf07	-0.13262568
18	0x3b86f29f	0.004118278
19	0xbde18144	-0.110109836
20	0xbe3a2135	-0.1817673
21	0xbe535ced	-0.20640917
22	0xbd813e88	-0.06310755
23	0x3e971c81	0.29513934
24	0x3d433526	0.04765811
25	0xbd6aa31c	-0.05728446
26	0x3e13e75c	0.14443725
27	0x3c9836ca	0.018580813
28	0xbe468b77	-0.19389139
29	0x3d3bea06	0.04587748
30	0x3d9deebd	0.07711551
31	0xbd457d9d	-0.048215497

main.3.weight f4 [32]
0	0x3f6d45b0	0.9268446
1	0x3f8692ce	1.0513551
2	0x3f8160dd	1.0107685
3	0x3f7d098f	0.9884271
4	0x3f540a79	0.8282848
5	0x3f7e0a76	0.9923471
6	0x3f8de3a5	1.1085097
7	0x3f88b5d2	1.0680487
8	0x3f4a9961	0.7914029
9	0x3f6c6593	0.9234249
10	0x3f8ef4ee	1.1168497
11	0x3f70a0b2	0.939952
12	0x3f82927e	1.0200956
13	0x3f7aaf67	0.9792389
14	0x3f47c416	0.7803358
15	0x3f79686f	0.9742498
16	0x3f608114	0.8769696
17	0x3f66f405	0.90216094
18	0x3f6aedf2	0.91769326
19	0x3f860e04	1.0473027
20	0x3f5d3aaa	0.8641764
21	0x3f8619c2	1.0476611
22	0x3f841bcc	1.0320983
23	0x3f792812	0.9732677
24	0x3f5975d2	0.84945405
25	0x3f892c1a	1.0716584
26	0x3f4ebb88	0.807549
27	0x3f503cfb	0.8134305
28	0x3f84036b	1.0313543
29	0x3f7b7fb2	0.9824172
30	0x3f8afd59	1.0858566
31	0x3f87889a	1.0588562

main.3.bias f4 [32]
0	0xbe5cf22a	-0.21576753
1	0xbde32b41	-0.110922344
2	0xbe393100	-0.18085098
3	0xbe2c05c1	-0.1679907
4	0xbe840f12	-0.25792748
5	0xbea13de2	-0.31492525
6	0xbe39c4ec	-0.18141526
7	0xbd77e3d4	-0.06052001
8	0xbead7951	-0.3388162
9	0xbe2f38a8	-0.17111456
10	0xbe3ebc59	-0.18626536
11	0xbe6119bc	-0.21982473
12	0xbe85e01c	-0.26147544
13	0xbe4e2663	-0.20131831
14	0xbe944cc7	-0.28964826
15	0xbdc003e7	-0.09375744
16	0xbe89c3cc	-0.26907194
17	0xbec62f37	-0.38707897
18	0xbe8d4c7a	-0.2759741
19	0xbe524b84	-0.2053662
20	0xbe57555a	-0.21028653
21	0xbeb14cb4	-0.34628832
22	0xbdefb727	-0.117048554
23	0xbe0e9bcf	-0.13926624
24	0xbeae83b4	-0.34084857
25	0xbe601276	-0.21882042
26	0xbedc5ab7	-0.4303796
27	0xbe60274e	-0.21889994
28	0xbebf2636	-0.3733384
29	0xbecac38b	-0.39602312
30	0xbe3b5399	-0.18293609
31	0xbdc348f5	-0.095354

main.3.running_mean f4 [32]
0	0xbe3c233c	-0.18372816
1	0xbc6c49ae	-0.0144218635
2	0xbe1767e0	-0.14785719
3	0xbc01be65	-0.007918929
4	0xbdbb9eeb	-0.091611706
5	0xbd985df8	-0.07439798
6	0xbb083d7d	-0.0020788603
7	0xbebcb061	-0.36853316
8	0xbe8d137f	-0.27553937
9	0x3cddf48a	0.027094144
10	0x3e1bcee9	0.15215649
11	0xbd862563	-0.065501
12	0xbe9a4fc9	-0.30138996
13	0x3cda07be	0.02661502
14	0x3db7a672	0.08967294
15	0x3e5bec09	0.21476759
16	0xbdabfe39	-0.083980985
17	0xbe9db013	-0.30798396
18	0xbe8dc4f0	-0.27689314
19	0xbe868fdf	-0.2628164
20	0xbe621b3c	-0.22080702
21	0xbeb48f00	-0.3526535
22	0xbe89184d	-0.26776353
23	0x3e64ff2c	0.22362965
24	0x3e3a69a7	0.18204366
25	0xbe057c50	-0.13035703
26	0x3e2c61fb	0.16834252
27	0xbe14424e	-0.14478418
28	0xbe9b8a35	-0.3037888
29	0xbebccf06	-0.36876696
30	0xbd26fc58	-0.040767998
31	0xbeab3c1c	-0.33444297

main.3.running_var f4 [32]
0	0x3c950bb7	0.018194063
1	0x3c9340d8	0.017975256
2	0x3c0c81b3	0.008575845
3	0x3cc53278	0.024071917
4	0x3c87c1c4	0.016571887
5	0x3ca18680	0.019717455
6	0x3cc0a5f7	0.023516638
7	0x3b8f41b8	0.004371848
8	0x3c33306c	0.010936838
9	0x3c39f114	0.011348981
10	0x3cf97275	0.030450085
11	0x3d1714e1	0.036885146
12	0x3bbae001	0.005702973
13	0x3ca9bba1	0.020719351
14	0x3ce0641b	0.027391484
15	0x3d3a32d9	0.04545865
16	0x3caef336	0.021356206
17	0x3c57660c	0.013146888
18	0x3c44a4d2	0.012002187
19	0x3bb48065	0.00550847
20	0x3cc638f0	0.024197072
21	0x3bcfc6a7	0.00634082
22	0x3bcc1005	0.0062274956
23	0x3ce19f20	0.027541697
24	0x3cccf96d	0.02502128
25	0x3cba149d	0.022714907
26	0x3c49d84f	0.012319638
27	0x3c56f04c	0.013118815
28	0x3cafd55d	0.021464044
29	0x3b767861	0.0037608373
30	0x3ca24058	0.019806072
31	0x3d2e1b09	0.04250625

main.5.weight f4 [64, 32, 4, 4]
0	0xbe462eff	-0.19353865
1	0xbd73f871	-0.059563104
2	0x3df74701	0.1207409
3	0x3dd09c9d	0.101861216
4	0xbea02a02	-0.3128205
5	0xbea09270	-0.31361723
6	0xbe843f74	-0.2582966
7	0xbe18baa2	-0.14914945
8	0xbe992a9e	-0.29915327
9	0xbe96689b	-0.29376683
10	0x3cce4ef1	0.025184127
11	0x3d97aea0	0.07406354
12	0xbe5c5171	-0.21515442
13	0xbcd2207e	-0.02565026
14	0xbdedf986	-0.116198584
15	0xbcb95482	-0.022623304
16	0xbe84c1bd	-0.2592906
17	0x3d1e3cdb	0.038632255
18	0x3e0cb41b	0.1374058
19	0x3d45ed2f	0.0483219
20	0xbe2bd652	-0.16780975
21	0x3d174c88	0.03693822
22	0xbe98a05f	-0.29809853
23	0xbdc0f7ba	-0.0942225
24	0xbe2ac7c6	-0.1667777
25	0xbd8f2df8	-0.0699119
26	0xbe105452	-0.14094666
27	0xbdb9c6c2	-0.09071113
28	0xbc3f9f47	-0.0116956895
29	0xbdacfbbc	-0.08446452
30	0xbc34264a	-0.010995457
31	0x3cc19ee4	0.023635335
32	0xbe0b4b3b	-0.13602917
33	0xbc3549ae	-0.01106493
34	0x3cc0cbee	0.023534741
35	0x3dfa2270	0.122136
36	0xbdd013e1	-0.101600416
37	0xbd984d1a	-0.07436581
38	0x3d21f55a	0.039540626
39	0x3dcde805	0.1005402
40	0xbbce8974	-0.006303007
41	0xbd9b15f6	-0.07572548
42	0x3d7563ca	0.05990962
43	0x3de1d6e5	0.11027316
44	0xbe3d755c	-0.185018
45	0xbddd7159	-0.10812635
46	0x3d84049f	0.06446194
47	0x3dcb3866	0.099228665
48	0xbd1da47c	-0.038486943
49	0x3e83a3c5	0.25710884
50	0xbd9bd1ad	-0.07608352
51	0xbd5abf17	-0.053404894
52	0x3dec08dc	0.11525127
53	0x3e3519c0	0.17685604
54	0x3db005a5	0.085948266
55	0xbbca62d0	-0.00617633
56	0xbdfc918b	-0.123324476
57	0x3dcbc493	0.09949603
58	0xbbb0e652	-0.00539855
59	0xbb8404c4	-0.0040288884
60	0xbac71ea8	-0.0015191631
61	0x3d5db031	0.054123107
62	0xbb8334c0	-0.004004091
63	0x3d12de8c	0.03585677
64	0xbe225bfe	-0.15855405
65	0x3d843114	0.064546734
66	0x3d1eb09d	0.03874265
67	0x3e5a33f3	0.2130888
68	0x3d4f2773	0.05057473
69	0x3e16201c	0.14660686
70	0x3ca7ef95	0.020499984
71	0xbd3dd7f4	-0.046348527
72	0x3d19ee95	0.037581045
73	0x3dceb57a	0.10093208
74	0x3d8f12a9	0.06985981
75	0x3d00ce1f	0.031446572
76	0x3e12c667	0.14333497
77	0x3dbb1962	0.09135701
78	0x3cc7ad68	0.024374679
79	0x3ca7a78f	0.02046564
80	0x3d1510ee	0.0363931
81	0x3e5c7941	0.2153063
82	0x3e1d9df6	0.15392289
83	0x3db133bd	0.086524464
84	0x3d860cf3	0.065454386
85	0x3dd5ae50	0.10433638
86	0x3e2ea0e2	0.1705356
87	0xbc92b7c2	-0.017909888
88	0x3d0e2121	0.034699563
89	0x3e6017cb	0.21884076
90	0x3c21b1fc	0.009869095
91	0x3db713f3	0.08939352
92	0x3ca6bc1d	0.020353371
93	0x3e0c9293	0.13727789
94	0x3d737f41	0.05944753
95	0x3ddf07e9	0.108901806
96	0x3da69083	0.08133032
97	0x3e5b9e3b	0.21447079
98	0x3e082b7e	0.13297841
99	0xbe0d4b2b	-0.13798206
100	0x3c88a8c0	0.016682029
101	0x3e4fedb1	0.20305516
102	0x3e5fd9df	0.21860455
103	0x3cd7aabd	0.026326532
104	0x3d9cadda	0.07650347
105	0x3e12de9e	0.14342734
106	0x3e7b80c0	0.24560833
107	0x3e51b046	0.20477399
108	0x3d9c6311	0.07636083
109	0x3debce02	0.11513902
110	0x3eaac929	0.33356598
111	0x3e027ac7	0.12742148
112	0xbdebfa2f	-0.11522328
113	0xbd7af82c	-0.06127183
114	0x3d9294b0	0.07157266
115	0xbb054112	-0.0020332974
116	0xbe838abb	-0.2569178
117	0xbd0df2ea	-0.03465549
118	0x3e1af098	0.15130842
119	0x3e123a52	0.1428006
120	0xbe7563cc	-0.2396385
121	0xbdc17203	-0.09445574
122	0xbd6479d7	-0.055780258
123	0xbd706b9e	-0.05869638
124	0xbe20b7e4	-0.15695149
125	0xbe2279e7	-0.15866815
126	0xbd859e33	-0.06524315
127	0x3dbae458	0.09125584
128	0x3ca0b58a	0.019617815
129	0xbcf0d7b5	-0.029399732
130	0x3b23b9dd	0.002498261
131	0xbe12025b	-0.14258711
132	0xbcc3dabf	-0.023908017
133	0xbe48cfa7	-0.19610463
134	0xbcb618f6	-0.0222287
135	0xbd924a1a	-0.0714304
136	0xbd2ce66e	-0.042211942
137	0xbcacd76d	-0.021098817
138	0xbc91b961	-0.01778859
139	0x3a6e58a8	0.00090921903
140	0xbe1857b6	-0.14877209
141	0x3d6deb9f	0.058086034
142	0xbd4bbfec	-0.049743578
143	0xbd3e6a7a	-0.046488263
144	0x3d0492c1	0.032366518
145	0x3c2d0d3e	0.010562239
146	0x3c4baf64	0.012431953
147	0x3e21ef64	0.15813977
148	0x3d321002	0.043472297
149	0xbd52b5a4	-0.051442757
150	0xbd4782c7	-0.048708703
151	0x3b068073	0.002052334
152	0xbd893c65	-0.067009725
153	0xbda97e50	-0.08276045
154	0xbd14a02e	-0.03628557
155	0x3dafbece	0.08581315
156	0xbd80ae3b	-0.06283232
157	0x3d9475b0	0.072490096
158	0xbd27b6ff	-0.040946003
159	0xbd3d1c80	-0.046169758
160	0xbdd06505	-0.10175518
161	0x3ccdf230	0.025139898
162	0xbd3fef56	-0.046859108
163	0xbe4801b6	-0.19531903
164	0x3e726104	0.23669821
165	0x3e0d1537	0.13777624
166	0x3e1905ca	0.14943615
167	0xbcfd861c	-0.030947737
168	0xbd5b556f	-0.053548273
169	0x3e2876c4	0.16451555
170	0x3d32f58d	0.043691207
171	0x3d7f0289	0.062258277
172	0x3ce8d3a5	0.028421232
173	0xbb2d1406	-0.002640964
174	0xbdb5fce6	-0.08886127
175	0x3e8c560e	0.27409405
176	0xbe2c116f	-0.16803525
177	0xbe696d62	-0.22795632
178	0xbd374383	-0.04474212
179	0x39a86190	0.00032116147
180	0xbdf43e30	-0.11925924
181	0xbe82d7f8	-0.25555396
182	0xbe3c1221	-0.1836629
183	0x3be52605	0.0069930577
184	0xbe251763	-0.16122203
185	0x3d11c830	0.035591304
186	0xbe24ec30	-0.16105723
187	0xbd8ebe8c	-0.06969938
188	0x3c01b981	0.007917763
189	0xbc33f3e8	-0.010983445
190	0x3c735419	0.014851593
191	0xbc991d7f	-0.018690823
192	0xbe13ca44	-0.14432627
193	0x3d904cba	0.070458844
194	0x3d664ebb	0.056227427
195	0x3e1c2539	0.15248574
196	0x3b568f10	0.003273908
197	0x3bb55f78	0.0055350624
198	0xbca337b6	-0.019924026
199	0x3dd1dd23	0.102472566
200	0x3d2301d0	0.03979665
201	0x3daa7066	0.083222196
202	0xbc3d2f09	-0.011546859
203	0x3db781f2	0.08960332
204	0x3d869394	0.06571117
205	0xbace1f93	-0.0015725963
206	0xbab59034	-0.001385218
207	0xbd4a215b	-0.049348217
208	0xbe091b1d	-0.13389249
209	0xbe0436d5	-0.12911542
210	0xbd9e0a50	-0.07716811
211	0x3d938920	0.07203889
212	0xbde967b0	-0.1139673
213	0xbe97c89d	-0.29645243
214	0xbe9aa59b	-0.30204472
215	0x3b6334b1	0.0034668858
216	0xbdbc7e47	-0.09203773
217	0xbea46503	-0.32108316
218	0xbcc1d4bf	-0.023661016
219	0x3d096d7d	0.03355168
220	0x3be96bf5	0.007123465
221	0xbdf79c5c	-0.1209037
222	0xbda80933	-0.082048796
223	0xbde0c5ea	-0.10975249
224	0x3b47131a	0.0030376376
225	0xbd5a38dd	-0.053276885
226	0xbc4bb5a1	-0.01243344
227	0x3e236d43	0.15959649
228	0xbe1d243e	-0.15345857
229	0xbd556461	-0.052097682
230	0xbd819dbc	-0.063289136
231	0x3df77282	0.120823875
232	0xbda987ce	-0.08277856
233	0xbce7428c	-0.028229974
234	0xbd0ea4ce	-0.03482514
235	0xbe883671	-0.26604035
236	0xbd8dfad0	-0.06932604
237	0xbdbde4cb	-0.092721544
238	0xbe0c56ca	-0.13704982
239	0xbe95aa32	-0.2923141
240	0xbe076f94	-0.13226157
241	0xbdbe6651	-0.09296859
242	0xbd7d03b8	-0.061771125
243	0xbc23c81e	-0.009996442
244	0xbe76e976	-0.24112496
245	0xbe0b4689	-0.13601126
246	0xbe4c0569	-0.19923939
247	0xba518a99	-0.000799337
248	0xbda063be	-0.07831524
249	0xbe3bd29b	-0.18342058
250	0xbd942079	-0.07232756
251	0xbdda781b	-0.106674396
252	0xbd78a713	-0.06070621
253	0xbe5916de	-0.2120013
254	0x3d4baeef	0.049727377
255	0xbdef7dec	-0.116939396

main.5.bias f4 [64]
0	0xbd7fe48d	-0.062473822
1	0xbe99eacf	-0.30061957
2	0xbcee10fe	-0.029060837
3	0x3d15d528	0.036580235
4	0x3d88bf6d	0.066771366
5	0xbce561fa	-0.02800082
6	0xbcc8abf4	-0.024496056
7	0xbdd34e13	-0.10317626
8	0xbd794e69	-0.060865793
9	0x3d29c655	0.04144891
10	0xbd2dda08	-0.04244426
11	0x3d5968f4	0.053078607
12	0x3cd7a4df	0.026323734
13	0xbd93ac96	-0.072106525
14	0xbd8ad54c	-0.067789644
15	0xbb9056b9	-0.0044048694
16	0x3cb03f12	0.02151445
17	0x3daa7050	0.08322203
18	0xbc99b534	-0.018763162
19	0xbe8b3b94	-0.27193892
20	0x3d2bf9f4	0.04198642
21	0x3dd5418a	0.10412891
22	0xbdd8c2ec	-0.105840534
23	0xbdea7922	-0.114488855
24	0xbda3d707	-0.079999976
25	0xbd8b05f8	-0.06788248
26	0x3d0886d3	0.033331703
27	0xbd11573a	-0.035483576
28	0xbd8c3270	-0.06845558
29	0x3a578c70	0.0008222526
30	0xbbcc322e	-0.006231568
31	0xbdc146b9	-0.094373174
32	0x3bb925f1	0.005650275
33	0xbc89e0c8	-0.016830817
34	0x3dbc0457	0.09180515
35	0x3c8fffc5	0.017578015
36	0x3d4a4bf4	0.04938884
37	0xbcc249bf	-0.023716806
38	0x3cc43634	0.023951627
39	0x3e52ae53	0.20574312
40	0xbc9dcc4f	-0.019262461
41	0xbd1b07e4	-0.037849322
42	0x3ca52875	0.020160893
43	0x3dbe381f	0.09288048
44	0xbd787284	-0.060656086
45	0x3db9d778	0.090743005
46	0xbdd78afb	-0.10524555
47	0x3e3bfb91	0.18357684
48	0xbd3847b6	-0.044990264
49	0x3d53d7d2	0.051719494
50	0xbd700c83	-0.058605682
51	0xbd035598	-0.03206405
52	0xbd8a9b51	-0.067679055
53	0x3ddc174c	0.10746631
54	0xbda95ac5	-0.08269266
55	0xbd143962	-0.036187537
56	0xbdce14a3	-0.1006253
57	0xbdc3e993	-0.09566035
58	0x3e613a54	0.21994907
59	0xbba94e73	-0.0051668226
60	0x3d566067	0.05233803
61	0x3d2c4713	0.04205997
62	0x3cc50df4	0.024054505
63	0x3d86b989	0.06578357

main.6.weight f4 [64]
0	0x3fa2924a	1.2700894
1	0x3fa50288	1.2891397
2	0x3fabddac	1.3427024
3	0x3f9c9815	1.2233912
4	0x3faea7f6	1.3645008
5	0x3fa505b4	1.2892365
6	0x3fa6e4fb	1.3038629
7	0x3fb3dba0	1.4051399
8	0x3f9d53a1	1.2291147
9	0x3fa3c074	1.2793107
10	0x3f91b1a3	1.1382335
11	0x3fa17715	1.2614466
12	0x3fb705de	1.4298666
13	0x3fb061d4	1.3779855
14	0x3fb29a5f	1.395336
15	0x3fad6e34	1.3549256
16	0x3fa2886f	1.2697886
17	0x3fa8cd0d	1.3187577
18	0x3fa455d5	1.2838694
19	0x3faebbf1	1.3651105
20	0x3fb094b7	1.3795384
21	0x3fac550b	1.3463453
22	0x3fa09a7e	1.2547147
23	0x3fb27de6	1.3944671
24	0x3faff7bd	1.3747479
25	0x3fa19da6	1.2626235
26	0x3fa561f1	1.2920514
27	0x3f963ff6	1.1738269
28	0x3fa4e47b	1.2882227
29	0x3fa683f9	1.3009025
30	0x3fae7ce3	1.3631862
31	0x3fa5a421	1.2940713
32	0x3fa35a5f	1.2761954
33	0x3f962165	1.1728941
34	0x3fac07ed	1.3439919
35	0x3fad0d71	1.3519727
36	0x3fa251b5	1.2681185
37	0x3fbeb2d6	1.4898326
38	0x3f95a555	1.169108
39	0x3fa0f324	1.2574201
40	0x3f927ecb	1.1444944
41	0x3fa377aa	1.2770894
42	0x3fb3f58f	1.4059314
43	0x3f99b88b	1.2009443
44	0x3fb178dc	1.3865008
45	0x3fb24a57	1.3928937
46	0x3fa95bcb	1.3231138
47	0x3fa531a3	1.2905773
48	0x3fac37b8	1.3454504
49	0x3fa163a2	1.260853
50	0x3f9ba470	1.2159557
51	0x3fb0889a	1.3791687
52	0x3fa7c680	1.3107452
53	0x3fa069e6	1.2532318
54	0x3fb8afc8	1.4428644
55	0x3fa35058	1.2758894
56	0x3fa9d713	1.326876
57	0x3fab27b9	1.3371497
58	0x3f9edee8	1.2411776
59	0x3fa8b6d4	1.3180795
60	0x3fa8f912	1.320101
61	0x3fa3d663	1.2799801
62	0x3f9aa976	1.2082965
63	0x3faadb30	1.3348141

main.6.bias f4 [64]
0	0xbd7ebb44	-0.06219031
1	0xbd48f5f8	-0.0490627
2	0xbe143827	-0.14474545
3	0xbdaf71fe	-0.08566664
4	0xbbc3cfdc	-0.0059757065
5	0xbda5bfdf	-0.08093237
6	0xbd4d82be	-0.050173514
7	0x3d617e0f	0.05505186
8	0xbe11db0d	-0.14243717
9	0xbed3fce0	-0.41403866
10	0xbe8ce0dd	-0.27515307
11	0xbeacb452	-0.33731323
12	0xbd76b450	-0.060230553
13	0xbd717807	-0.058952358
14	0xbe42cdd1	-0.19023825
15	0xbe7596b6	-0.23983273
16	0xbd03fcc5	-0.03222348
17	0xbda04c93	-0.078271054
18	0xbe34f1e8	-0.17670405
19	0xbc7973c9	-0.015225359
20	0xbe18b549	-0.14912905
21	0xbd034d59	-0.032056186
22	0xbd9b7b22	-0.07591845
23	0x3da5edcd	0.081019975
24	0xbdabe1de	-0.0839269
25	0xbe15b7bb	-0.14620869
26	0xbdb2eafb	-0.08736225
27	0xbe8a2b6b	-0.2698625
28	0xbda112be	-0.07864903
29	0xbd831298	-0.06400031
30	0xbdb77fc1	-0.08959914
31	0xbe30d068	-0.17267
32	0xbe2fc30b	-0.17164247
33	0xbe57b92f	-0.21066736
34	0xbe242bc8	-0.16032326
35	0xbecaf0c7	-0.39636824
36	0xbc143f5e	-0.009048311
37	0xbe0f60f9	-0.14001836
38	0xbe2851e1	-0.16437484
39	0xbddb557d	-0.10709665
40	0xbdc81fa6	-0.097716615
41	0xbe283ca1	-0.16429378
42	0xbc366780	-0.011133075
43	0xbe4fe2ce	-0.20301363
44	0xbeae1d66	-0.34006804
45	0xbe0086df	-0.12551449
46	0xbdf26273	-0.11835184
47	0xbdad2e41	-0.08456088
48	0xbd278912	-0.040902205
49	0xbe1fbff1	-0.15600564
50	0xbe02d76d	-0.12777491
51	0xbe06e4a2	-0.13173154
52	0xbd3aec8d	-0.04563575
53	0xbe025e17	-0.12731205
54	0xbd8cb638	-0.06870693
55	0xbd9a18b4	-0.07524243
56	0xbdff19bd	-0.12456081
57	0xbd12b782	-0.035819538
58	0xbd7ac58d	-0.061223555
59	0xbe116aeb	-0.14200942
60	0xbd50d3c3	-0.0509832
61	0xbd14d03c	-0.0363314
62	0xbe2679e3	-0.16257434
63	0xbd57c121	-0.052674416

main.6.running_mean f4 [64]
0	0xbf8e901f	-1.1137732
1	0xbed73905	-0.4203569
2	0xbf956bcd	-1.1673523
3	0x3e9a84ba	0.30179387
4	0x3e19810d	0.14990635
5	0xc01cece1	-2.451958
6	0x3e81b271	0.25331452
7	0xbed79e2c	-0.42112863
8	0x3ed297b5	0.41131368
9	0x3de5ed50	0.112269044
10	0x3f6145fa	0.879974
11	0x3eb390a5	0.35071293
12	0xbfae3b81	-1.3611909
13	0xc003f9a9	-2.062113
14	0xc01e1829	-2.4702246
15	0xbf919ffd	-1.137695
16	0xbf9cb72b	-1.2243398
17	0xbf0d8bc2	-0.5529138
18	0x3c8ace57	0.016944094
19	0xbf12b263	-0.57303447
20	0xbf623634	-0.8836396
21	0xbec5f195	-0.38660875
22	0xbf41d518	-0.7571578
23	0xbf724006	-0.9462894
24	0xbee42c8d	-0.4456524
25	0x3ffe195d	1.985149
26	0xc0179666	-2.3685546
27	0x3f92ae19	1.145938
28	0xbfb24f6e	-1.393049
29	0xbed324b7	-0.4123895
30	0xbffffc56	-1.9998882
31	0xbea5c46a	-0.32376415
32	0x3f251270	0.6448126
33	0xbf0d58db	-0.5521371
34	0x3fdd5901	1.7292787
35	0x3de84222	0.11340739
36	0xbfd27512	-1.6441977
37	0x3ea78551	0.327189
38	0x3e48f71a	0.19625512
39	0xbfc7dcef	-1.5614299
40	0x3d93c977	0.07216161
41	0x3e3b0367	0.18263017
42	0xbf98f0a8	-1.1948442
43	0xbf96d58c	-1.1783919
44	0xbd9b0d73	-0.075709246
45	0xbeb7f99e	-0.3593263
46	0x3dcc8a83	0.099873565
47	0xbff930ab	-1.9467977
48	0xbcb9e3c4	-0.022691615
49	0xbf3c1aa3	-0.73478144
50	0x3e0b1dec	0.13585633
51	0xbf89851c	-1.0743747
52	0xbf17acd0	-0.59248066
53	0x3ea7b0bd	0.32752028
54	0xbfcf96ab	-1.6217855
55	0xbff8626f	-1.940504
56	0x3f11aa3e	0.56900394
57	0xc00b2bd4	-2.17455
58	0xbf025e2d	-0.5092495
59	0xbfd84eda	-1.6899064
60	0x3fcd46c0	1.6037216
61	0xbfadec73	-1.3587784
62	0x3e93c4ac	0.28860986
63	0x3f8b29a3	1.0872082

main.6.running_var f4 [64]
0	0x3faca37c	1.3487391
1	0x3f95fb47	1.1717309
2	0x3fbf1a5a	1.4929917
3	0x3fd591ba	1.6685097
4	0x3f8cb0c0	1.099144
5	0x3fbb6dbd	1.4642864
6	0x3fb44e20	1.4086342
7	0x3fc124b9	1.5089332
8	0x3f56a9ef	0.8385305
9	0x3fcc7e0c	1.5975966
10	0x3fa2443f	1.2677077
11	0x3f8a2ac7	1.0794305
12	0x3fb49186	1.410691
13	0x3f892179	1.071334
14	0x3f9479fc	1.1599727
15	0x3fe1009e	1.7578313
16	0x3fb65a2a	1.4246266
17	0x3f9dae2a	1.2318776
18	0x3fd931ff	1.6968383
19	0x3fa09171	1.2544385
20	0x3fc53fb1	1.5410062
21	0x3fc2decb	1.5224241
22	0x3fb11d30	1.3837032
23	0x3f9bb987	1.2165993
24	0x3fc6cf07	1.553193
25	0x3f954b6b	1.1663641
26	0x3f8e995e	1.1140554
27	0x3f84a8a2	1.0363963
28	0x3f90a174	1.1299272
29	0x3fb75bb7	1.4324864
30	0x3f9a9acf	1.2078494
31	0x3f7207d3	0.9454319
32	0x3fc31860	1.5241814
33	0x3f8fb56c	1.122724
34	0x3fbc49c3	1.471001
35	0x3fac735c	1.3472705
36	0x400969c8	2.1470814
37	0x3fce72a8	1.612874
38	0x3fa22e1b	1.267032
39	0x3f83d3c8	1.0299006
40	0x3f809970	1.0046825
41	0x3fa5d1fe	1.295471
42	0x3fa11b80	1.2586517
43	0x3f9ca651	1.2238256
44	0x3fb6bc1d	1.4276158
45	0x3f909008	1.1293955
46	0x3f8af22c	1.0855155
47	0x3fa0a15d	1.2549244
48	0x3fa66929	1.3000842
49	0x3f796f41	0.97435385
50	0x3f954d43	1.1664203
51	0x3fa8cdc7	1.3187798
52	0x3fa748d4	1.30691
53	0x3f9a6d11	1.2064534
54	0x3f9713b5	1.1802889
55	0x3fafc945	1.3733298
56	0x3fd31aa6	1.6492507
57	0x3f8055d7	1.0026196
58	0x3fb05f14	1.3779016
59	0x3fb360dd	1.4013935
60	0x3f872b87	1.0560158
61	0x3fc14bf3	1.5101303
62	0x3fa99c96	1.3250911
63	0x3f9b9fc0	1.2158127

main.8.weight f4 [1, 64, 4, 4]
0	0xbddff022	-0.109344736
1	0x3d52b5d6	0.051442944
2	0x3e0ab8b1	0.13547017
3	0xbe1de00f	-0.15417503
4	0xbe6c4c3d	-0.23075958
5	0x3df295f4	0.118450075
6	0xbe02fd7f	-0.12792014
7	0x3d163491	0.036671225
8	0xbe6ca192	-0.23108509
9	0x3e4b5c4c	0.19859427
10	0xbe5f46b5	-0.21804316
11	0xbccc276f	-0.024921147
12	0xbeb690d4	-0.3565737
13	0x3c31f9f5	0.010862817
14	0xbdee15a3	-0.116252206
15	0xbdf2f500	-0.11863136
16	0x3e95024b	0.29103312
17	0x3e918d58	0.2842815
18	0x3eb0a422	0.34500223
19	0x3e8ad1d3	0.27113208
20	0x3e4fc0f5	0.20288451
21	0xbdc3c564	-0.09559134
22	0xbc04c58e	-0.008103741
23	0x3db2f4af	0.08738076
24	0x3e928170	0.28614378
25	0x3b66a0ad	0.0035190985
26	0x3d6114e6	0.05495157
27	0x3e0fb2df	0.14033078
28	0x3d57ec9e	0.05271589
29	0xbddba13e	-0.10724114
30	0xbd8fc6a0	-0.070203066
31	0x3e459349	0.19294466
32	0xbe0e55fe	-0.13899991
33	0xbe8d22ef	-0.27565715
34	0x3f0c48fc	0.54798865
35	0xbd9c915a	-0.07644911
36	0xbdbd2937	-0.09236377
37	0x3ddcf1aa	0.10788281
38	0xbe4d6ba6	-0.20060596
39	0xbe129b16	-0.14316973
40	0x3cb056d5	0.02152578
41	0x3d901ac5	0.07036356
42	0xbd2251fb	-0.039628964
43	0xbdcc0ce5	-0.09963397
44	0xbe0e1710	-0.13875985
45	0xbe625ec2	-0.2210646
46	0x3e8d5141	0.27601054
47	0x3d73bee8	0.059508234
48	0x3ee6204e	0.44946522
49	0x3e60c0ad	0.219485
50	0x3bb4932e	0.0055107092
51	0x3d847796	0.06468122
52	0x3d6cffde	0.0578612
53	0x3dbdfbe1	0.09276558
54	0xba81b855	-0.0009896854
55	0x3e8b2124	0.27173722
56	0x3d2e0291	0.042482916
57	0x3e083824	0.13302666
58	0x3ee14081	0.43994525
59	0x3d3ab9f5	0.0455875
60	0x3e8bd4bf	0.2731075
61	0x3ddbc78f	0.10731422
62	0x3de9dd0b	0.11419114
63	0x3df553dd	0.11978886
64	0x3eae9155	0.34095255
65	0x3e5d9222	0.21637776
66	0x3e0fae19	0.14031257
67	0xbe70c705	-0.2351342
68	0x3e838d11	0.25693563
69	0xbd3d213c	-0.046174273
70	0xbbff63de	-0.0077938875
71	0xbc5a546a	-0.01332579
72	0x3e70230f	0.23450874
73	0xbdd82a7c	-0.10554978
74	0x3e60a11d	0.2193646
75	0x3d957120	0.072969675
76	0xbdfe1a6a	-0.12407382
77	0xbb52cf19	-0.0032166897
78	0x3d119efe	0.035552017
79	0x3e79aa09	0.2438127
80	0xbe3ca065	-0.1842056
81	0xbe421fc3	-0.18957429
82	0xbe8272c8	-0.25478196
83	0xbe37263d	-0.1788568
84	0xbcddc694	-0.027072228
85	0x3e16fccb	0.1474487
86	0x3e4f0aff	0.20219038
87	0xbdbf727f	-0.0934801
88	0xbd203ddc	-0.039121494
89	0xbe0e3e92	-0.13891056
90	0x3e9b0144	0.30274403
91	0xbe4e4637	-0.20143972
92	0x3dbade23	0.091244005
93	0x3dbd1458	0.09232396
94	0x3e2f0b2c	0.17094105
95	0xbe06f30b	-0.13178651
96	0x3dfbb663	0.12290647
97	0x3e33feb8	0.17577636
98	0x3e657110	0.22406411
99	0x3e5b1496	0.21394572
100	0x3e90f55a	0.28312188
101	0x3e825d2e	0.25461715
102	0x3cecd020	0.028907835
103	0x3e692108	0.22766507
104	0x3e8a7832	0.27044827
105	0xbda94657	-0.082653694
106	0xbe4f6bf5	-0.20256026
107	0x3e38e6a5	0.18056734
108	0x3e00b2ad	0.1256816
109	0x3b16b456	0.0022995672
110	0x3e627934	0.22116548
111	0x3e85e416	0.26150578
112	0xbda45995	-0.08024899
113	0x3e0c1218	0.13678777
114	0x3e83b80f	0.25726363
115	0x3ea241be	0.31690782
116	0x3d397bd2	0.0452841
117	0xbe6cc298	-0.23121107
118	0x3d23bbf9	0.039974187
119	0x3d782547	0.060582425
120	0x3c0cd323	0.008595261
121	0xbe8abb76	-0.27096146
122	0xbb972b44	-0.004613312
123	0x3d5d7755	0.054068882
124	0x3cf256d5	0.02958242
125	0x3e926dc7	0.28599378
126	0x3e726383	0.23670773
127	0xbe51132f	-0.20417474
128	0x3de718b8	0.112840116
129	0xbe1181d7	-0.14209686
130	0xbcadcc0e	-0.021215465
131	0x3dbaf411	0.09128583
132	0x3e6bb481	0.23018076
133	0xbc79c7b4	-0.015245367
134	0x3db9c986	0.09071641
135	0x3d197eaf	0.03747433
136	0x3e6ca32b	0.23109119
137	0xbdc42a8c	-0.09578428
138	0x3dafa51a	0.085764125
139	0xbd555faa	-0.052093185
140	0x3e852017	0.26001045
141	0x3d9c45a1	0.07630468
142	0xbe742f83	-0.2384625
143	0xbe05285c	-0.13003677
144	0x3da7fc8d	0.08202467
145	0xbd96a730	-0.07356107
146	0xbdaefbed	-0.08544145
147	0xbe1170d1	-0.14203192
148	0x3e0df291	0.13862063
149	0x3df78e1d	0.12087653
150	0x3e5b03c3	0.21388154
151	0xbcd924d7	-0.026506824
152	0xbe589b0a	-0.21152893
153	0x3e38e97a	0.18057814
154	0xbe999b61	-0.30001357
155	0x3bd77ac1	0.0065759127
156	0xbd1aa2a5	-0.037752766
157	0x3b2aaeea	0.0026044198
158	0xbe1fb203	-0.1559525
159	0x3dd2d8e6	0.10295276
160	0xbd7759e9	-0.06038848
161	0xbdaf0a45	-0.08546881
162	0x3d8a71b4	0.067599684
163	0xbc248893	-0.010042327
164	0xbe328bfd	-0.17436214
165	0x3d923140	0.071383
166	0xbe289486	-0.16462907
167	0x3e75b833	0.23996048
168	0xbe56d26b	-0.20978706
169	0x3d86680a	0.065628126
170	0xbe8c7f8d	-0.27441064
171	0x3e176a1c	0.14786571
172	0xbd8fb620	-0.070171595
173	0xbd580e3b	-0.052747946
174	0xbc97c6af	-0.018527357
175	0xbe29d582	-0.16585353
176	0xbc59e278	-0.013298623
177	0x3d548fba	0.05189488
178	0x3d80e605	0.06293873
179	0x3de42dd5	0.11141554
180	0x3e77bfc1	0.24194242
181	0xbaa74181	-0.001276061
182	0xbda22ed0	-0.07919085
183	0xbe7896e0	-0.24276304
184	0xbdf6e994	-0.1205627
185	0x3c5fa2dc	0.013649669
186	0x3e376bbe	0.17912194
187	0xbc46f6dd	-0.012143818
188	0x3bf7945a	0.0075555267
189	0xbe99f22f	-0.30067584
190	0x3e8012c4	0.25014317
191	0x3db57e7a	0.08862014
192	0xbe074f0c	-0.13213748
193	0xbed22637	-0.4104478
194	0xbde513f5	-0.11185447
195	0xbe42402b	-0.1896979
196	0x3e4dab3f	0.20084856
197	0x3d6edc02	0.058315285
198	0x3dee760e	0.11643611
199	0xbe316cfa	-0.17326728
200	0x3e0c628b	0.13709466
201	0x3e00e8fe	0.1258888
202	0xbe4f2dc9	-0.2023231
203	0xbe0ac8cb	-0.13553159
204	0xbe87a117	-0.2649009
205	0xbdafd6f0	-0.08585918
206	0xbe650a7b	-0.22367279
207	0xbed679dc	-0.41889846
208	0xbebe1c97	-0.37131187
209	0x3dbf0dce	0.09328805
210	0x3da43014	0.08016983
211	0x3da4876a	0.08033641
212	0x3d017327	0.03160396
213	0xbe349cb7	-0.17637907
214	0x3d31885e	0.04334294
215	0x3d337d45	0.04382064
216	0x3e0e92f2	0.13923243
217	0x3de3e6ec	0.11128029
218	0x3e1eca3c	0.15506834
219	0xbd0f9e39	-0.035063002
220	0xbe8b16ff	-0.27165982
221	0xbe4cdab3	-0.20005302
222	0x3e8d86a3	0.27641782
223	0xbed545d6	-0.41654843
224	0xbe6705ed	-0.22560854
225	0x3e6d72a9	0.2318827
226	0x3e0eae32	0.13933638
227	0xbebe8a27	-0.37214777
228	0xbd054536	-0.032536708
229	0xbe2ac01a	-0.16674843
230	0x3cf21101	0.029549124
231	0xbdcf0c98	-0.10109824
232	0xbdc2f198	-0.095187366
233	0x3d90f5cc	0.07078132
234	0x3dc0f25d	0.09421227
235	0xbd909029	-0.07058746
236	0xbe4365da	-0.19081822
237	0x3e89049c	0.2676133
238	0xbe4b0bcd	-0.1982872
239	0xbe271570	-0.16316772
240	0xbdfc6022	-0.123230234
241	0xbe3606d9	-0.1777605
242	0x3ec18912	0.3779989
243	0x3d2a4df3	0.041578244
244	0x3c79bd6c	0.015242916
245	0x3e3f1edc	0.18664116
246	0xbd5708e0	-0.0524987
247	0xbe0a1ad3	-0.13486795
248	0xbde4b28b	-0.11166867
249	0x3e7213a3	0.23640303
250	0xbe7c4d77	-0.24638925
251	0xbdfd7e53	-0.1237761
252	0x3c486a48	0.012232371
253	0xbe35342f	-0.17695688
254	0x3cbcd17d	0.02304911
255	0xbdadb6ad	-0.08482108
