saved_model/D_state_dict.pt (torch, 177105 bytes, 15 tensors)

main.0.weight f4 [16, 1, 4, 4]
00000000: 2a3d 963d 8a67 1fbe e2a3 083e b817 1fbe
00000010: 013e 49be c852 683e 1cc6 0f3e 30b3 18bc
00000020: d9db c2be faa5 48be 14cb 743b fc3a 58bd
00000030: 43cd dabe c45f 4dbe 5def 4e3e 5479 1f3e
00000040: 2588 d3be 7215 fcbe 9eec 46bf 13a8 15be
00000050: 5733 dbbd 0444 abbe c622 e1be 025d f7bd
00000060: caa9 77bd 39f1 91be 53c2 3bbe 42ef 8a3d
00000070: 9f0d e33d 9d5d 303e 202d 9bbd 443a 833e
00000080: 8f55 d33c 0891 e73d 91d0 0cbe 3c68 5d3c
00000090: 697b 1039 4ed4 62be 9442 8bbd 81b0 523e
000000a0: 5de6 d6bd e342 c13d bf5a f13e 3762 85be
000000b0: e76a 77bf 508d 04bf 6c8f d8be a3d3 3f3d
000000c0: 56d4 633d 09af 4e3e a32d 5fbe 4f25 1f3e
000000d0: fc2c 56bd 62f2 53be 1a5b b23e cfa6 f6bd
000000e0: 6ec4 fb3d f8d4 0fbe d45d 183e eace 34be
000000f0: 6bee 15ba d34b 0dbe 983b 0f3d 3ea5 72bd
00000100: cea8 abbd af62 103e fe45 2ebe e8be 24be
00000110: 268f 733e 4902 77bd 4f5d 593e 6f84 64bd
00000120: 866e 7c3e fc0b 043e 4614 7c3e 4b2a 43be
00000130: c1ad 69be 6b5e 853e 97dd c6ba 117e a93c
00000140: 1db0 77be d646 993d 033d 913e e5b8 ab3e
00000150: b385 6f3c 23ff b13d a336 71be 0581 b4bc
00000160: e06d f03d e76e 69be 0973 65bd a159 4bbe
00000170: d4f7 293c b2ad 9f3d 1a3e 3c3d 17cf 293d
00000180: 5f6a 3d3c abaf 72be 4d98 4f3d 9b57 6a3c
00000190: 710f 94bd 770f f33d b3ba 183e cf1f cf3d
000001a0: 43c0 e2bd 2b17 31bd d06b 873d 8ab8 3f3d
000001b0: a1fc 08be d107 7c3d 9003 233e 029f 9a3d
000001c0: df7e a9be 9732 e5be 3c79 52bd 06e4 f7bd
000001d0: dcf7 90bb 5096 c7bd e930 8f3e 530a 1e3e
000001e0: 10c0 d53e 4dc3 843e 61c9 59be d06f 06be
000001f0: 5463 b7be 0211 8bbe 8ff4 c73d 0747 d53c
00000200: 13ae 543e 57e0 1dbe af64 c33d 24c4 053e
00000210: 8e95 0e3e b0e1 c5be d5a2 9ebe 0cb0 92bd
00000220: 69ef ebbd 50e7 20bf cc89 a6bd 9bc8 84bd
00000230: de2c 34be 93d0 a3be 40bc 0cbf 9466 9bbe
00000240: 768a 5fbd fb71 d23d 9f97 f63d ad85 15bd
00000250: 302d 5f3e 89c4 9d3e 18a2 87be 062d c53d
00000260: c24e 0c3e 8233 6abe b8a2 70be 0abc 97bd
00000270: 7d19 9fbe 7cbc b4be 1d40 9f3d 86b0 e23d
00000280: 7b63 553a fb92 d5be 42a5 8d3e 0266 fc3d
00000290: a717 ac3a 1238 51bf 33b9 063d 257e 573c
000002a0: 9c4d afba 3939 753e 503c 60be e1bd 473e
000002b0: 2527 3a3b 931d 11bd b198 d9be b047 323e
000002c0: cd24 aa39 7187 0bbc fb0c 463d 118c 0abd
000002d0: 983c 76be 1faf a53e 30bc 543e c732 5b3e
000002e0: be1f 7dbe 1556 abbe 9e67 943d 3b2e a93e
000002f0: 9340 cb3d 06a6 a1be 79fe 8ebe 3552 d4be
00000300: edc1 4e3e b7c8 823e 0d78 10be e62c bcbd
00000310: cdf7 6e3e 24ff 713d e71d 84be 3a98 413d
00000320: 476a 1f3e 440f 04be fa21 21be 6e3a 213d
00000330: 835d 3b3d 0196 77bd 892c cd3c a716 613d
00000340: 5f69 0bbe 7874 5fbe bbb9 5bbd 525c 23be
00000350: 968a 07be b0a2 3dbc c954 84be 34f8 55be
00000360: 0c30 3f3e 71ee 2a3e 1863 8f3d 1113 5fbd
00000370: ba92 de3d fd29 4d3e bbd5 053e 1533 3fbe
00000380: 041b 873a 1b8e 7bbe 2520 79be bb95 a5b8
00000390: 78fd 80bc a506 e13e d480 c23e e136 0b3b
000003a0: 545f 26be d5d4 22bf 7110 8bbf 174f bfb9
000003b0: 0681 313e 8062 843e b2ea 44bf 7d31 363a
000003c0: e006 87be 70a4 ec3e 23b2 94be 69da 82ba
000003d0: 3729 7dbd d435 0d3e 81b0 35be f6b8 34bf
000003e0: 3145 4dbe 9caf 0c3e 3867 8e3e c89f 82bf
000003f0: c5b7 19b9 fb35 1c3b 1b73 45bc c333 ce39
0.07335885 -0.15566841 0.13343766 -0.15536392 -0.19652559 0.22687829 0.14040416 -0.009320065
-0.38058355 -0.19594565 0.003735249 -0.052790627 -0.42734727 -0.20056063 0.20208497 0.15573627
-0.41314808 -0.4923511 -0.777048 -0.14614896 -0.10703152 -0.3345033 -0.43971843 -0.12078287
-0.060464658 -0.2850435 -0.18335848 0.06783916 0.110865824 0.1722321 -0.07576966 0.2563039
0.025797633 0.113069594 -0.13751437 0.013513621 0.00013778884 -0.221513 -0.06799808 0.20575143
-0.10493157 0.09436586 0.47139546 -0.26051494 -0.96647495 -0.51778126 -0.42296922 0.046832692
0.05562242 0.20183958 -0.21794753 0.15541576 -0.052288994 -0.2069793 0.3483513 -0.12043535
0.12293325 -0.14046085 0.14879543 -0.17657056 -0.0005719426 -0.13798456 0.034968942 -0.05923962
-0.08381806 0.14100145 -0.17018887 -0.1608845 0.23785076 -0.060304914 0.21227 -0.05579036
0.24651536 0.12895197 0.24617109 -0.19059102 -0.22820188 0.26048598 -0.001517224 0.020689996
-0.24188276 0.07484214 0.2836686 0.335395 0.014619279 0.086912416 -0.23555999 -0.022034178
0.11739707 -0.22796212 -0.05601791 -0.1985841 0.010374028 0.077968016 0.045957662 0.041457262
0.011561005 -0.23699825 0.050682355 0.014303113 -0.07229508 0.11868184 0.1491497 0.10113489
-0.11071827 -0.043234985 0.066123605 0.04680685 -0.1337762 0.06153089 0.15919328 0.075498596
-0.33104607 -0.4476516 -0.05138515 -0.12104039 -0.0044240784 -0.09745467 0.27967003 0.15433626
0.41748095 0.25930253 -0.21268226 -0.1312859 -0.3581797 -0.27161413 0.09763443 0.026034845
0.20769529 -0.1541761 0.09540688 0.13063103 0.13924238 -0.38648748 -0.30983606 -0.071624845
-0.11520273 -0.62852955 -0.081317514 -0.06483575 -0.1759524 -0.31995067 -0.54974747 -0.30351698
-0.054575406 0.10275646 0.12040638 -0.036504436 0.21794581 0.30814007 -0.26490855 0.09627728
0.13701919 -0.22871211 -0.23499572 -0.074089125 -0.31074134 -0.35300052 0.077759005 0.110688254
0.0008140129 -0.417137 0.27665144 0.12324144 0.0013129608 -0.8172618 0.032891463 0.013152634
-0.001337457 0.2394761 -0.21898007 0.19506027 0.002840468 -0.035428595 -0.42499307 0.17410159
0.00032452345 -0.0085161785 0.048352223 -0.033824984 -0.24046552 0.3236017 0.20774913 0.21406089
-0.2471914 -0.33464113 0.07246326 0.33043084 0.09924426 -0.31571978 -0.27928522 -0.4146897
0.20191164 0.25543758 -0.14108296 -0.09188251 0.23336716 0.05908121 -0.25804064 0.047264315
0.15567885 -0.12896448 -0.15735617 0.039362364 0.045743477 -0.06044579 0.02504565 0.054953244
-0.13614415 -0.21821773 -0.053643923 -0.15953186 -0.1323646 -0.011574432 -0.25845936 -0.20895463
0.18670672 0.1669252 0.070013225 -0.054461543 0.108678296 0.20035549 0.13069813 -0.1867183
0.0010307734 -0.24565928 -0.24328668 -7.8957026e-05 -0.015745863 0.43950382 0.37988913 0.0021242427
-0.16247302 -0.63606006 -1.0864393 -0.00036489285 0.17334375 0.258564 -0.76920617 0.00069501234
-0.26372433 0.46219206 -0.29042158 -0.0009983304 -0.061806884 0.13790065 -0.17743112 -0.7059473
-0.20045926 0.13738865 0.27813125 -1.0205011 -0.00014659677 0.0023835886 -0.012051369 0.00039329947

main.0.bias f4 [16]
00000000: 9afa 923d c9cd 1c3e 9d9c 1dbd 6b8f f93d
00000010: 4f86 a2be f283 35be b21c 9b3c 755f 4fba
00000020: 7e9a ce3d 6fab c2b9 73a9 0b37 e1d0 a53a
00000030: baba 7ebe ee63 173d 0e96 9cb9 0e0f 1d39
0.07176705 0.15312876 -0.038479436 0.12185558 -0.31743094 -0.17726114 0.018934581 -0.00079106475
0.10088061 -0.00037130291 8.324499e-06 0.0012650752 -0.24875918 0.036960535 -0.00029866438 0.00014978295

main.2.weight f4 [32, 16, 4, 4]
00000000: d293 1fbb e0b9 333d a617 563d 60a9 bdbd
00000010: f6c2 f43d 9720 1a3d 92f2 0dbe 667d a5bd
00000020: d23f 263c ca34 7c3c 7a4f 04be 4f08 d1bb
00000030: e053 0abd 9fc4 e4bc b137 193c 40fb 3f3c
00000040: cf2d 54bd 96f0 52bd 1bbf a4bc 23c7 8bbc
00000050: a640 323d af54 fd3c 9ff4 ee3b 714d 9ebc
00000060: d4b5 693d f7ab 0bbd 11cd 1f3d 72d0 953b
00000070: 41eb 7b3b 28e7 64bd c974 a2bc 34ae 503d
00000080: 002a a3bd 5672 bb3c 9210 6bbd dfac 6bbd
00000090: b116 903c 9335 68bd 124c 96be 7792 0fbe
000000a0: 9a2c dfbd 347c 3cbe 7ded acbd 05c3 03be
000000b0: d049 bbbc 817d 45bc 86c0 7abb 917b b9bc
000000c0: bae0 893c 84f0 3e3c 0798 fb3c d18d 04bd
000000d0: ac1a b73c 03d4 af3d a580 00bc 2ffa 383c
000000e0: 67f8 01bd 5fab d83d f1ad 9d3c 15ec efbc
000000f0: cf86 9bbd 7d4c 0ebc 5cfe 7ebd b3a6 133c
00000100: ba5b 7a3b 509b e2bb c53f e5bc d76d 493b
00000110: 5882 e7bc cb89 c8bd d7de 2abe 5139 023e
00000120: cdc2 a3bd a290 14be 1554 2bbe 1bd9 debc
00000130: 1495 b63c 48eb d9bc 7833 1d3c 3a5e 67bd
00000140: 674b b33c 87b6 05be 070e 603d 06dc 573d
00000150: 7f0a aabd a4fd bc3c 6ee0 8a3d 240f 37bc
00000160: 6a1a 19bc 4a1c 263d 6bc8 d83c d390 91bd
00000170: 2a77 26bb b54e e43d a690 b8bd 79f4 2c3d
00000180: 1eeb 01bd 846d 5fbd 0b77 ef3b 824b e5bc
00000190: a0c9 8eba 59c0 b13d 5913 2c3d d5c7 a53a
000001a0: b9d0 3d3d 6f90 843b 3243 a4bd c023 e63d
000001b0: 1866 10bd 2264 82bd 0253 82bd 2623 0cbd
000001c0: 6f49 1e3d e042 14bb 8743 46bd 743f 4fbd
000001d0: 9309 453d dc41 b63d dff9 173e 0188 b03c
000001e0: 60f7 253c f612 4f3e dc49 543e 6542 3dbe
000001f0: c065 8fbd bd99 c7be 72f9 f3ba b057 1a3e
00000200: 1aac 52bc 706f 013a 1dac e0bc 0ba9 ea3c
00000210: 0f7f 90bc 7b09 8bbc e812 32bd 630b 15bd
00000220: 5c1d 6d3d 4333 5d3e aecb e53c cb62 4abb
00000230: e05c 82bd 4ebb 67bc 5e07 94bc 4bd5 94bd
00000240: af70 8c3d c0ac 6e3c 4fb1 1e3c 2724 1fbd
00000250: c1a7 533e 0cb1 253e fe17 de3d 2112 17bd
00000260: 46e4 ca3d 9708 923d 8353 82bc 0f18 3dbe
00000270: c8e4 53bd f71c 93bd 7979 98bd 6571 2abd
00000280: acd9 013c b564 d23d 5923 88bd a2a6 44be
00000290: 8f99 033e 2664 d33b 3af7 74bd 118f 6dbe
000002a0: 7eb1 9e3c 8ade b3be 851f 64be 7f9f 3cbe
000002b0: 3abc 8abd efa8 bebe f51c 80be ab88 d8bd
000002c0: 50cb 803d d2fc 1f3d 2031 77bc 0179 bb3d
000002d0: 329d 9cbc 19a9 97bd 07e6 ca3c 8b16 01bd
000002e0: b2d8 b5be 6233 f6be bf57 a0be 17d5 94be
000002f0: 26e7 8dbe 90b2 b7be 6eb8 9fbe 1e68 cdbe
00000300: 0783 9ebc 7748 8cbd de57 b3bd a898 ff3b
00000310: 7545 50bd a08b 05bd e22e 1bbd 4b4f b7bd
00000320: 50c9 aabc 0040 883d 1831 5b3d a39f 45bd
00000330: 545d 023e e1e5 c33d 2b76 323d 6049 49bc
00000340: fdb2 00bd 86af 833d f7da b13c 7c29 36bd
00000350: 641a cabd fb25 aebc cf7f 0b3d e652 d33c
00000360: da77 6cbe aef1 97be baaa 30be 8671 85bd
00000370: 68ee 0d3d 6426 3ebd 34a6 beba b9ea f4bb
00000380: 8113 54be eef3 1abe 1c08 cbbd 7274 81bc
00000390: 31bc 563d 0b03 1f3e 6fa6 7abc 2cf1 45bd
000003a0: b831 b13d a090 49be 2060 2ebf 0779 0fbf
000003b0: 713e 35be 5249 a5be 4be1 f4be 6d32 dcbe
000003c0: 9607 cfbc 5e04 333d 5ef1 de3a 652a 1dbe
000003d0: baea b43d 1504 5a3e fb54 7e3d 4d02 5b3d
000003e0: 9331 d53d 7e5d 3fbd a77c 4abe 7d7c bfbe
000003f0: fed4 a2bd 4476 b7bd b344 1ebf de9a dabe
-0.0024349582 0.043878436 0.052268647 -0.09260821 0.11951248 0.037628736 -0.13862064 -0.080805585
0.010147052 0.015393445 -0.12920943 -0.0063791643 -0.033771396 -0.027925787 0.009351657 0.0117176175
-0.0518015 -0.051498972 -0.020110657 -0.01706273 0.043518685 0.03092417 0.0072923447 -0.019324036
0.05705817 -0.034099545 0.039013926 0.0045719678 0.0038439783 -0.05588451 -0.019831078 0.050947383
-0.07966995 0.022881668 -0.05738885 -0.05753791 0.017588945 -0.056691717 -0.29354912 -0.14020716
-0.10897179 -0.18406755 -0.08443735 -0.12867363 -0.022862345 -0.012053848 -0.0038261726 -0.022641929
0.01683079 0.011654023 0.03071214 -0.03236181 0.022351585 0.0858536 -0.007843171 0.011290117
-0.031731036 0.105795614 0.01924798 -0.029287377 -0.07594072 -0.008685228 -0.062254295 0.009011912
0.0038201646 -0.0069154873 -0.02798451 0.0030735636 -0.028260395 -0.09791907 -0.16686569 0.12717177
-0.0799614 -0.14508298 -0.16731293 -0.027203133 0.022287883 -0.026601449 0.009594791 -0.056486346
0.02188654 -0.1305791 0.054700878 0.052700065 -0.08302783 0.023070164 0.06781088 -0.011173043
-0.0093446765 0.040554322 0.026462754 -0.07107701 -0.0025400617 0.11147825 -0.090119645 0.042225335
-0.031718366 -0.0545478 0.007307892 -0.027990106 -0.0010893829 0.086792655 0.04201064 0.0012648056
0.04634163 0.004045538 -0.08020629 0.112372875 -0.035253614 -0.06366755 -0.06363489 -0.034213208
0.03864425 -0.0022622868 -0.048404243 -0.050597623 0.048104834 0.088992804 0.14841412 0.021549227
0.01012978 0.20222077 0.207313 -0.18482359 -0.07001829 -0.3898448 -0.0018613769 0.15072513
-0.012858415 0.0004937565 -0.02742582 0.02864506 -0.017638711 -0.016972294 -0.04347506 -0.036387812
0.057889327 0.21601586 0.028051224 -0.003088164 -0.06365371 -0.014143778 -0.01806992 -0.07267245
0.0685743 0.014567554 0.009685828 -0.038852837 0.20669462 0.1618082 0.1084442 -0.036882523
0.09906821 0.07130545 -0.015908962 -0.18466209 -0.051731855 -0.07183259 -0.07445044 -0.041612048
0.007925432 0.102731146 -0.06647367 -0.1920419 0.12851547 0.0064511476 -0.059806086 -0.23199107
0.019371744 -0.3513072 -0.22277649 -0.18420218 -0.067741826 -0.3723826 -0.25022092 -0.10572942
0.06288779 0.039059468 -0.015087396 0.09153939 -0.019117925 -0.074053 0.024767889 -0.03151564
-0.35516888 -0.48086077 -0.31316945 -0.29068825 -0.27715415 -0.3587842 -0.31195396 -0.40118498
-0.019349588 -0.06849759 -0.08756994 0.0078001805 -0.05084749 -0.03260386 -0.037886508 -0.08950671
-0.020847946 0.06652832 0.053513616 -0.048247945 0.12730914 0.0956533 0.043569725 -0.01228556
-0.031420697 0.06429963 0.021710856 -0.044473156 -0.09868315 -0.021258345 0.034057435 0.025796365
-0.23092595 -0.29676574 -0.17252627 -0.065157935 0.03465119 -0.04642333 -0.0014545382 -0.00747427
-0.20710565 -0.15132114 -0.09913656 -0.015802596 0.052425567 0.15528505 -0.01529847 -0.048325703
0.08652061 -0.19684076 -0.68115425 -0.5604405 -0.17699601 -0.322825 -0.47828135 -0.43007222
-0.025272172 0.043705337 0.0017009189 -0.15348203 0.08833833 0.2129062 0.062092762 0.05346899
0.10409846 -0.04672002 -0.19774114 -0.37399665 -0.07950781 -0.08958104 -0.61823577 -0.4269628

main.2.bias f4 [32]
00000000: ce7b 9e3d 980f 9a3d e5ee d2bc b7fb 4c3e
00000010: 7b60 43bc 82e2 96bd a683 113b 2358 df3c
00000020: dcd8 663d 89d8 7ebd 5381 04be a4b7 833d
00000030: 81f3 31bc a0b4 903c 01e6 af3d af96 95bd
00000040: 15b9 4fbe e2ac 5abd 886d 48bc 0cf4 093e
00000050: e568 203e b918 28bc 9ea9 fd3d 6372 bb3d
00000060: c38c 48be 9843 5fbe fde9 143b 6c18 07be
00000070: 9ce6 16be 595b 3e3b 0612 2e3d d492 b43c
0.077384576 0.075225055 -0.02574868 0.20017897 -0.011924858 -0.07367422 0.0022203713 0.027263707
0.056359157 -0.062218223 -0.12939958 0.06431511 -0.0108612785 0.017664254 0.08588792 -0.07304131
-0.20285447 -0.05338753 -0.012233146 0.13472003 0.15665014 -0.010259801 0.123858675 0.09152677
-0.19584946 -0.21803129 0.0022722476 -0.1319291 -0.14736408 0.0029046147 0.042497657 0.02204267

main.3.weight f4 [32]
00000000: 1cab 943f aea4 523f 46da 623f 209b 8d3f
00000010: fd23 853f 33d6 5d3f 6532 603f 20f7 5b3f
00000020: 558d 5f3f 6580 833f d32a 803f 18bc 803f
00000030: 3f44 3c3f e6ac 883f c937 4e3f 403e 7f3f
00000040: 5296 7e3f c7a7 3d3f 4568 653f 7b56 803f
00000050: 05b9 433f dbe9 793f e324 7f3f 0a7c 633f
00000060: 171c 683f b21c 863f 36d1 953f 85ed 7d3f
00000070: 4b75 6f3f 5884 893f 8093 573f 6f3b 8b3f
1.1614718 0.8228253 0.8861431 1.1062965 1.0401608 0.8665497 0.87576896 0.8592396
0.8732503 1.0273558 1.0013069 1.0057402 0.73541635 1.0677764 0.8055387 0.9970436
0.9944812 0.7408413 0.8961223 1.0026392 0.7645419 0.9762246 0.9966566 0.88861144
0.9066786 1.0477507 1.1704471 0.9919055 0.9353835 1.0743513 0.8420944 1.0877513

main.3.bias f4 [32]
00000000: 9b0e 6abc 740d babe 31b8 c9bd 7633 20be
00000010: c060 9ebd da01 52be 6254 21be b2ee 03bf
00000020: e0e6 78be f277 38bd 3876 c5bd 4cb9 0bbe
00000030: a0d4 c9be b439 12be f7f6 89be ea1e 62bd
00000040: 09c1 e5bd 7f28 d2be 2c38 5dbe 1ae0 2bbe
00000050: 4b75 e6be c162 34be 07ef 7bbe f156 8ebe
00000060: 6507 ecbe cc22 00be 83fe c7bc 85db c7bd
00000070: 8797 23be b705 83be 384f 8abe c112 1ebe
-0.014285709 -0.3633839 -0.09849585 -0.15644631 -0.07733297 -0.20508519 -0.15754846 -0.51536095
-0.24306822 -0.045036264 -0.09641689 -0.13644904 -0.39420033 -0.14279824 -0.26946232 -0.055205263
-0.11218459 -0.4104652 -0.21603459 -0.16784707 -0.45011362 -0.17615797 -0.246029 -0.27800706
-0.46099392 -0.12513274 -0.024413353 -0.09758667 -0.15975772 -0.25590298 -0.27013564 -0.15436842

main.3.running_mean f4 [32]
00000000: 568e 8bbc 385c e4bc f4d4 0c3d facb 043e
00000010: a1ac d6bd f84a 2ebe 7437 87bd c542 63bd
00000020: 7912 00bc 17ad 9d3c 5232 92be 33f7 c2bd
00000030: 38bf 323e 0aed 89bd 0d38 093e f2ae e6bd
00000040: d280 a5be c9f9 74be 3b63 dbbd 905f 073d
00000050: d83f 283e d6df 8dbd db4c 0dbe 98c0 8c3e
00000060: 9841 e1be 5937 36bf aa35 963c d790 a4be
00000070: a496 d8bd 15a3 bebd 9296 673d 0c9c 40bd
-0.017035645 -0.027876005 0.034382775 0.12968436 -0.10482145 -0.17020786 -0.06602374 -0.0554836
-0.007816904 0.019247575 -0.28554016 -0.09519806 0.17455757 -0.06734665 0.13400288 -0.11263837
-0.32324845 -0.2392341 -0.10712286 0.03305012 0.16430604 -0.06927459 -0.1379885 0.27490687
-0.43995357 -0.71178204 0.018336136 -0.32141754 -0.105756074 -0.09308449 0.05654008 -0.047023818

main.3.running_var f4 [32]
00000000: 151d 0a3d 9950 db3c a107 be3c 549a 993c
00000010: 0683 ff3c f26a 8d3c 6f55 1d3c 0da5 763c
00000020: 619e 7a3c e291 9a3b a779 b13c 90ee 9e3c
00000030: c780 4e3c 30a4 993c 20c7 8c3c 390f a23c
00000040: d3f0 2a3c 0530 d63b 6b32 913c d5f1 b43b
00000050: 89aa b83c e643 a03c b81d 103c 5a50 a93c
00000060: 49f1 4b3c 2304 a73b 4ecf e43c 9689 e33b
00000070: b1e2 cb3c ae86 c43c 6f89 8b3c 8a25 573c
0.03371914 0.02677183 0.023196997 0.018750347 0.031190407 0.01726291 0.0096028885 0.015054
0.01529655 0.0047170976 0.021664454 0.019400865 0.012603945 0.018755049 0.017184794 0.01978265
0.0104333935 0.006536486 0.017724236 0.0055219927 0.022542255 0.019563626 0.008796148 0.020668197
0.012447664 0.0050969287 0.027930882 0.0069438918 0.024888368 0.023990002 0.017033307 0.013131509

main.5.weight f4 [64, 32, 4, 4]
00000000: 599e c6bd 0193 abbe c30d 6abd 520f 643d
00000010: 63d7 bfbd 700a 3fbd 17cf b6bd f2ac 5abd
00000020: 284c 193e 0533 b33d 2b56 543c ea7f 773d
00000030: 8603 c23d 0ce9 2d3e d70a 2b3c c97b 1abd
00000040: 4c8e 8e3b b940 a8bc 5fad 903a 317c cbbd
00000050: 881e a0bd 4239 afbd 89d4 0dbd 22b2 13be
00000060: 5bb4 76bd b4ec 1f3d a8fe 043d f01c 23bc
00000070: b7f8 853b 7830 6fbc 3aab edbd a8f1 adbd
00000080: c506 4abd 37d3 8f3c 3428 853d 006b 663d
00000090: ca5a b33d aa40 c9bd 1867 d33c 3aa3 f93a
000000a0: 055a abbc 98eb 68bd d989 efbc f019 143d
000000b0: 54fc 3fbd 9bbe 0cbc 4809 183e dd0a 083e
000000c0: 13fe 093c 78a7 cfbd abb8 29be 71a0 46bd
000000d0: 8e36 79bd 50bd a7bd 98e7 08be 13e0 3abe
000000e0: 83ed c23b ee04 29bd 8e07 013d f482 27be
000000f0: cbfb a43d 80fa b63d b974 9f3d 08a8 f9ba
00000100: f534 59bd 490f 18be 0617 96bc 7493 f6bd
00000110: 20a6 40bd 179e 5abe 8d02 a9bd 4b51 e83c
00000120: 8f98 3e3a c136 7ebd 28b9 fa3d c3d1 8b3d
00000130: 4b52 683d d93c 2a3e 7c73 cc3d af74 523d
00000140: 4f66 12bc fa73 453d 1b7a 72bc f255 b1ba
00000150: 6cb6 a63d e781 023e 6243 55bd 103a 5cbd
00000160: 34b0 143d 9073 b53b 645f debd 68f4 e4bc
00000170: bf5e 863d 5649 2ab9 4695 a0bc 1de9 dc3d
00000180: 9544 c73d b61d 0a3e 111f e83d 9fdd adbd
00000190: 8db0 fc3c d49a 10bb 1a88 93bc eff5 a03c
000001a0: 9695 c5bd 4016 91bd 6f3b 31be 5c7c 883c
000001b0: 2ea1 42ba ffc7 18be 111d 9bbd fb99 f23c
000001c0: 59a6 333d 2f8c 7d3d 31bb 83bd b474 7dbd
000001d0: 86cd efbd ce75 b6bd 9906 e8bc 4250 583c
000001e0: b4df 59bd 6b72 52bd 15da 253c 90da 8ebd
000001f0: 7f5d a3bd bb26 813d f7a5 473d dcdc 3a3d
00000200: 644a 923b 103c 923d 52be a83d 2e7f 383d
00000210: 5490 353c 4502 813d 47a4 6dbc 2907 3ebd
00000220: f6fb 2bbd ff45 7b3d e5d2 23bd 458f bc3c
00000230: 2aec c7bc 42cf cdbc 421f 43bd 131e 913b
00000240: 4040 ce3d 8f53 0e3d 77f8 0e3d f998 2a3b
00000250: caf1 153d a827 0c3d 7185 be3d 02c1 143e
00000260: 4908 1c3e a699 763d 2786 a83d 41b3 543d
00000270: 9e70 6cbd 3597 c5bd 6ab0 bb3d 4625 843d
00000280: 5eba 9b3d b8a7 d8bb a5c3 a13d d6ed ce3d
00000290: 62bf fdbc 71fa a23c d666 ed3c 3ec4 fa3d
000002a0: 0a85 e6bb 008b 7b3c 1cd9 7cbd 0f90 683d
000002b0: 9432 ef3d 62be 6dbc ad74 f3bc 8f45 dcbc
000002c0: 5982 c1bb 9429 9cbc 2421 b0bc ac6a 89bd
000002d0: 198a 36ba 6c4c 22bd e17f c13c 9354 edbd
000002e0: db89 5dbc a930 e9bb 4a65 2e3e f8e7 08be
000002f0: 1283 7c3d 45a8 d2bd af9d 9bbd 73b9 63be
00000300: 4e32 1e3d 1c3f a7bb cac7 443d c581 7a3d
00000310: f460 9cbc 3c92 21be e002 23bd 3a12 23be
00000320: 1f9d 8dbd 3fd9 70be b0ca 5dbe 532e 98bd
00000330: ef47 36bc 35ef 653c 0be8 26bc 4467 993d
00000340: 1069 9cbd 83e1 debc 8063 06bd 89b0 0c3b
00000350: d263 06be 5208 23be 497f 31be d706 6fbe
00000360: adce 87bb bbec e7bd f398 d5bd 7b1d 09be
00000370: ea19 82bd cf87 bb3c ffe6 923d 3941 0fbe
00000380: a62d 1c3e f949 1bbe e11f 2fbd cfa8 5dbc
00000390: 8312 d2bc a585 4abe 5233 1cbe e9a0 03be
000003a0: a0c1 463c 3897 ebbd cc3f a9bd e698 2e3d
000003b0: 8ef5 80bc 32ef 0ebd 2c18 76bd 603f b33d
000003c0: 8d1b 0e3d 9828 7abb e566 09be 4120 a23d
000003d0: 173a 96bc 2fe8 01be 4751 cfbd 75f2 13ba
000003e0: 0b70 2c3d 7799 c83c 2aa5 153e b4d2 bf3d
000003f0: bdfa f83c 4a71 9b3d 0909 1f3c d518 8bbd
-0.09698171 -0.33510593 -0.05714203 0.055678673 -0.09367254 -0.046640813 -0.08926218 -0.05338759
0.14970458 0.087499656 0.012959997 0.060424723 0.09473328 0.16983432 0.010439596 -0.037715707
0.004350459 -0.020538675 0.0011037997 -0.09935797 -0.078183234 -0.08555843 -0.034626517 -0.14423421
-0.060230594 0.039044097 0.03246942 -0.00995563 0.004088487 -0.014598958 -0.116049245 -0.08493358
-0.049322862 0.01755677 0.06501809 0.056254387 0.08757551 -0.09826787 0.025805995 0.0019045838
-0.020916948 -0.056865305 -0.029240536 0.03615755 -0.0468715 -0.008590366 0.1484729 0.13285394
0.008422392 -0.10139364 -0.16574351 -0.048492853 -0.060843043 -0.08190405 -0.13369596 -0.1824954
0.0059487238 -0.041264467 0.031501345 -0.16358548 0.08055838 0.08934498 0.07785935 -0.001904727
-0.05302902 -0.14849581 -0.018321525 -0.12039843 -0.04703343 -0.21349369 -0.0825244 0.028359076
0.0007270658 -0.062063936 0.12242347 0.06827118 0.056719106 0.16624774 0.099829644 0.05138081
-0.008935525 0.048206307 -0.01479962 -0.0013529642 0.08140263 0.12744866 -0.052066214 -0.05376631
0.036300853 0.0055374578 -0.10858038 -0.027948573 0.0656104 -0.00016239783 -0.01960243 0.1078665
0.09729878 0.13487896 0.113340504 -0.084895365 0.030845905 -0.002206494 -0.018009234 0.01964852
-0.09647672 -0.07084322 -0.17307828 0.016660862 -0.00074245303 -0.14920042 -0.07573903 0.02961444
0.043859813 0.061901268 -0.06432188 -0.061878875 -0.11709122 -0.08909188 -0.028323459 0.013202729
-0.053191856 -0.05137865 0.010122796 -0.06975281 -0.07976817 0.063062154 0.04874226 0.045620784
0.0044644345 0.07140362 0.08239426 0.045043163 0.011081774 0.06299261 -0.014504499 -0.046393547
-0.041988336 0.06134605 -0.039996047 0.023017535 -0.024404604 -0.025123242 -0.04763723 0.004428634
0.100708485 0.034747656 0.034904923 0.002603112 0.03660754 0.034217507 0.09302796 0.14526752
0.15237536 0.060205124 0.082287125 0.051928762 -0.057724588 -0.09647981 0.09164508 0.06452422
0.07603906 -0.0066117905 0.07898644 0.10103957 -0.030975047 0.01989481 0.0289797 0.122444615
-0.0070349025 0.015352964 -0.06173049 0.05677801 0.11679569 -0.014510723 -0.029718721 -0.026888637
-0.005905431 -0.019062795 -0.021500178 -0.06709799 -0.0006963327 -0.039623663 0.023620548 -0.11588397
-0.013521637 -0.0071163964 0.17030826 -0.13369739 0.061648436 -0.10286001 -0.07598435 -0.22238712
0.038622193 -0.005103959 0.048042096 0.061158914 -0.0190892 -0.1577844 -0.039797664 -0.15924922
-0.06914734 -0.23520373 -0.2165935 -0.07430711 -0.011125549 0.014034082 -0.010187159 0.074903995
-0.076372266 -0.027207142 -0.032809734 0.0021467528 -0.13124016 -0.15921143 -0.17333712 -0.23342453
-0.0041445107 -0.1132445 -0.104295634 -0.13390152 -0.06352599 0.022891907 0.07172965 -0.13989724
0.15251788 -0.15164937 -0.04275501 -0.013529017 -0.025643593 -0.19777544 -0.15253952 -0.12854351
0.012131125 -0.11503452 -0.082641214 0.042626284 -0.01574209 -0.034896083 -0.060081646 0.08752322
0.034694243 -0.0038171168 -0.13418157 0.07916308 -0.018338246 -0.12686227 -0.10122924 -0.0005643734
0.04209904 0.02448724 0.14613786 0.0936636 0.030392999 0.075899675 0.009706744 -0.06791846

main.5.bias f4 [64]
00000000: 6ce2 f83d 703c 56bd 41e7 f63d 5c64 04bb
00000010: e77f a13d 8d86 0f3c c803 933d 6fbf 51bd
00000020: ae11 81bd 5bbd 3abc 5262 3d3c bf35 f53c
00000030: 0839 e53d 8300 abbd bdbb b1bc 7c13 503d
00000040: d8b3 843c 4c08 76bd 7568 0e3d e66f 7f3d
00000050: b879 97bd e174 bf3b a427 d73c 66f5 80bd
00000060: 3d48 833d f0f0 c7bc 2a32 09bd 4941 90bc
00000070: 1640 beba 1d45 c83d ef33 78bd fe43 b6bc
00000080: 58eb b0bd a346 49bd 3658 29bd b042 793d
00000090: 7d72 61bc 086f 603c b445 27bd ab95 46bd
000000a0: a2f6 cf3a 42bf 1f3d 475b 20bd fd1f 68be
000000b0: cdeb dabc a115 46bd 50e4 5c3b a558 c73d
000000c0: 8fd1 e8bc 746e 38bc 43b6 29bd 0c06 ecbb
000000d0: 1683 1dbd 5717 8bbc ba0c 40bd f85e 26be
000000e0: d602 0fbd bab7 cebc 2a66 49bd 17b2 34bd
000000f0: 0ede 77bc 2dd2 99bd 7044 f43b 94ec bb3c
0.121525615 -0.05230373 0.12055827 -0.002020142 0.078857236 0.008760107 0.071784556 -0.051207956
-0.063022 -0.011397685 0.011559086 0.029932855 0.111925185 -0.08349707 -0.021695966 0.05079983
0.016199037 -0.060066506 0.034767587 0.062362574 -0.07396263 0.0058427905 0.02626402 -0.06296806
0.06410263 -0.02440688 -0.033495106 -0.017609255 -0.0014514949 0.09778807 -0.060596403 -0.022249218
-0.08638638 -0.04913963 -0.04134389 0.060854614 -0.013760206 0.013698347 -0.04083796 -0.04848258
0.0015866349 0.039000757 -0.03914955 -0.22668453 -0.026723767 -0.04836047 0.003370542 0.097337045
-0.028420238 -0.011256803 -0.041433584 -0.0072028693 -0.03845509 -0.016978903 -0.046887137 -0.16247165
-0.034914814 -0.025234092 -0.049169697 -0.044115152 -0.015128626 -0.07510791 0.0074544474 0.022939958

main.6.weight f4 [64]
00000000: 70b0 a43f 0bb2 993f 075a a63f 793d 9c3f
00000010: 6c40 953f 8114 9d3f 2af6 a33f be7f 9d3f
00000020: d7ca bf3f 7578 893f 1c06 a13f 4dcf 9f3f
00000030: 07bb a53f ee3a 9d3f b6e9 a33f 5b76 a53f
00000040: ac54 aa3f 6c0e 963f df1d a23f 6c28 a33f
00000050: b030 993f c89e 8e3f 5c05 9e3f 158f a13f
00000060: da42 a43f 1ae7 a13f a894 9a3f 53e7 ab3f
00000070: c331 a03f a31e 9e3f 8023 9c3f afe4 a33f
00000080: 7e12 a43f 094a a83f e09a a13f 884a ae3f
00000090: c708 aa3f 533d 943f 4d1a af3f cbf2 ae3f
000000a0: 42ba 9e3f d2b3 ac3f c470 aa3f ac0f a33f
000000b0: 61d2 c63f ed4a 9e3f fe95 9d3f cac9 993f
000000c0: 6a96 a43f 57e5 a83f 2b8a b63f c025 9a3f
000000d0: 78d3 a63f c601 9c3f 2359 a73f 52bc 9d3f
000000e0: 0923 9f3f d22d a63f 619b a43f 68b8 a73f
000000f0: 4141 993f c547 9a3f 057d 923f b735 a13f
1.2866344 1.2007459 1.2996224 1.220626 1.1660285 1.2271882 1.2809498 1.2304609
1.4983777 1.0739886 1.257999 1.2485138 1.2947701 1.2283609 1.2805698 1.2926744
1.330709 1.1723151 1.2665366 1.2746711 1.1967983 1.1142206 1.2345386 1.262179
1.2832901 1.2648652 1.2076616 1.342997 1.2515186 1.23531 1.2198334 1.2804164
1.2818143 1.3147594 1.2625389 1.3616495 1.3283929 1.1581215 1.3679901 1.3667845
1.2400591 1.3492377 1.3315663 1.2739158 1.5532953 1.2366616 1.2311399 1.2014706
1.2858403 1.3194989 1.4260916 1.204277 1.3033285 1.2188041 1.3074077 1.2323096
1.2432567 1.2982733 1.2859918 1.3103151 1.1973039 1.2053152 1.1444403 1.2594517

main.6.bias f4 [64]
00000000: 0c83 fa3d b6a9 febd b33a cfbd 9d61 88bd
00000010: 8a84 f3bd 6311 a5bd 55b4 1bbe fb4d a8bd
00000020: 49f3 74bd 6f13 f9bd 6596 78bd 786d 72be
00000030: be21 0cbe 5425 34be d2de 8fbd 8eeb 833c
00000040: bb37 7cbe 816a a8bd 46b3 a7bd fef3 ce3b
00000050: 4322 87bd 2ef9 1dbe 399b c3bd 09c0 60bd
00000060: b4e5 ebbd 41c5 05be 728d aabd 314a 783e
00000070: 2df8 43be 3d12 dfbd 3f41 fabd 7d77 30be
00000080: 09fe 8abd cf4f 523d df01 ccbd d267 253e
00000090: faf3 ea3c ef4d bcbd 4959 a5bc a8a7 5abd
000000a0: 88cd 87bc 8f88 58bd 1f0a 5bbe 6ffe 903b
000000b0: 1b61 b2bc 9eec 1fbd d550 ee3b 33f0 01be
000000c0: bf73 c73b 700c bbbd 784b e3bd c8f1 bfbd
000000d0: 3d8f 70bd c4c5 afbd 73ba 85bd db96 d0bd
000000e0: b1d4 2c3d cb2c e33b bd2a 123d c562 06be
000000f0: afaf 91bd 2b41 c6bd 0457 13be 831f 03be
0.122320265 -0.124347135 -0.10118618 -0.06659243 -0.11890514 -0.08059957 -0.1520551 -0.082179986
-0.059802327 -0.1216191 -0.060690302 -0.23674572 -0.13684747 -0.17592365 -0.070249215 0.016103532
-0.24630634 -0.08223439 -0.081884906 0.006315707 -0.06598332 -0.15427086 -0.09551091 -0.05487064
-0.11518422 -0.13063528 -0.0832776 0.24247052 -0.1913764 -0.108921506 -0.12219476 -0.17233081
-0.067867346 0.051345643 -0.099612944 0.16152886 0.02868079 -0.09194552 -0.020184176 -0.053382546
-0.016577497 -0.052864607 -0.2139058 0.004424862 -0.02177482 -0.039044015 0.0072728195 -0.12689285
0.006086796 -0.09133232 -0.11098379 -0.09372288 -0.058730353 -0.08582643 -0.06529703 -0.101850234
0.042195026 0.00693283 0.03568529 -0.13123615 -0.07113587 -0.096803986 -0.14388663 -0.1280499

main.6.running_mean f4 [64]
00000000: 7a99 9fbf e220 813e f2bf 0bbf c104 24bf
00000010: 08ef 253e f760 08bf 12e5 8d3e bc6a c1bf
00000020: 4fa0 25bf 8cca 023e 4ae2 4dbf f943 85be
00000030: 1f68 26bf 2cb9 18bf 0644 b13d cad4 0ebf
00000040: 2bf9 5cbf 4a98 dcbe 879b 2f3f 88a6 d1bf
00000050: e703 973c 7ca1 5cbf 7cb9 b5be 7783 af3c
00000060: a84c 2ebe a008 8f3c 7ba7 e2be 0bc9 57be
00000070: 7da4 4fbe 5d91 793f 64c7 e6be 8101 97bd
00000080: cf38 2fbf f9a3 11c0 d8d2 2bbf 7b12 a4be
00000090: 6035 e2bf 1700 97bc 9d1d 3a3f 9722 a3bf
000000a0: 0b6a 3cbf 7ed7 9ebf 4292 54bf 2d7e 94bf
000000b0: da85 5ebe 3a1c 4d3e aaa8 93bf 25a1 d2be
000000c0: 7f84 a8bf 25f9 f73d 0e6f d8bf f20f 6bbf
000000d0: 68a8 263f 17e9 b1be 56eb 73bf 08c1 a7be
000000e0: 74f9 c0be 1ba4 cfbf 03f2 b1bf a68b 2bbf
000000f0: 8813 efbe 48a4 033f 7591 dfbd 8d03 f2bc
-1.2468712 0.252204 -0.5458976 -0.64069754 0.16204464 -0.53272957 0.2771383 -1.5110698
-0.64697737 0.12772578 -0.80423415 -0.26028422 -0.65002626 -0.5965755 0.086555526 -0.5579344
-0.863177 -0.43084937 0.6859669 -1.6378946 0.018434478 -0.86183906 -0.35493076 0.021424992
-0.1702143 0.017460167 -0.44268402 -0.21072786 -0.20277591 0.9748743 -0.45073998 -0.07373334
-0.6844606 -2.275633 -0.671186 -0.3204535 -1.7672539 -0.01843266 0.72701436 -1.2744931
-0.7359931 -1.2409513 -0.8303567 -1.1601006 -0.21730748 0.20030299 -1.1535847 -0.4113857
-1.3165435 0.121080674 -1.6908891 -0.91821206 0.6510072 -0.34748146 -0.9528097 -0.3276446
-0.37690318 -1.6221956 -1.3901981 -0.6700996 -0.4669459 0.5142255 -0.109164156 -0.029542709

main.6.running_var f4 [64]
00000000: 28ba 1a3f c570 fd3e 95e3 393f ec22 1f3f
00000010: 93c0 123f 85a7 4d3f a4a7 173f 2831 293f
00000020: c6ea 243f a647 a63e fa49 ea3e d784 f53e
00000030: a13d 403f 6022 073f 885f 153f c480 fd3e
00000040: 5fd0 3f3f c2f9 1a3f bc4a 0c3f b532 143f
00000050: cad4 0e3f bde2 243f 9751 193f e614 ff3e
00000060: 3cf1 053f bdcf f23e 008e 093f a566 173f
00000070: b687 253f 6145 003f d633 f13e 4bf3 1d3f
00000080: 6d2e 303f 1be2 103f 9fb1 0d3f 3fb4 093f
00000090: 36e0 d53e ca56 053f b733 103f 94af 1a3f
000000a0: 346e 0e3f 1b0e 123f f3bb 1f3f 79c8 0c3f
000000b0: d517 663f b19c 263f fab8 053f 48f9 043f
000000c0: ab33 f93e e9bd 093f 3cfc 2c3f 1c13 043f
000000d0: 25ae 453f fe02 063f 71c4 163f ce87 013f
000000e0: 2680 ff3e 7db4 1a3f 89c6 123f 9642 043f
000000f0: 8a9a 293f 42bc e73e c9e5 183f 698a 093f
0.604403 0.495001 0.7261289 0.6216266 0.57325095 0.8033374 0.59240174 0.6609063
0.64420736 0.32476538 0.45759565 0.4795291 0.7509404 0.5278683 0.58348894 0.49512303
0.74927324 0.6053735 0.54801536 0.5788987 0.5579344 0.64408475 0.5989012 0.49820632
0.5232122 0.47424117 0.537323 0.59141 0.64660203 0.50105864 0.4710986 0.6169936
0.6882084 0.5659501 0.55349153 0.5379066 0.41772622 0.52085555 0.5632891 0.6042416
0.55636907 0.57052773 0.6239616 0.54993397 0.89880115 0.6508284 0.52235377 0.51942873
0.48672232 0.53805405 0.6757238 0.5159166 0.7721885 0.52348316 0.58893496 0.50597847
0.49902457 0.60431653 0.5733419 0.516641 0.6625143 0.45260817 0.59725624 0.5372682

main.8.weight f4 [1, 64, 4, 4]
00000000: 8c3e 083e 8705 4d3d 30fe 813d fa91 633e
00000010: 4dc2 2a3d 161c 1bbe 7ca4 89be 68b8 523e
00000020: 3cb9 4dbd 2d22 0e3d 358e 28be eaa5 473e
00000030: 6011 cdbc e6ea 44be 2076 49be 7f6e c23d
00000040: 2a5e 643b c2fc ecbd cbae 4fbd 9310 67bd
00000050: 68d5 b2bd cef1 37bd b66f 16be 2dbd a73b
00000060: 2495 743c f734 d4bd ad2b d03e 9c94 233d
00000070: 3671 7b3d e328 043e 67c0 28bc 862f 103e
00000080: f822 9fbc 04b5 31be f2bb 68bd eb87 20be
00000090: 07bc 78bc 12f5 bb3d 2851 5d3e 95f9 bc3c
000000a0: e468 5fbe b724 243e 5935 913d e5d1 43bc
000000b0: be2d 73be 63b7 00be a168 38be 9941 bcbd
000000c0: 846d 2b3d 02f8 73bd 4ff1 35bd 339f 6abe
000000d0: 0de3 a23c e9d8 bd3d 62df 5d3d a393 24be
000000e0: aa98 0b3e c89e 3bbd b8cb b73c 56fa 82bd
000000f0: d32e d3bd 6799 953e f87d ce3c becc 3ebe
00000100: bf76 d3bd ef67 213e 525a 44be a57e 35bd
00000110: b129 0abe 34fd 423e 24ba 01be 8135 abbd
00000120: b3c2 ddbd 62c8 11bd 63b5 d73d 20f5 21be
00000130: 6e73 10be 1092 0fbd b067 5e3d c5e6 c13b
00000140: 347e e03c 6780 35be 6c83 1ebe 7831 13be
00000150: 352b e6bc 1d6f 463e 3d69 a9bd e5d7 e4bd
00000160: b12f 233e 53e0 983c 6536 063e 91a6 84bd
00000170: daea cabd 16e4 be3e ef98 12be 8f22 45bd
00000180: b13f fe3c 2978 9bbc 4959 db3d bf65 693d
00000190: 8a94 853d c101 5c3e 3238 0d3e 8651 8b3d
000001a0: 60a6 953d 73e8 76be 49ef 5a3d 7217 fc3d
000001b0: 95ac 543d e3bf d23d 63e8 66bd 772f 80bb
000001c0: 0655 26bd 6344 243d 6333 613d 5c78 5cbe
000001d0: 77e7 f83d 3326 9f3d bf46 0f3e f6ec 05be
000001e0: 139b 123e 5aa7 423e 325d 363e e196 77bd
000001f0: fc13 f83d 7b82 10be ac4e c3bd 69d4 15be
00000200: a09f 1fbe d6a7 1ebe beb8 27be ef7c 24be
00000210: e3b5 e1bd aaab debd 1783 7cbd 9f25 033e
00000220: 4cf3 20be 0919 413e cd3c 083d 5cf7 b43d
00000230: a4c7 78be 1403 5cbe de1b 7dbe 7910 4cbe
00000240: 5d6b d7bd ebeb 47bd 3f0b b83b 516d 47bd
00000250: 1e45 0dbe 0c52 463d aeb6 d1bd 0a8c fa3d
00000260: 1e6a b6bd 3acc 5fbd 7099 49bd 9401 e93d
00000270: 7f08 523d 469c f23d b381 e23b f765 fc3c
00000280: 1118 df3d 3250 86bd bba8 10be 9334 d03c
00000290: c807 d23d 7b89 80bd 060a 0f3d d9cf 2d3d
000002a0: 406d db3d a9b7 be3e 2238 e83d 585c 96bc
000002b0: 6b39 ff3d 320e 4fbd a526 5dbd 945c f5bd
000002c0: 6646 69bc b2e2 873d 6627 ba3d 423a a73e
000002d0: 2922 d13d 3c89 503e 07f7 1f3d 4df1 b0bc
000002e0: 7ea7 313e 326e d83c e151 c1bc 31e0 783d
000002f0: 1103 d9bc 911d 00be ea1f cb3d 5f37 4fbe
00000300: 4a5c bdbd 4402 9bbd 4c95 10be 7635 f4bd
00000310: b246 103d bfdd 263e 29fe 313e 9f74 9c3e
00000320: c5dc d03d 87b6 22bb 71fe 12be b383 7c3e
00000330: e07e e6bd ea58 2fbe f2e3 03be f60f 52bd
00000340: e84a dd3c 5cf5 f9bc 3c2f a73d 1632 023d
00000350: ab93 813d faa4 ec3c 5884 d43d 8ac2 bbbd
00000360: f891 a93d 6b15 e9bd 930d 05be f902 3ebd
00000370: 342c 8fbc 09ed 6e3e 8f6a 5fba 96b3 aabd
00000380: 6ff9 40be 712c 10be 7678 973e 5205 10be
00000390: bd6c 01be 7d87 dcbd 0a27 12bd 9c77 0e3e
000003a0: 0d50 babd 6084 9f3d 0238 a03d eb88 d4bd
000003b0: 19fd 67bd 9816 51be 74f8 e43e 561a 49be
000003c0: 3cc6 5c3d 4839 d6bd fd52 0e3d 19b3 2d3e
000003d0: ae33 86bc b028 1cbd 6b0b 43be 7a3a 283e
000003e0: 60dd 3bbd 1c8c fcbc e76c 8fbc 6546 003e
000003f0: 6543 b7bd 68e7 fc3d 777f 393e d324 8a3e
0.1330511 0.0500541 0.063473105 0.22223654 0.041689206 -0.15147433 -0.26883304 0.20578158
-0.05022548 0.03470056 -0.16460498 0.19496885 -0.0250327 -0.19230232 -0.19673967 0.09493732
0.0034846165 -0.11571647 -0.050703805 -0.05641229 -0.0873211 -0.044908337 -0.14691052 0.005118987
0.014928136 -0.10361665 0.40658322 0.039936647 0.061387263 0.12906222 -0.010299779 0.14080629
-0.019425854 -0.17354208 -0.056819864 -0.15676849 -0.015181548 0.09177603 0.2161299 0.023068229
-0.21817356 0.1602963 0.070902534 -0.011951898 -0.23747918 -0.12569956 -0.18008663 -0.09192199
0.04185249 -0.05956269 -0.044419583 -0.22912292 0.019883657 0.09269888 0.054168113 -0.16071944
0.13632455 -0.045805722 0.022436008 -0.06395404 -0.103116654 0.292186 0.025206551 -0.1863279
-0.103253834 0.15762304 -0.1917508 -0.04431023 -0.13492467 0.19041902 -0.12668663 -0.083598144
-0.108281516 -0.03559149 0.10532644 -0.15816164 -0.14106533 -0.035051405 0.054298103 0.0059174024
0.027403928 -0.17724763 -0.15479821 -0.1437434 -0.028096775 0.19378324 -0.08272026 -0.11173991
0.15936162 0.018661654 0.13106687 -0.064770825 -0.09908076 0.3728339 -0.14316152 -0.04812866
0.03103623 -0.018978195 0.10710389 0.0569818 0.06522472 0.21485044 0.13790968 0.06802659
0.07307124 -0.2411211 0.053450856 0.12309159 0.0519224 0.10290506 -0.056373965 -0.0039119083
-0.04060843 0.04010428 0.054980647 -0.21530288 0.121535234 0.07770958 0.13991831 -0.13078675
0.14316969 0.19009152 0.17808989 -0.060446624 0.12113187 -0.14112274 -0.0953649 -0.1463181
-0.15588236 -0.15493712 -0.16379067 -0.16063283 -0.1102102 -0.10872586 -0.061648455 0.1280732
-0.1571781 0.18857206 0.03326111 0.088362426 -0.24294907 -0.21485549 -0.24717662 -0.19928159
-0.10518525 -0.048808973 0.005616575 -0.048688237 -0.13795897 0.04841809 -0.102399215 0.122337416
-0.08906959 -0.054638125 -0.049218595 0.11377254 0.051277634 0.11846213 0.006912434 0.03081034
0.10893262 -0.06558265 -0.14126866 0.025415694 0.102553904 -0.06276222 0.03492167 0.042434547
0.10714197 0.37249497 0.113388315 -0.01835458 0.124621235 -0.050550647 -0.053991932 -0.119805485
-0.014237976 0.066350356 0.09089546 0.32661635 0.10211594 0.20364851 0.039053943 -0.021599436
0.1734905 0.026419733 -0.023598613 0.06076068 -0.02649072 -0.12511279 0.099181965 -0.20235966
-0.09246118 -0.075687915 -0.14119452 -0.11924259 0.03522367 0.16295527 0.1738211 0.30557725
0.101983584 -0.0024828033 -0.14354874 0.24659614 -0.11254668 -0.17123762 -0.12879923 -0.051284753
0.027013257 -0.030512504 0.08163306 0.031786047 0.063269936 0.02888726 0.10376805 -0.09167965
0.082797945 -0.11381038 -0.1299346 -0.046389554 -0.017477132 0.23332609 -0.00085226534 -0.083350345
-0.18845151 -0.14079453 0.29584092 -0.1406453 -0.12639137 -0.1076803 -0.03568176 0.13912815
-0.090973 0.077889204 0.07823183 -0.103776775 -0.056637857 -0.20418775 0.44720805 -0.19638953
0.05389999 -0.10460144 0.034747113 0.16962852 -0.016382065 -0.03812474 -0.19047324 0.16428557
-0.045865417 -0.030828528 -0.017507983 0.12526853 -0.08948401 0.12348825 0.1811503 0.2698122
