saved_model/D_state_dict: n_epoch= 15, z_dim= 25.pt (torch, 177105 bytes, 15 tensors)

main.0.weight f4 [16, 1, 4, 4]
0.038417846 -0.20070334 -0.04408945 -0.13660653 0.13222924 0.37961763 0.29340878 -0.22036284
-0.24908179 -0.3867477 0.4949066 -0.05075234 0.13778703 -0.30560783 -0.010100637 0.13334806
-0.009056262 -0.053338643 0.28524628 0.27525005 0.10920489 0.5131596 -0.06448044 -0.25498244
-0.018923659 -0.47871923 0.011017 -0.057039224 -0.07293082 0.092242524 -0.019615369 0.010375059
0.10879999 -0.033357657 -0.051616948 -0.29461923 -0.09086166 0.24259736 -0.0028056405 -0.14153366
0.0019361271 -0.009289092 -0.114815146 -0.30398864 0.074272364 0.21603128 -0.17679814 0.09707431
0.015921023 0.15650132 -0.091245115 -0.19993275 0.1401496 -0.19315383 0.03332591 0.084606215
0.026043635 0.3675931 0.14745855 -0.073722586 -0.2928123 -0.17711629 -0.0036590935 0.10541919
-0.24408405 -0.16026734 -0.2191945 -0.07587077 -0.028240802 0.11332417 0.31806496 0.042505633
0.30394754 0.26942727 0.0197549 -0.09466808 -0.14411475 -0.26331335 -0.11044955 0.039194986
-0.006919795 0.011953849 -0.028092373 0.024901057 -0.004918842 -1.7831151 0.32646385 0.075018845
0.06770155 -1.0376185 -0.33375084 -0.3615187 -0.28445408 0.055202786 0.42260972 -0.015374406
0.03760251 0.024506709 -0.08471914 0.08778437 -0.60875237 -0.5288511 -0.49356568 -0.12258767
-0.38884827 -0.067166045 -0.23496522 -0.030856637 -0.44846842 -0.284193 -0.4835896 -0.002625486
0.08921647 -0.0069534476 0.1815403 0.064004265 0.10032483 0.15034199 0.23314303 0.0554858
-0.35793737 0.029441884 -0.12361883 0.035267685 -0.40733334 -0.3105713 -0.31150466 -0.13384368
-0.0024204296 -0.071347944 -0.09775985 0.085239686 -0.13366987 -0.055917773 0.18425648 -0.07223275
-0.44879374 0.004567101 0.3905807 0.02412723 -0.47571167 -0.10226079 0.16629772 -0.12961484
-0.11747417 -0.1876587 -0.12890983 0.14449604 -0.23320492 -0.26491967 -0.1478362 0.25992742
0.013595088 0.037760064 0.07674707 0.23005022 0.24710228 0.11717349 0.1640975 -0.009170532
-0.009915661 0.0023878347 0.014202124 -0.012952507 -1.8607723 0.038005035 -0.5340343 -0.006592786
-0.89906704 0.43577948 0.2881628 -0.04694557 -0.029917734 -0.081474 -0.07644654 0.0030894196
0.011601921 -0.106853 -0.1989666 0.068218656 0.047651313 0.14286703 -0.46098068 -0.39558613
0.099404305 0.57377386 0.30107614 -0.18041098 -0.29304686 -0.07578643 0.3972303 -0.060196247
0.047088575 -0.028561693 0.12829407 -0.12105458 -0.077334955 -0.10552791 0.10725977 -0.436809
0.22308618 0.12455948 -0.01619272 -0.24827436 0.052756827 -0.28779402 -0.47012198 -0.014818751
-0.05391287 -0.052428905 0.0022884367 -0.0634153 0.17533866 0.08145066 0.008160152 -0.11040348
-0.5175833 0.57105106 -0.5247655 0.09288241 -0.118318915 0.36267415 -0.26435786 -0.020669704
-0.044798553 -0.10529932 0.160433 0.04425018 -0.30079818 -0.012351824 0.2724636 0.090866745
0.04402161 0.26809052 0.14611167 -0.31037375 0.0921509 0.15776612 -0.316545 -0.19858617
-0.15580945 0.037313327 0.17065084 0.023344742 -0.11966338 -0.104191385 -0.088845655 0.3375747
0.083395466 -0.20927417 0.07137446 0.09947091 -0.2066158 -0.29120827 0.20636532 0.03643652
00000000: 085c 1d3d 2d85 4dbe 2497 34bd 95e2 0bbe
00000010: 1a67 073e 3e5d c23e ad39 963e cca6 61be
00000020: 4c0f 7fbe cb03 c6be 6664 fd3e b0e1 4fbd
00000030: 0b18 0d3e a178 9cbe 247d 25bc 658c 083e
00000040: b760 14bc 9f79 5abd cd0b 923e 93ed 8c3e
00000050: d0a6 df3d 6d5e 033f 520e 84bd 0f8d 82be
00000060: ca05 9bbc b01a f5be a680 343c f6a1 69bd
00000070: c15c 95bd a6e9 bc3d 69b0 a0bc 27fc 293c
00000080: 87d2 de3d 0aa2 08bd 4b6c 53bd 55d8 96be
00000090: ae15 babd 716b 783e d6de 37bb 33ee 10be
000000a0: a5c5 fd3a 4731 18bc 3424 ebbd 66a4 9bbe
000000b0: 1c1c 983d 4e37 5d3e 920a 35be e5ce c63d
000000c0: ce6c 823c e241 203e b8de babd 2cbb 4cbe
000000d0: 6083 0f3e 1eca 45be c080 083d 0646 ad3d
000000e0: 7659 d53c 2a35 bc3e 60ff 163e defb 96bd
000000f0: 7eeb 95be f95d 35be 67cd 6fbb 04e6 d73d
00000100: 2bf1 79be 1f1d 24be 8674 60be 2262 9bbd
00000110: 4159 e7bc 8116 e83d 69d9 a23e 631a 2e3d
00000120: 039f 9b3e 5ff2 893e 07d5 a13c 57e1 c1bd
00000130: d192 13be 02d1 86be 6033 e2bd ec8a 203d
00000140: 73bf e2bb 14da 433c fa21 e6bc 4dfd cb3c
00000150: 3d2e a1bb 1e3d e4bf 4526 a73e 7ba3 993d
00000160: 1ca7 8a3d afd0 84bf 64e1 aabe fb18 b9be
00000170: f7a3 91be 511c 623d 4d60 d83e efe4 7bbc
00000180: 1705 1a3d 4bc2 c83c 3a81 adbd 4bc8 b33d
00000190: 32d7 1bbf c962 07bf a4b4 fcbe 3f0f fbbd
000001a0: 1f17 c7be 5a8e 89bd b99a 70be 0fc7 fcbc
000001b0: a79d e5be bf81 91be 0e99 f7be 5910 2cbb
000001c0: 20b7 b63d bfd9 e3bb b3e5 393e ab14 833d
000001d0: 1b77 cd3d 40f3 193e 0cbd 6e3e 1445 633d
000001e0: 9143 b7be 1b30 f13c df2b fdbd d974 103d
000001f0: ff8d d0be 3403 9fbe 8a7d 9fbe 510e 09be
00000200: 12a0 1ebb df1e 92bd 5136 c8bd 2592 ae3d
00000210: c1e0 08be 090a 65bd bbad 3c3e c4ee 93bd
00000220: 4bc8 e5be 9fa7 953b 32fa c73e 78a6 c53c
00000230: 7b90 f3be 1b6e d1bd f349 2a3e c1b9 04be
00000240: 4c96 f0bd 9a29 40be f000 04be c5f6 133e
00000250: 45cd 6ebe 8da3 87be 5f62 17be 3515 853e
00000260: efbd 5e3c 4caa 1a3d 912d 9d3d 4992 6b3e
00000270: 6108 7d3e a8f8 ef3d 2d09 283e 0040 16bc
00000280: 4c75 22bc 387d 1c3b 07b0 683c c036 54bc
00000290: c92d eebf 2bab 1b3d 79b6 08bf 4c08 d8bb
000002a0: 4229 66bf 7d1e df3e 138a 933e ff49 40bd
000002b0: 0916 f5bc d7db a6bd 0190 9cbd dc77 4a3b
000002c0: fc15 3e3c bfd5 dabd e6bd 4bbe 39b6 8b3d
000002d0: 062e 433d bc4b 123e a905 ecbe 448a cabe
000002e0: 7c94 cb3d d8e2 123f a726 9a3e a8bd 38be
000002f0: 3d0a 96be ea35 9bbd c561 cb3e 5790 76bd
00000300: f3df 403d 36fa e9bc 855f 033e 77eb f7bd
00000310: ca61 9ebd 041f d8bd 03ab db3d 6ea5 dfbe
00000320: b470 643e 0a19 ff3d 98a6 84bc a23b 7ebe
00000330: 8b17 583d bd59 93be d4b3 f0be 59ca 72bc
00000340: bed3 5cbd b1bf 56bd 99f9 153b e1df 81bd
00000350: fa8b 333e 9bcf a63d 28b2 053c 381b e2bd
00000360: 5780 04bf 6730 123f 0857 06bf 2239 be3d
00000370: 3051 f2bd 6db0 b93e ea59 87be 8353 a9bc
00000380: b07e 37bd 2ba7 d7bd 8c48 243e ad3f 353d
00000390: 3802 9abe 4e5f 4abc 5980 8b3e 5818 ba3d
000003a0: 0150 343d 2943 893e 4c9e 153e 4fe9 9ebe
000003b0: 9cb9 bc3d 718d 213e 3012 a2be 2c5a 4bbe
000003c0: 838c 1fbe dcd5 183d 18bf 2e3e 793d bf3c
000003d0: 1312 f5bd 4b62 d5bd b6f4 b5bd 97d6 ac3e
000003e0: 3ecb aa3d f84b 56be c62c 923d 68b7 cb3d
000003f0: 1893 53be 4019 95be 6e51 533e 763e 153d

main.0.bias f4 [16]
-0.07834861 0.0006223241 -0.09042977 -0.21519962 -0.0010672471 -0.00038137866 0.13877091 0.13639355
-0.034833208 -0.2728102 0.0041053467 -0.024355786 0.048321865 -0.029299658 -0.2682264 0.13769534
00000000: 3c75 a0bd 7723 233a 3e33 b9bd 4a5d 5cbe
00000010: dfe2 8bba c7f3 c7b9 f619 0e3e c0aa 0b3e
00000020: 44ad 0ebd c7ad 8bbe 2586 863b c985 c7bc
00000030: 26ed 453d d605 f0bc f854 89be 0200 0d3e

main.2.weight f4 [32, 16, 4, 4]
0.093228675 -0.1504075 -0.12488822 -0.13626744 -0.11880533 -0.30332077 -0.017388646 0.12768875
-0.04459792 -0.10227778 -0.2506853 -0.17526324 -0.041807573 -0.04520885 -0.05305658 -0.0075986185
-0.016899692 -0.012307891 0.13840474 0.3152237 0.22873344 0.06265996 0.17108588 0.13120617
0.20926584 -0.06206441 -0.2878966 -0.2689443 0.088321425 -0.008085374 -0.01689385 -0.013978931
0.00790337 -0.07138321 0.06649703 -0.09969559 0.03250424 -0.061467398 -0.10615274 0.052949075
-0.12793384 -0.009983341 -0.031320065 0.010999063 0.043607555 0.08282896 0.06382307 -0.012639375
-0.010330084 0.09538963 -0.01599734 -0.005590219 0.052507553 0.09405467 0.08911064 -0.17641935
0.00071652344 0.09037877 0.15438055 0.061005965 -0.047631003 -0.007965401 0.04482884 0.11285808
0.21260795 0.19754207 0.14747736 0.11957052 0.35775578 0.33782524 0.06125196 -0.043317415
0.05610742 0.33785787 -0.2371582 -0.07969582 0.32337028 0.11851181 -0.0021902 -0.05869106
-0.054306284 0.15596147 0.09853628 -0.0205087 -0.113364644 -0.33520126 -0.70594776 -0.9207185
-0.034826428 -0.46207476 -0.7590851 -0.45032066 -0.16150315 -0.6282007 -0.5136928 -0.0803791
-0.021110607 0.14682254 0.014371767 -0.16026945 -0.0072728903 0.10616426 0.20155987 0.13944349
0.16992508 0.17805995 0.24061912 0.12040053 0.07753664 0.067327425 0.09663872 0.093027405
0.02771583 0.059843715 0.1520528 0.14656332 0.22529635 0.11919326 0.140702 0.014314445
0.17824967 0.15890011 0.014804349 0.00043883952 -0.09222994 0.07926925 0.03994899 0.024837792
0.067212604 -0.021069024 0.027401622 0.023395874 -0.09699812 -0.17506276 -0.24862342 -0.16450733
0.120488524 -0.1341302 -0.10336522 -0.19305547 -0.052442428 -0.1598028 -0.050236054 -0.10057083
0.32886234 0.33814698 0.19218676 0.24503839 0.42976293 0.39744446 0.2768828 -0.15762945
0.29963523 0.06800153 0.04415524 -0.13151067 0.29297408 0.30442348 -0.010327692 -0.18144313
-0.043617316 -0.04028085 0.06383071 -0.16736473 -0.16176648 -0.32726386 -0.26461184 -0.28424034
-0.12962227 -0.29211727 -0.32437742 -0.71039414 -0.031665 -0.11084017 -0.37138608 -0.41924942
0.15804863 -0.08531997 -0.1303577 -0.27072448 -0.09502693 -0.20205106 -0.23840949 -0.2953359
-0.07919201 -0.23499706 -0.039800864 0.045937162 -0.02020516 0.09591949 0.16261503 0.16026627
-0.14071953 -0.08898693 0.09511269 0.036649898 0.0626862 0.140521 0.099692255 -0.006071563
0.04439466 0.1582502 0.07157786 -0.073917314 0.0011773689 -0.11740612 -0.03061141 0.002656884
-0.045070007 -0.0028764482 -0.031283762 -0.011000723 -0.058232434 0.1552586 0.044019904 0.19009477
0.008620587 0.06326281 -0.0846916 -0.09353424 -0.031613354 0.06397585 0.10597104 -0.2048453
0.03719614 0.14011566 0.11779189 0.08163146 0.084091686 0.2862333 -0.09784398 0.010627948
0.0062201736 0.064472 0.07835835 -0.0071546086 0.08314527 -0.016139498 0.07771369 0.092276834
0.10102007 0.064948015 -0.034408823 -0.13088441 0.097866185 -0.0051002908 -0.040409517 -0.14916743
0.072118625 -0.03138126 -0.15607765 -0.054527804 0.036904633 -0.08827254 -0.03396752 -0.08516535
00000000: adee be3d 6c04 1abe 65c5 ffbd b189 0bbe
00000010: 3550 f3bd dc4c 9bbe a272 8ebc d7c0 023e
00000020: 4fac 36bd 0377 d1bd d359 80be 3578 33be
00000030: 6b3e 2bbd ea2c 39bd db51 59bd d5fd f8bb
00000040: 3971 8abc 09a7 49bc f9b9 0d3e 0065 a13e
00000050: 1939 6a3e dd53 803d 2331 2f3e e95a 063e
00000060: c949 563e 4037 7ebd 2f67 93be 11b3 89be
00000070: dde1 b43d 8478 04bc f964 8abc e307 65bc
00000080: 237d 013c 5c31 92bd 982f 883d 342d ccbd
00000090: 2a23 053d 3dc5 7bbd 9c66 d9bd 21e1 583d
000000a0: 1701 03be 2b91 23bc 7849 00bd 6a35 343c
000000b0: d69d 323d 3ba2 a93d abb5 823d 6215 4fbc
000000c0: 833f 29bc a35b c33d db0c 83bc 282e b7bb
000000d0: 2912 573d bc9f c03d a47f b63d 46a7 34be
000000e0: 13d5 3b3a 8118 b93d ef15 1e3e 64e1 793d
000000f0: ba18 43bd 5081 02bc 729e 373d 2322 e73d
00000100: e6b5 593e 7848 4a3e 4e04 173e 64e1 f43d
00000110: c42b b73e 6ef7 ac3e 56e3 7a3d 9a6d 31bd
00000120: e5d0 653d b5fb ac3e 99d9 72be 9037 a3bd
00000130: ca90 a53e 52b6 f23d 7589 0fbb 0966 70bd
00000140: 4470 5ebd 5db4 1f3e 64cd c93d dc01 a8bc
00000150: b92b e8bd 809f abbe feb8 34bf 35b4 6bbf
00000160: 28a6 0ebd 1095 ecbe 6753 42bf 6e90 e6be
00000170: 1561 25be c3d1 20bf 5f81 03bf cc9d a4bd
00000180: 27f0 acbc a658 163e 8f77 6b3c ad1d 24be
00000190: 6d51 eebb a66c d93d b665 4e3e 46ca 0e3e
000001a0: d700 2e3e 5955 363e dc64 763e 8e94 f63d
000001b0: 88cb 9e3d f6e2 893d 85ea c53d 2785 be3d
000001c0: 4f0c e33c af1e 753d bbb3 1b3e b214 163e
000001d0: 16b4 663e 991b f43d 2f14 103e 2287 6a3c
000001e0: 1587 363e b6b6 223e f18d 723c 0b14 e639
000001f0: 0de3 bcbd eb57 a23d 8da1 233d a078 cb3c
00000200: c3a6 893d f298 acbc 5e79 e03c b4a8 bf3c
00000210: f3a6 c6bd a743 33be 2397 7ebe 9c74 28be
00000220: b0c2 f63d 6d59 09be 25b1 d3bd 55b0 45be
00000230: dfcd 56bd 58a3 23be 52c4 4dbd 14f8 cdbd
00000240: a560 a83e 9a21 ad3e 9bcc 443e 58eb 7a3e
00000250: e309 dc3e d77d cb3e 95c3 8d3e 9d69 21be
00000260: ca69 993e 6344 8b3d 20dc 343d bcaa 06be
00000270: b300 963e 65dd 9b3e 7b35 29bc 3acc 39be
00000280: 12a8 32bd 88fd 24bd adb9 823d a961 2bbe
00000290: 1da6 25be 218f a7be 347b 87be f387 91be
000002a0: b3bb 04be 6590 95be cc14 a6be 64dc 35bf
000002b0: 29b3 01bd 2c00 e3bd 5126 bebe dca7 d6be
000002c0: 80d7 213e 3dbc aebd 7d7c 05be 669c 8abe
000002d0: 7b9d c2bd 79e6 4ebe 9e21 74be 4436 97be
000002e0: 6c2f a2bd 12a3 70be 3b06 23bd 9b28 3c3d
000002f0: 4b85 a5bc 7071 c43d 8e84 263e d71c 243e
00000300: c818 10be c83e b6bd 71ca c23d 341e 163d
00000310: 9f61 803d bde4 0f3e 742b cc3d f6f3 c6bb
00000320: 2dd7 353d 570c 223e 6a97 923d f661 97bd
00000330: f251 9a3a 9f72 f0bd c8c4 fabc 1e1f 2e3b
00000340: 549b 38bd cb82 3cbb 6723 00bd 603c 34bc
00000350: 2285 6ebd 1cfc 1e3e 374e 343d 34a8 423e
00000360: 5d3d 0d3c ef8f 813d ca72 adbd e18e bfbd
00000370: 017d 01bd c505 833d 5807 d93d f7c2 51be
00000380: fb5a 183d 7b7a 0f3e e03c f13d 652e a73d
00000390: 4338 ac3d 2c8d 923e 6d62 c8bd d820 2e3c
000003a0: 99d2 cb3b e509 843d 587a a03d 3571 eabb
000003b0: 1148 aa3d fb36 84bc 5b28 9f3d a3fb bc3d
000003c0: 9ce3 ce3d 7703 853d 44f0 0cbd 9006 06be
000003d0: 116e c83d 5720 a7bb 7384 25bd 59bf 18be
000003e0: eeb2 933d a389 00bd d2d2 1fbe 8c58 5fbd
000003f0: 5029 173d 3cc8 b4bd 8721 0bbd 2c6b aebd

main.2.bias f4 [32]
-0.014422859 -0.071820825 -0.09069479 0.109262176 0.080829814 0.17287514 0.1887367 0.03489043
0.098932944 0.036565244 0.11230203 -0.029681833 0.1296875 -0.051361073 0.044049837 0.08088646
0.08773112 0.018161032 0.10190936 -0.01704042 -0.018261475 -0.01981954 0.03852681 0.17388296
0.034684923 0.032465402 0.16094925 -0.05893799 -0.11074301 0.06085568 0.11777436 0.04906286
00000000: db4d 6cbc cc16 93bd 31be b9bd d9c4 df3d
00000010: 1a8a a53d 2e06 313e 3244 413e 44e9 0e3d
00000020: 5b9d ca3d 70c5 153d 9bfe e53d 5127 f3bc
00000030: cdcc 043e fd5f 52bd 9a6d 343d cda7 a53d
00000040: 60ac b33d 72c6 943c dbb5 d03d 5a98 8bbc
00000050: 1799 95bc 975c a2bc 4ace 1d3d 600e 323e
00000060: c711 0e3d 71fa 043d e1cf 243e f668 71bd
00000070: 3bcd e2bd ce43 793d af33 f13d 23f6 483d

main.3.weight f4 [32]
0.78151876 0.8001613 0.7712857 0.5962918 0.89003974 0.9843901 0.9016849 0.8693179
0.8906676 0.80017805 0.96766055 0.8096995 1.0183455 0.85187614 0.83306795 0.8393264
0.6815514 0.8551467 1.034897 0.6631409 0.91347 0.7414672 0.70659685 0.9209384
1.3799666 1.3533252 0.8247779 0.82909465 0.92307955 0.92295146 0.759132 1.4032481
00000000: 9d11 483f 5fd7 4c3f fb72 453f 94a6 183f
00000010: a5d9 633f fd00 7c3f d2d4 663f 9e8b 5e3f
00000020: cb02 643f 78d8 4c3f 9ab8 773f 7748 4f3f
00000030: 2559 823f 8e14 5a3f f143 553f 18de 563f
00000040: 277a 2e3f e5ea 5a3f 8177 843f 9ac3 293f
00000050: 2bd9 693f cbd0 3d3f 88e3 343f 9ec2 6b3f
00000060: bfa2 b03f c339 ad3f a524 533f 8c3f 543f
00000070: f14e 6c3f 8c46 6c3f 7a56 423f a29d b33f

main.3.bias f4 [32]
-0.51016915 -0.43990764 -0.4211729 -0.54336846 -0.30703568 -0.39790154 -0.32489496 -0.36079904
-0.49097353 -0.44500554 -0.36968035 -0.24455342 -0.22748242 -0.1818382 -0.5726727 -0.5024276
-0.39117843 -0.32790506 -0.33005613 -0.46084827 -0.2096821 -0.56411904 -0.3816412 -0.38819298
-0.14092733 -0.06482815 -0.3298507 -0.38453886 -0.37135914 -0.2982649 -0.36380956 -0.072691336
00000000: 729a 02bf 933b e1be f9a3 d7be 321a 0bbf
00000010: c833 9dbe c0b9 cbbe a258 a6be a7ba b8be
00000020: e260 fbbe c4d7 e3be be46 bdbe 366c 7abe
00000030: 27f1 68be cb33 3abe ae9a 12bf 189f 00bf
00000040: 8a48 c8be 2ce3 a7be 1efd a8be 4ef4 ebbe
00000050: e8b6 56be 1b6a 10bf 7a66 c3be 3bc1 c6be
00000060: 414f 10be 9fc4 84bd 31e2 a8be 47e2 c4be
00000070: c922 bebe 2db6 98be 3f45 babe 32df 94bd

main.3.running_mean f4 [32]
0.29748845 -0.40671924 -0.07981603 -0.011884031 0.09082281 0.18073219 0.14270186 0.14456308
-0.25822768 -0.07094119 -0.043892864 -0.4577008 0.019482557 0.78162324 0.0978987 -0.10125531
-0.10300351 0.26472515 0.099981196 0.065334745 -0.27678344 -0.009647479 0.104288265 0.208617
0.12089151 0.057175964 0.52975315 -0.13853312 -0.33766055 0.0028323608 0.050574996 -0.40809593
00000000: 6850 983e 813d d0be 9676 a3bd 3db5 42bc
00000010: 4f01 ba3d dc11 393e 7020 123e 5808 143e
00000020: 6b36 84be 9d49 91bd 01c9 33bd c257 eabe
00000030: e299 9f3c 7618 483f 1d7f c83d f25e cfbd
00000040: 81f3 d2bd 0e8a 873e f1c2 cc3d 39ce 853d
00000050: 8fb6 8dbe 7610 1ebc 1695 d53d b29f 553e
00000060: f895 f73d 5831 6a3d e79d 073f a0db 0dbe
00000070: d8e1 acbe 219f 393b ba27 4f3d f3f1 d0be

main.3.running_var f4 [32]
0.08715256 0.078565516 0.05594173 0.041170336 0.12556788 0.18337807 0.10929793 0.08097536
0.13350077 0.11162451 0.11508175 0.08926543 0.03397867 0.09659847 0.114888 0.050604302
0.10929384 0.08322273 0.15875213 0.08982219 0.059017114 0.08780451 0.058955457 0.077774115
0.17056349 0.20448856 0.07717028 0.08729144 0.08247117 0.061086304 0.1426759 0.1349031
00000000: 0b7d b23d f5e6 a03d 2823 653d 3aa2 283d
00000010: de94 003e 76c7 3b3e 98d7 df3d 69d6 a53d
00000020: 6db4 083e 649b e43d fbaf eb3d cbd0 b63d
00000030: 382d 0b3d 6bd5 c53d 664a eb3d 7546 4f3d
00000040: 73d5 df3d ae70 aa3d eb8f 223e b2f4 b73d
00000050: eebb 713d dad2 b33d 477b 713d 0948 9f3d
00000060: 32a8 2e3e 7365 513e 740b 9e3d dbc5 b23d
00000070: a5e6 a83d a235 7a3d a219 123e 0a24 0a3e

main.5.weight f4 [64, 32, 4, 4]
-0.073157065 -0.24387419 0.2248178 0.1703238 0.20816796 0.09156716 0.19900768 0.29607746
0.06540355 0.07537321 0.26040807 -0.05306357 0.15806508 0.12259035 -0.013348203 0.07067776
0.005257751 0.11306636 -0.24511637 0.14430799 -0.0362785 0.03619846 0.14503491 -0.209492
-0.2418217 -0.1376765 -0.14839077 0.20415193 -0.09049416 0.1277089 0.19895592 0.12799665
0.020293994 -0.21554962 -0.08908478 0.046891324 -0.11361577 -0.1440412 -0.17797628 -0.17882577
-0.311562 -0.098028675 0.100161895 -0.07727021 0.19994716 -0.02146747 -0.048237912 -0.035026338
-0.053421583 -0.03227322 -0.07053548 -0.021148378 0.1532455 0.07203848 0.061912864 0.019291937
0.118849054 0.0462173 -0.14283244 0.09391062 -0.039255477 -0.022361696 0.1267995 -0.008443933
-0.121408105 0.14687257 -0.332175 0.03294993 0.026098784 -0.0023928937 0.011458938 -0.10520881
-0.053864427 -0.13199438 0.07316827 0.09233602 0.04515722 0.32152224 0.1724325 -0.04164924
-0.24705896 0.10446548 -0.15353616 -0.10046525 -0.07373666 -0.10035485 0.0022941115 0.023330834
0.045365144 0.0018981327 -0.111079 -0.020014653 -0.011064244 -0.020347284 0.10242919 0.06503096
-0.18315952 0.0061292984 -0.07062572 0.06612374 0.017793674 -0.38415423 0.27046764 -0.0054774834
0.06396759 0.06645815 -0.22318274 0.019361932 -0.07777169 -0.21287328 -0.052284952 -0.07680425
-0.06658703 -0.047775973 0.17001508 0.11093378 0.2724837 -0.14376982 0.19977628 0.00226204
-0.07208467 -0.12950672 -0.075005956 -0.021848476 -0.23514095 -0.13362576 -0.0746821 0.11067317
-0.06802343 0.15887937 -0.049720615 0.06796343 0.31501862 -0.10424194 0.18923628 -0.059724253
0.029964596 -0.038938977 -0.05040923 0.14453165 -0.15344702 0.01527531 0.30492392 0.23026456
0.17178918 -0.45573825 0.17346054 -0.07595004 -0.054333214 -0.016860915 0.00056510186 -0.26384005
0.046002045 0.08615943 0.21038969 0.07623902 -0.062052187 0.09183788 0.18876077 -0.03884198
0.24042621 0.04639699 -0.0066951145 -0.06321608 -0.06291419 0.14316519 -0.042986445 -0.048140153
0.057848107 -0.1482201 -0.049888454 0.0613414 0.08605993 -0.10036512 0.17919698 -0.14995569
0.034671705 -0.015128865 0.100058295 -0.12688293 0.16889064 0.24000521 -0.12475339 -0.13643397
0.100968756 0.075979754 -0.05703107 0.06842223 -0.03683957 0.21454524 0.13113403 0.036151018
0.19782889 0.03234706 0.030136125 -0.07634137 -0.039338063 -0.12004032 -0.24512956 -0.22909304
-0.042219494 -0.122043975 -0.12916331 -0.23924178 0.20224041 -0.025088644 -0.18982255 -0.057088394
-0.0030784137 0.09219208 0.15567824 0.0614883 -0.14630786 -0.028336802 0.012262555 0.04993951
0.12570511 -0.0801713 0.080132626 0.16393581 -0.0045979284 0.02337765 0.025784496 0.043607876
0.019518843 0.09608182 0.07492513 0.06696421 0.26376998 -0.19869392 0.23197198 -0.004283647
-0.05135566 0.16156909 -0.022276852 0.14724146 0.03210343 0.14183152 0.17643298 0.015118809
-0.17993398 -0.052797195 -0.093979016 -0.044988826 0.1327088 -0.22270475 0.2053272 -0.032948803
-0.098025404 0.22058232 -0.16913705 -0.2921609 -0.06402885 -0.007258966 0.038022157 -0.03114695
00000000: 5fd3 95bd 28ba 79be a336 663e 5d69 2e3e
00000010: fb29 553e 9087 bb3d abc8 4b3e 7797 973e
00000020: 4cf2 853d 455d 9a3d 3554 853e 3059 59bd
00000030: d0db 213e a610 fb3d 6cb2 5abc 80bf 903d
00000040: 3649 ac3b 568f e73d c9ff 7abe 79c5 133e
00000050: c498 14bd d644 143d 0884 143e 1285 56be
00000060: 1ca0 77be 12fb 0cbe c0f3 17be 340d 513e
00000070: 0155 b9bd 1fc6 023e 1abb 4b3e 8e11 033e
00000080: 973f a63c 0ab9 5cbe 1572 b6bd 1e11 403d
00000090: 63af e8bd 897f 13be 6a3f 36be 1a1e 37be
000000a0: 0e85 9fbe 42c3 c8bd ae21 cd3d d83f 9ebd
000000b0: f3be 4c3e 8cdc afbc 1e95 45bd c777 0fbd
000000c0: 97d0 5abd ed30 04bd e874 90bd 5d3f adbc
000000d0: 63ec 1c3e e988 933d 5898 7d3d 200a 9e3c
000000e0: 2267 f33d 5a4e 3d3d ab42 12be 3654 c03d
000000f0: 5aca 20bd e02f b7bc bad7 013e 6c58 0abc
00000100: d0a4 f8bd c365 163e d712 aabe 81f6 063d
00000110: 1ecd d53c 18d2 1cbb 45be 3b3c b777 d7bd
00000120: f2a0 5cbd 8929 07be 3fd9 953d ab1a bd3d
00000130: c7f6 383d 909e a43e 2592 303e 6598 2abd
00000140: 06fd 7cbe fff1 d53d 9538 1dbe bac0 cdbd
00000150: 3f03 97bd d886 cdbd ce58 163b 4e20 bf3c
00000160: cdd0 393d c4ca f83a 637d e3bd c5f5 a3bc
00000170: ce46 35bc 59af a6bc 65c6 d13d f42e 853d
00000180: 2b8e 3bbe 48d8 c83b 38a4 90bd e26b 873d
00000190: 0ac4 913c ddaf c4be bc7a 8a3e 767c b3bb
000001a0: 7101 833d 361b 883d 048a 64be ea9c 9e3c
000001b0: c446 9fbd 74fb 59be bf28 56bd 8c4b 9dbd
000001c0: c85e 88bd bdb0 43bd 6f18 2e3e 4031 e33d
000001d0: fc82 8b3e 6538 13be 2792 4c3e bc3e 143b
000001e0: 21a1 93bd 699d 04be b99c 99bd 93fb b2bc
000001f0: cac8 70be 31d5 08be eef2 98bd 9da8 e23d
00000200: de4f 8bbd 46b1 223e d8a7 4bbd 6930 8b3d
00000210: 1f4a a13e cc7c d5bd 28c7 413e 6ba1 74bd
00000220: 5078 f53c 7a7e 1fbd e979 4ebd 1b00 143e
00000230: 3721 1dbe 4b45 7a3c fd1e 9c3e 79ca 6b3e
00000240: 81e9 2f3e 8656 e9be a49f 313e b28b 9bbd
00000250: 818c 5ebd e71f 8abc 5823 143a 0b16 87be
00000260: a46c 3c3d 5b74 b03d 6570 573e 3423 9c3d
00000270: 6f2a 7ebd 8015 bc3d 814a 413e c518 1fbd
00000280: 4a32 763e c50a 3e3d b162 dbbb 6f77 81bd
00000290: 28d9 80bd e599 123e 8e12 30bd 9c2e 45bd
000002a0: 23f2 6c3d 03c7 17be d657 4cbd 1f41 7b3d
000002b0: 3040 b03d 3a8c cdbd 6a7f 373e fc8d 19be
000002c0: eb03 0e3d 0fdf 77bc 5deb cc3d 99ed 01be
000002d0: abf1 2c3e edc3 753e b57e ffbd 59b5 0bbe
000002e0: b5c8 ce3d 469b 9b3d 6999 69bd f420 8c3d
000002f0: 17e5 16bd bfb1 5b3e 0048 063e 1713 143d
00000300: a893 4a3e 5a7e 043d 09e0 f63c dd58 9cbd
00000310: f320 21bd b3d7 f5bd 3e03 7bbe 5e97 6abe
00000320: 59ee 2cbd 31f2 f9bd 6343 04be ccfb 74be
00000330: 1c18 4f3e b386 cdbc d860 42be 85d5 69bd
00000340: 36bf 49bb 34cf bc3d 1e6a 1f3e 28db 7b3d
00000350: bad1 15be 9522 e8bc e2e8 483c 5f8d 4c3d
00000360: d7b8 003e da30 a4bd 931c a43d cade 273e
00000370: 38aa 96bb 7c82 bf3c 023a d33c 2c9e 323d
00000380: fbe5 9f3c 8cc6 c43d 5972 993d 8824 893d
00000390: dc0c 873e 6b76 4bbe 108a 6d3e d65d 8cbb
000003a0: 505a 52bd 5e72 253e f27d b6bc 77c6 163e
000003b0: e37e 033d 483c 113e d9aa 343e e2b4 773c
000003c0: 9d40 38be df41 58bd 1278 c0bd 3446 38bd
000003d0: d1e4 073e b70c 64be 4b41 523e 53f5 06bd
000003e0: 8bc1 c8bd 55e0 613e 4332 2dbe 1d96 95be
000003f0: 8f21 83bd 9fdc edbb 1fbd 1b3d e327 ffbc

main.5.bias f4 [64]
0.03372851 0.053374875 -0.051139224 0.024114126 0.020357227 0.053998068 0.0009176328 -0.025818132
-0.019815939 -0.046296187 0.012853232 0.019449914 -0.012430929 -0.009680073 -0.035332605 0.020487377
0.04995121 -0.03528623 0.024671838 0.059619237 0.031309824 -0.038396206 0.046460595 -0.059169605
-0.031020626 0.0034390453 -0.029704846 -0.037750613 -0.034393784 -0.041246124 -0.027588269 -0.05149928
0.03696786 -0.06699631 0.05321495 -0.033719663 -0.026131017 -0.036430568 -0.03525578 0.028319336
-0.0145205455 0.022793368 0.007913111 -0.09855779 0.07816567 -0.020095643 -0.0048779426 -0.017420474
-0.038435657 -0.0608273 0.048223242 0.044763632 -0.023034481 0.05364208 0.0051705465 0.025977243
-0.06526202 -0.021188362 0.02864846 0.03815857 -0.010175083 0.060735296 0.039356004 0.04361337
00000000: e826 0a3d 9d9f 5a3d 5d77 51bd fd8a c53c
00000010: 33c4 a63c 142d 5d3d 4b8d 703a 8c80 d3bc
00000020: 0955 a2bc 12a1 3dbd 5d96 523c 6d55 9f3c
00000030: 18ab 4bbc 2b99 1ebc ecb8 10bd 25d5 a73c
00000040: a499 4c3d 4b88 10bd 981c ca3c 4d33 743d
00000050: bb3e 003d 5745 1dbd 774d 3e3d d45b 72bd
00000060: f81e febc 9b61 613b 9457 f3bc 63a0 1abd
00000070: 7fe0 0cbd b2f1 28bd cb00 e2bc e9f0 52bd
00000080: 9c6b 173d 5d35 89bd ebf7 593d a11d 0abd
00000090: b710 d6bc 3838 15bd 5d68 10bd f4fd e73c
000000a0: 95e7 6dbc 28b9 ba3c fea5 013c abd8 c9bd
000000b0: 5315 a03d 9e9f a4bc 26d7 9fbb 62b5 8ebc
000000c0: b56e 1dbd 0c26 79bd bc85 453d 125a 373d
000000d0: cfb2 bcbc ccb7 5b3d b06d a93b 3ace d43c
000000e0: 18a8 85bd 3793 adbc 2db0 ea3c 294c 1c3d
000000f0: 64b5 26bc 93c5 783d c333 213d efa3 323d

main.6.weight f4 [64]
1.0965664 1.1572537 1.2560483 1.1214186 1.1614611 1.0976732 1.2642478 1.3693606
1.1337004 1.4916487 1.3266035 1.3534895 1.3522891 1.1303135 1.1020272 1.0048953
1.3681766 1.1492971 1.1010065 1.1926926 1.3240794 1.1870489 1.2464683 1.2617177
1.274892 1.2039038 1.2513788 1.0618058 1.2694397 1.2394276 1.1801456 1.1685231
1.0616757 1.2294599 1.2594366 1.3717685 1.273774 1.4066197 1.1160235 1.0810602
1.13319 1.1441514 1.4261564 1.0765276 1.4033856 1.0548345 1.284625 1.2135983
1.3833897 1.111606 1.2435234 1.1691878 1.3308314 1.2700479 1.1001028 1.1443249
1.1660639 1.0621248 1.1878127 1.1354911 1.2797709 1.4125179 1.2595922 1.2399702
00000000: 4a5c 8c3f e420 943f 31c6 a03f a58a 8f3f
00000010: c2aa 943f 8e80 8c3f dfd2 a13f 3547 af3f
00000020: 181d 913f 58ee be3f 25ce a93f 253f ad3f
00000030: cf17 ad3f 1dae 903f 3a0f 8d3f 69a0 803f
00000040: 6920 af3f 2b1c 933f c8ed 8c3f 27aa 983f
00000050: 6f7b a93f 38f1 973f 468c 9f3f f77f a13f
00000060: a92f a33f 8519 9a3f 2e2d a03f 41e9 873f
00000070: 007d a23f 90a5 9e3f 030f 973f 2a92 953f
00000080: fde4 873f f15e 9d3f 3835 a13f 1c96 af3f
00000090: 070b a33f 1d0c b43f dcd9 8e3f 2e60 8a3f
000000a0: 5f0c 913f 8e73 923f 4b8c b63f a8cb 893f
000000b0: 24a2 b33f d104 873f 986e a43f 3057 9b3f
000000c0: ea12 b13f 1b49 8e3f c62b 9f3f f2a7 953f
000000d0: af58 aa3f ee90 a23f 2bd0 8c3f 3d79 923f
000000e0: 9541 953f b5f3 873f 3f0a 983f c657 913f
000000f0: 88cf a33f 63cd b43f 513a a13f 58b7 9e3f

main.6.bias f4 [64]
-0.23957293 -0.11645787 -0.05018139 -0.36472246 -0.1411395 -0.2981297 -0.2844397 -0.12869063
-0.15127431 0.24097338 -0.1412029 -0.16461913 -0.25334638 -0.2312178 -0.23638262 -0.36509526
-0.091914624 -0.37086636 -0.30684608 -0.13090438 0.04631242 -0.117261216 -0.33530277 -0.012163964
-0.15496306 -0.16320638 -0.108816564 -0.30312428 -0.2070545 -0.20476434 -0.23663326 -0.29396924
-0.29065734 -0.1548199 -0.2839396 0.041353647 -0.12705638 0.16323528 -0.3260169 -0.31026918
-0.2254188 -0.13044985 0.0847682 -0.24362536 -0.1370996 -0.3053154 -0.23267168 -0.18595442
-0.25264803 -0.31539062 -0.18527313 -0.25389555 0.0007017811 -0.0700738 -0.4837026 -0.2774449
-0.05060557 -0.22859775 -0.1681235 -0.20682952 -0.068671815 -0.08490381 -0.049030773 -0.17742644
00000000: 9b52 75be 7781 eebd 008b 4dbd e7bc babe
00000010: e086 10be 75a4 98be 15a2 91be 7ac7 03be
00000020: a7e7 1abe bac1 763e 7e97 10be eb91 28be
00000030: 9eb6 81be 5cc4 6cbe 490e 72be c4ed babe
00000040: bc3d bcbd 32e2 bdbe ee1a 9dbe cc0b 06be
00000050: 18b2 3d3d a626 f0bd ceac abbe 5d4b 47bc
00000060: a3ae 1ebe 931f 27be 38db debd 1b33 9bbe
00000070: 1806 54be bead 51be fd4f 72be 2383 96be
00000080: 0ad1 94be 1c89 1ebe 8860 91be 7162 293d
00000090: 111b 02be 2627 273e b0eb a6be 9adb 9ebe
000000a0: 30d4 66be a594 05be f39a ad3d ed78 79be
000000b0: d663 0cbe 4d52 9cbe 7c41 6ebe d66a 3ebe
000000c0: 155b 81be e17a a1be 3db8 3dbe 99fe 81be
000000d0: bbf7 373a da82 8fbd dea7 f7be 420d 8ebe
000000e0: c947 4fbd 8715 6abe 9128 2cbe 1ecb 53be
000000f0: cfa3 8cbd 0ce2 adbd 7ed4 48bd 47af 35be

main.6.running_mean f4 [64]
-0.19150506 2.6920683 -1.7822396 -1.2345976 2.0641377 -0.31876072 0.510851 0.26623937
-1.5817437 -4.9485683 1.8043834 0.7308419 2.5599535 1.4186552 -1.5517933 2.3556428
2.1586313 0.6028615 0.26805884 1.4445254 -1.896233 -1.8589677 1.3049314 -1.7245071
2.7724974 1.026937 -0.38323835 2.3357897 1.1044452 2.543823 0.5764048 -0.3311586
-1.9386008 -1.2027044 2.594203 -2.885588 2.0752125 -2.758152 0.13260913 1.8971745
2.01004 1.430578 -3.2942028 0.5846433 0.3928535 1.0859488 1.8152077 2.34506
4.221876 1.6053166 -0.22673501 1.5102865 -1.1104463 0.7017861 0.84492964 -0.39022017
-1.8202887 -1.6773927 0.48452538 1.1060617 -0.95881236 1.7176739 1.0784643 0.5110058
00000000: e719 44be d94a 2c40 6d20 e4bf 4b07 9ebf
00000010: d51a 0440 9b34 a3be 22c7 023f 8750 883e
00000020: 9476 cabf ac5a 9ec0 09f6 e63f 7418 3b3f
00000030: 47d6 2340 7e96 b53f 2aa1 c6bf dac2 1640
00000040: 0427 0a40 2255 1a3f 023f 893e 35e6 b83f
00000050: c3b7 f2bf a7f2 edbf fe07 a73f a6bc dcbf
00000060: 9970 3140 ac72 833f d137 c4be 947d 1540
00000070: 765e 8d3f ffcd 2240 448f 133f 9f8d a9be
00000080: 1224 f8bf 38f2 99bf 6c07 2640 79ad 38c0
00000090: 48d0 0440 9085 30c0 b0ca 073e 9dd6 f23f
000000a0: 7fa4 0040 2e1d b73f 38d4 52c0 2fab 153f
000000b0: 1824 c93e 5f00 8b3f ba58 e83f 7715 1640
000000c0: 9c19 8740 047b cd3f 392d 68be 1151 c13f
000000d0: 1b23 8ebf 41a8 333f 4f4d 583f f0ca c7be
000000e0: 38ff e8bf ceb4 d6bf b613 f83e 6e93 8d3f
000000f0: ba74 75bf bddc db3f 1e0b 8a3f 47d1 023f

main.6.running_var f4 [64]
2.4564118 7.7247205 2.221641 1.7495846 7.4058313 3.7708797 6.0671196 3.9833968
3.0277462 6.0321393 3.2942104 3.4489331 7.0366445 6.494432 3.5171332 2.8106482
3.5384972 4.1129174 2.448777 3.4925551 5.4632125 3.1858017 5.118633 2.5057645
7.1405997 3.3828282 4.3666453 3.7491224 4.543993 4.7900376 3.5252807 3.6538877
4.7416077 3.1968732 3.2974055 5.03594 2.5438483 4.2334685 4.8308764 3.8961732
5.9846926 3.5384624 4.479928 4.3910947 2.7200494 4.3944736 3.6562252 4.821028
10.689711 5.4002247 5.8956656 3.7137606 3.5572948 3.9455192 4.088624 3.6530197
7.1819406 4.340464 6.877229 8.144211 2.795739 3.5906909 6.5543885 7.5309687
00000000: da35 1d40 e930 f740 5e2f 0e40 63f2 df3f
00000010: 92fc ec40 1856 7140 d825 c240 f9ef 7e40
00000020: 98c6 4140 4907 c140 58d4 5240 52bb 5c40
00000030: 312c e140 63d2 cf40 b618 6140 a9e1 3340
00000040: bd76 6240 059d 8340 c3b8 1c40 0686 5f40
00000050: a3d2 ae40 2de4 4b40 d7cb a340 725e 2040
00000060: cb7f e440 4280 5840 8fbb 8b40 9ff1 6f40
00000070: 6468 9140 fd47 9940 339e 6140 4cd9 6940
00000080: 40bb 9740 9299 4c40 b108 5340 6c26 a140
00000090: 69ce 2240 9378 8740 8a96 9a40 e75a 7940
000000a0: 9a82 bf40 2b76 6240 925b 8f40 d983 8c40
000000b0: 4a15 2e40 879f 8c40 98ff 6940 dd45 9a40
000000c0: 0e09 2b41 a4ce ac40 4ba9 bc40 41ae 6d40
000000d0: b8aa 6340 6383 7c40 02d6 8240 13cb 6940
000000e0: 75d2 e540 15e5 8a40 4312 dc40 b04e 0241
000000f0: 63ed 3240 e1cd 6540 8dbd d140 b2fd f040

main.8.weight f4 [1, 64, 4, 4]
-0.34490675 -0.084426045 -0.37525558 -0.24525483 0.09918794 0.04471689 -0.1390611 -0.19962999
-0.15230553 -0.078201145 0.07580717 -0.28014407 -0.011278796 0.0851338 0.17248194 -0.10609448
-0.23834978 -0.09592584 0.43458483 -0.23525181 -0.04109753 -0.058308166 -0.26108027 -0.014729749
-0.047713563 -0.09741659 0.14432141 -0.14433584 -0.15331596 -0.1265033 -0.030869015 -0.39299852
0.034245286 0.14785299 0.17377704 0.046273746 0.14559989 0.27738562 0.041495755 -0.23832388
0.0378927 -0.036015376 0.18406689 0.091555364 0.2722231 0.15900715 0.4789798 0.25583905
-0.21697052 -0.25511724 0.014651387 0.09416851 -0.107522525 -0.29213083 -0.11600265 -0.34130841
0.19995575 -0.082544684 0.02057765 -0.16105433 0.107057765 0.1502725 0.15765144 0.07314215
0.041460894 -0.25141156 -0.064811766 0.0140261175 -0.2994401 0.32529384 -0.06850592 -0.08370941
-0.31110206 -0.28743848 -0.003859213 -0.024708409 -0.14474335 0.16939263 -0.12490464 -0.32167256
-0.055449955 -0.021129467 0.03750436 -0.038916834 -0.10507223 0.29560506 -0.1606506 0.09329526
-0.21811563 0.2385019 -0.12845634 -0.011794646 0.03624864 0.2640782 0.07826572 0.20166688
-0.26749218 -0.29219833 -0.21151374 -0.30003086 0.114113085 0.046582285 -0.19586374 -0.35250324
0.12668103 -0.19953936 0.25794744 -0.028314466 -0.34787026 -0.14261158 -0.34371424 -0.31342316
-0.19746499 -0.3013226 -0.10892532 -0.40773916 -0.2104785 -0.04765634 -0.10800689 -0.08531316
-0.16673197 0.08278104 -0.13452877 -0.15608644 -0.39170033 0.5741806 -0.20486327 -0.52059585
0.12779506 0.09259413 0.09235471 -0.19537948 0.21533039 0.09415098 0.09969117 -0.08860031
0.22147764 -0.026913509 0.13744089 -0.034072634 0.28869846 0.23268797 0.23027991 0.03426293
0.2238662 -0.34689817 -0.30822197 -0.018296843 0.24259186 -0.18454346 -0.18169054 0.042733993
0.1796492 -0.37209976 -0.5725273 0.1267116 0.3033508 0.3285396 0.25782442 0.40195674
-0.20255761 -0.14934653 -0.27119094 -0.248599 0.021912105 -0.0058846083 0.04310934 -0.025091574
-0.28631663 0.06345317 0.0586963 -0.3096576 -0.49971738 -0.32878393 -0.34309223 -0.3446496
-0.16494226 0.0021105665 -0.011477395 0.08901879 0.059531886 -0.17202885 -0.030357467 0.06926743
-0.13946922 0.45121494 -0.16381273 -0.028537927 -0.54518604 -0.3574777 -0.18903363 -0.3870465
0.17461775 0.0097188 0.31437287 -0.27808535 -0.038531024 -0.095155045 0.13235739 -0.40914056
-0.15654734 -0.15991011 0.60844755 0.039188907 -0.24001402 -0.20898062 -0.31200632 -0.14578609
-0.02042709 0.49486986 0.33566612 0.023904925 0.032185648 0.08230098 0.012113597 -0.19632174
-0.022077579 -0.052198894 0.08553943 0.0017650442 -0.07416716 0.13022868 -0.03284808 -0.3548255
-0.13864785 -0.1911394 -0.21422774 -0.023317194 -0.3040048 0.030927584 -0.32141292 -0.19453043
-0.22593085 0.013133779 -0.0057990164 -0.30192968 -0.07913859 0.11488913 0.0948536 -0.014844524
0.014396431 -0.17416784 -0.15909074 -0.23295695 0.039173532 0.049790736 0.051858924 -0.094427444
0.205606 0.1295656 -0.013144248 0.1915814 0.14110975 -0.24383493 -0.28180116 0.13497487
00000000: 9e97 b0be 90e7 acbd 8021 c0be 1524 7bbe
00000010: 0c23 cb3d 0f29 373d 0866 0ebe ce6b 4cbe
00000020: fbf5 1bbe ec27 a0bd ca40 9b3d 0b6f 8fbe
00000030: b3ca 38bc a15a ae3d 1b9f 303e 1048 d9bd
00000040: f711 74be c474 c4bd e781 de3e dae5 70be
00000050: e255 28bd 8bd4 6ebd 50ac 85be 0c55 71bc
00000060: 4c6f 43bd 5982 c7bd fec8 133e c6cc 13be
00000070: dcfe 1cbe 158a 01be 04e1 fcbc 1a37 c9be
00000080: c944 0c3d c666 173e 9cf2 313e 8a89 3d3d
00000090: 2318 153e 7d05 8e3e 74f7 293d 2d0b 74be
000000a0: 6035 1b3d dc84 13bd 087c 3c3e 6181 bb3d
000000b0: d360 8b3e c5d2 223e d73c f53e 56fd 823e
000000c0: 852d 5ebe ba9e 82be 5f0c 703c 6bdb c03d
000000d0: c534 dcbd 2c92 95be cc92 edbd fabf aebe
000000e0: 33c1 4c3e 300d a9bd 7692 a83c 6deb 24be
000000f0: 1a41 db3d 09e1 193e 616f 213e 8dcb 953d
00000100: e6d2 293d 04b9 80be 08bc 84bd cdcd 653c
00000110: 3650 99be ea8c a63e d54c 8cbd d76f abbd
00000120: c548 9fbe 232b 93be daea 7cbb 4a69 cabc
00000130: 9a37 14be 4375 2d3e 01ce ffbd 44b2 a4be
00000140: 7e1f 63bd b417 adbc 2c9e 193d 4267 1fbd
00000150: 1c30 d7bd 8c59 973e 9781 24be 9611 bf3d
00000160: b459 5fbe d839 743e 0f8a 03be 553e 41bc
00000170: 7479 143d 4235 873e c749 a03d c381 4e3e
00000180: bcf4 88be 059b 95be 0f97 58be a59d 99be
00000190: 1fb4 e93d 11cd 3e3d 8190 48be 4e7b b4be
000001a0: acb8 013e 0c54 4cbe b011 843e bdf3 e7bc
000001b0: 0d1c b2be c508 12be 50fb afbe 0079 a0be
000001c0: 4334 4abe f546 9abe 3d14 dfbd 30c3 d0be
000001d0: ad87 57be 4b33 43bd b732 ddbd abb8 aebd
000001e0: c9bb 2abe 1b89 a93d e9c1 09be 20d5 1fbe
000001f0: f28c c8be 80fd 123f adc7 51be c545 05bf
00000200: b5dc 023e fea1 bd3d 7724 bd3d 8f11 48be
00000210: 927f 5c3e 3bd2 c03d e22a cc3d 1474 b5bd
00000220: 09cb 623e b879 dcbc 4ebd 0c3e bf8f 0bbd
00000230: 49d0 933e c145 6e3e 7fce 6b3e 4957 0c3d
00000240: 2e3d 653e a39c b1be 45cf 9dbe 43e3 95bc
00000250: 006a 783e f6f8 3cbe 160d 3abe d709 2f3d
00000260: f6f5 373e dc83 bebe 2691 12bf b0c0 013e
00000270: cc50 9b3e 5836 a83e 9001 843e 46cd cd3e
00000280: 436b 4fbe 4cee 18be 8ad9 8abe bc90 7ebe
00000290: 0481 b33c acd3 c0bb 6b93 303d d88c cdbc
000002a0: 1898 92be bcf3 813d 886b 703d 718b 9ebe
000002b0: f5da ffbe 5e56 a8be c9a9 afbe ea75 b0be
000002c0: a0e6 28be 6e51 0a3b af0b 3cbc 7c4f b63d
000002d0: b5d7 733d 5528 30be 39b0 f8bc 15dc 8d3d
000002e0: 05d1 0ebe a505 e73e 86be 27be 5fc8 e9bc
000002f0: 5091 0bbf 5107 b7be 0892 41be f52a c6be
00000300: ffce 323e 9a3b 1f3c 7bf5 a03e 3461 8ebe
00000310: b5d2 1dbd a6e0 c2bd b288 073e df7a d1be
00000320: f24d 20be 7abf 23be 38c3 1b3f 8c84 203d
00000330: 3cc6 75be 04ff 55be 4bbf 9fbe f348 15be
00000340: b656 a7bc 955f fd3e 6edc ab3e 43d4 c33c
00000350: 19d5 033d 6b8d a83d 1c78 463c 9108 49be
00000360: 0adc b4bc 82ce 55bd 4c2f af3d 0e59 e73a
00000370: f4e4 97bd ab5a 053e b58b 06bd b0ab b5be
00000380: b4f9 0dbe 0cba 43be 845e 5bbe b303 bfbc
00000390: 84a6 9bbe d85b fd3c 3c90 a4be fc32 47be
000003a0: 6b5a 67be 102f 573c ad05 bebb 8796 9abe
000003b0: 6a13 a2bd fe4a eb3d 9b42 c23d 7236 73bc
000003c0: 02df 6b3c 0e59 32be afe8 22be 448c 6ebe
000003d0: 6d74 203d 5ff1 4b3d 066a 543d 2d63 c1bd
000003e0: 618a 523e d8ac 043e f95a 57bc ea2d 443e
000003f0: 137f 103e ddaf 79be 3e48 90be da36 0a3e
