saved_model/D_state_dict: n_epoch= 15, z_dim= 30.pt (torch, 177105 bytes, 15 tensors)

main.0.weight f4 [16, 1, 4, 4]
0	0x3e0ad5be	0.13558099
1	0x3dffc5c6	0.12488894
2	0xbc0a3078	-0.008434407
3	0x3e4d4a03	0.20047764
4	0xbd2569a3	-0.040383946
5	0xbe85ffa8	-0.26171613
6	0xbe1d7d35	-0.15379794
7	0x3c9c2a51	0.019063147
8	0xbe04f289	-0.12983145
9	0xbe96fa66	-0.29487914
10	0xbde84c44	-0.113426715
11	0xbe22bc13	-0.15892057
12	0xba282ff9	-0.000641584
13	0xbe702705	-0.23452385
14	0xbdd54ec8	-0.10415417
15	0x3dad1124	0.08450535
16	0x3d0b2869	0.033974085
17	0xbe66fe7e	-0.22558019
18	0xbe79a00e	-0.24377462
19	0xbd406a58	-0.046976417
20	0x3d183e63	0.03716887
21	0xbe5ab0d3	-0.21356516
22	0xbe431729	-0.19051804
23	0x3e9a18e3	0.30097112
24	0xbc411fdd	-0.011787382
25	0xbe48f6c2	-0.1962538
26	0x3dbfa244	0.093571216
27	0x3d3fc41f	0.046817895
28	0xbe1b156c	-0.1514489
29	0xbe711669	-0.23543705
30	0xbdb41680	-0.08793354
31	0x3e996f32	0.29967648
32	0x3e1a48cc	0.15066832
33	0x3ba67f6a	0.005081107
34	0xbd8d5609	-0.069011755
35	0xbca4ddaf	-0.020125238
36	0x3e421693	0.18953924
37	0x3e2f089c	0.17093128
38	0xbe8cd9c2	-0.27509886
39	0xbe238708	-0.15969479
40	0xbc5739e1	-0.013136358
41	0xbe2a457d	-0.1662807
42	0xbe9bc038	-0.3042009
43	0xbe0b302b	-0.13592593
44	0x3de09c24	0.109672815
45	0x3d6e890f	0.058236178
46	0xbe53936b	-0.20661704
47	0x3d84ea4d	0.06490002
48	0xbe00a022	-0.12561086
49	0xbe0df2b8	-0.13862121
50	0x3e62cb88	0.22147954
51	0xbda98a2c	-0.08278307
52	0x3e05f993	0.13083486
53	0xbeac25cc	-0.33622587
54	0xbe3bed88	-0.1835233
55	0xbd135ca6	-0.03597703
56	0x3e61612f	0.22009729
57	0x3e6855da	0.22689
58	0x3c6f893b	0.014620121
59	0xbd033d65	-0.032040972
60	0xbd9f40ae	-0.077760085
61	0xbe188fc7	-0.14898597
62	0x3e392d1d	0.18083616
63	0xbd4a0492	-0.049320765
64	0xbcf04630	-0.029330343
65	0x3e06b936	0.1315659
66	0xbe083893	-0.13302831
67	0x3c299b55	0.010351975
68	0xbe94f2cb	-0.29091486
69	0x3dc6fcf4	0.09716216
70	0x3dc82da3	0.097743295
71	0xbe935418	-0.28775096
72	0x3d160d89	0.036634002
73	0x3e6dd9c9	0.2322761
74	0x3da8d8d3	0.08244481
75	0xbc2de432	-0.010613488
76	0xbebccab9	-0.36873415
77	0xbe02ac88	-0.12761128
78	0x3e64e593	0.223532
79	0xbe9d9dcc	-0.30784452
80	0xbe0f987a	-0.14023009
81	0x3e157cfa	0.14598456
82	0xbe8fac8a	-0.28061324
83	0x3e9037d2	0.28167588
84	0x3e22b237	0.15888296
85	0xbecf59a0	-0.40498066
86	0xbea89b18	-0.32930827
87	0x3e4291d7	0.19000946
88	0xbe1bd7b8	-0.15219009
89	0x3ee3d21c	0.44496238
90	0xbe554f23	-0.2083097
91	0xbe8c3e4a	-0.27391273
92	0xbca29d91	-0.019850524
93	0xbee6cb7e	-0.45077127
94	0x3e4d1bd6	0.2003015
95	0xbda3f563	-0.08005788
96	0xbe4e0990	-0.20120835
97	0xbe23239b	-0.15931551
98	0x3e1354e4	0.14387852
99	0xbb1aa6cc	-0.0023597954
100	0x3d20f0e5	0.039292235
101	0xbdc94954	-0.09828439
102	0xbd7e9391	-0.06215245
103	0x3da06eda	0.07833643
104	0xbd1aa90e	-0.03775888
105	0x3d0c0b70	0.034190595
106	0x3ca6f858	0.020382091
107	0x3e43f0dc	0.1913485
108	0x3d949436	0.072548315
109	0x3e12fe9a	0.14354935
110	0x3e5cc3ac	0.21559018
111	0xbcaf4c2d	-0.021398628
112	0x3e1382aa	0.14405313
113	0xbe3e5088	-0.18585408
114	0x3c207964	0.009794567
115	0xbdd6b3f4	-0.10483542
116	0x3d91d78c	0.071211904
117	0x3e66696a	0.2250115
118	0x3d131ee3	0.035918128
119	0x3c8b3460	0.016992748
120	0xbde76580	-0.112986565
121	0xbe050661	-0.12990715
122	0x3d409459	0.047016475
123	0xbde1d0c1	-0.11026145
124	0xbe2a2bf6	-0.16618332
125	0xbd0ed08b	-0.03486685
126	0x3c0c2600	0.008553982
127	0xbcbbe4b3	-0.0229362
128	0xbc4c571d	-0.012471941
129	0xbc84306f	-0.016136376
130	0xbc7664f8	-0.015038721
131	0xbc637442	-0.0138826985
132	0xbcffa52a	-0.031206686
133	0xbf8c7e86	-1.0976112
134	0xbf9daec9	-1.2318965
135	0xbd5ab010	-0.053390563
136	0x3c8e8dfc	0.017401688
137	0xbf0386d1	-0.5137759
138	0x3e5c2c8d	0.2150137
139	0xbd4741e8	-0.048646837
140	0xbcb0c0e6	-0.021576356
141	0xbc71035e	-0.014710275
142	0xbdc10112	-0.09424032
143	0xbcc7f286	-0.024407636
144	0x3e1b388e	0.15158293
145	0x3c8c7ef4	0.01715038
146	0xbe04531b	-0.12922327
147	0x3e0acb40	0.13554096
148	0xbc517cb0	-0.0127860755
149	0xbee15e91	-0.4401746
150	0xbec6b027	-0.3880627
151	0xbe70bf82	-0.23510554
152	0xbca0e1ab	-0.019638857
153	0xbe12ff77	-0.14355265
154	0xbe51c91a	-0.2048687
155	0xbe7b4aa1	-0.24540187
156	0x3e0a9f21	0.13537265
157	0xbee83ecb	-0.45360407
158	0xbef5b3d5	-0.47988763
159	0xbdabd69e	-0.08390544
160	0xbf37767a	-0.71665156
161	0xbc849efe	-0.016189095
162	0xbd76f360	-0.060290694
163	0x3a880e0e	0.0010380165
164	0xbf2fe7c5	-0.6871303
165	0x3a767601	0.0009401739
166	0x3d64e549	0.055882726
167	0xbde0d12f	-0.109773986
168	0xbf8e516a	-1.1118596
169	0x3d878a01	0.06618119
170	0xbe213482	-0.15742686
171	0x3e01ad93	0.1266387
172	0xbd72e51c	-0.059300527
173	0xbd1fd3b7	-0.039020266
174	0x3daa317c	0.0831022
175	0xbe149286	-0.1450902
176	0xbdad8e05	-0.08474354
177	0xbe18cc30	-0.14921641
178	0xbdc0b291	-0.09409059
179	0x3e0d4a1b	0.137978
180	0xbe8756b5	-0.2643334
181	0xbe2262fd	-0.15858074
182	0x3def1b0b	0.1167508
183	0x3e439868	0.19101107
184	0xba3e0231	-0.00072482513
185	0xbd5db748	-0.05412987
186	0x3d324583	0.043523323
187	0xbd76deca	-0.060271062
188	0xbda685b3	-0.0813097
189	0x3c991a0c	0.018689178
190	0x3c1bf8cc	0.009519767
191	0xbba66186	-0.0050775437
192	0x3cedd77d	0.029033417
193	0xbdf2cb62	-0.118551984
194	0xbcb85159	-0.022499727
195	0x3bd3150e	0.006441719
196	0xbe1da203	-0.15393834
197	0xbec875af	-0.39152285
198	0x3e97c685	0.29643646
199	0xbe04eed2	-0.12981728
200	0x3cdfdf93	0.027328288
201	0xbf0884d6	-0.5332769
202	0xbf19a2a9	-0.60013825
203	0xbf433622	-0.76254475
204	0xbcba6fdd	-0.022758419
205	0xbeef8cb6	-0.4678704
206	0xbeab673d	-0.33477202
207	0xbebccd98	-0.36875606
208	0x3d908377	0.07056325
209	0x3e483561	0.19551612
210	0xbd681581	-0.056661133
211	0xbe1a3a87	-0.15061389
212	0x3da0df73	0.078551196
213	0xbd54224b	-0.051790517
214	0xbd20be96	-0.039244257
215	0x3e81ef3c	0.25377834
216	0xbdb7ddcc	-0.08977851
217	0xbd8d37ea	-0.068954304
218	0x3e8428bf	0.25812337
219	0xbd000533	-0.03125496
220	0xbe08584d	-0.13314934
221	0x3e4fdd7b	0.20299332
222	0x3da6ffd6	0.081542656
223	0x3dab2036	0.08355753
224	0x3bec99ac	0.0072204676
225	0xbf17c0b3	-0.5927841
226	0xbec9150d	-0.39273873
227	0xbe064b9f	-0.13114785
228	0xbd45a9a3	-0.04825748
229	0xbdaff0fe	-0.085908875
230	0x3e3b7c73	0.18309192
231	0x3e5546a6	0.20827731
232	0x3cbd0247	0.023072375
233	0x3e98dc2b	0.29855475
234	0x3ead2012	0.3381353
235	0xbe1ce2f3	-0.1532095
236	0x3d5f5c44	0.05453135
237	0xbda602ac	-0.08105978
238	0xbe354e60	-0.17705679
239	0x3da959b1	0.082690604
240	0xbb8c8007	-0.004287723
241	0x3e07467e	0.13210484
242	0x3d915366	0.07095985
243	0xbd4026d5	-0.046912033
244	0xbd515aa4	-0.051111832
245	0x3e2f58ea	0.17123762
246	0x3e8e76d1	0.27825025
247	0x3e20d0fd	0.15704723
248	0xbe224281	-0.15845682
249	0xbe3b12b6	-0.18268856
250	0xbb51e2fe	-0.0032026167
251	0x3e70cf20	0.23516512
252	0xbe48532b	-0.19562976
253	0xbdc4fd2f	-0.096186034
254	0x3e3d95ee	0.18514225
255	0xbca2f422	-0.019891802

main.0.bias f4 [16]
0	0x3dfeafb5	0.12435857
1	0xbdc02806	-0.09382634
2	0x3db4938c	0.08817205
3	0x3c8f5891	0.017498286
4	0xbc4cbb84	-0.012495879
5	0xbc456c97	-0.012049816
6	0x3e38a8c9	0.18033136
7	0x3dc44dbc	0.09585139
8	0xbcbdfe49	-0.023192542
9	0x3daff62d	0.08591876
10	0xbc1141ee	-0.0088658165
11	0xbc0438a0	-0.008070141
12	0xbc2fed73	-0.010737765
13	0xbc8ee8e8	-0.017445043
14	0xbbd1aff9	-0.0063991514
15	0xbe5c5fd2	-0.21520928

main.2.weight f4 [32, 16, 4, 4]
0	0xbc30aa09	-0.010782727
1	0xbd88ea21	-0.066852815
2	0xbd875855	-0.06608645
3	0x3c4bec1f	0.012446432
4	0xbce3c45d	-0.027803594
5	0xbd9a4ef8	-0.07534593
6	0xba852437	-0.0010157888
7	0x3e05fecc	0.13085479
8	0x3dd665fe	0.10468672
9	0xbd40cea9	-0.047072086
10	0xbd9fbc8e	-0.07799636
11	0x3c85d55c	0.01633709
12	0xbc8520b5	-0.016250947
13	0xbdb42695	-0.087964214
14	0xbdc9719f	-0.09836125
15	0xbd8dbecf	-0.069211595
16	0xbdd7d12c	-0.10537943
17	0xbd9655eb	-0.07340606
18	0x3d6ae5ee	0.057348184
19	0xbc8c9666	-0.01716156
20	0xbd2d4d28	-0.04230991
21	0x3e2dba17	0.16965519
22	0xbd735dce	-0.05941563
23	0xbd77f710	-0.06053835
24	0x3da7d03d	0.08194015
25	0x3db38ac1	0.087666996
26	0x3dbfb14e	0.0935999
27	0x3d10ec3e	0.035381548
28	0x3da05a61	0.078297384
29	0x3e3609bb	0.1777715
30	0x3dfddb04	0.123952895
31	0x3ce4bd6a	0.02792235
32	0xbd5caa62	-0.053873427
33	0xbd21ee55	-0.03953393
34	0xbcb3ea1c	-0.021962218
35	0xbc334d36	-0.0109437015
36	0xbc461a7a	-0.012091273
37	0x3c37fc28	0.011229552
38	0x3e237f39	0.159665
39	0x3dbbaa07	0.091632895
40	0x3c84cdf0	0.01621148
41	0xbd0be85a	-0.034157135
42	0x3e3aac8e	0.18229887
43	0x3dd34c1f	0.10317253
44	0xbaf175da	-0.0018421963
45	0xbc26f03f	-0.010189115
46	0x3d16bc46	0.036800645
47	0x39fe4be4	0.00048503198
48	0x3db8bcf9	0.09020419
49	0x3d757627	0.059927132
50	0x3d9f6961	0.07783771
51	0x3c9b973c	0.018993013
52	0x3d4ae99c	0.049539194
53	0x3b8d38a7	0.004309732
54	0x3e15351b	0.1457104
55	0x3de524d9	0.11188669
56	0xbd3f0ad1	-0.046641175
57	0xbccc0dde	-0.024908956
58	0x3d0de964	0.034646407
59	0x3e0a7bd8	0.13523805
60	0xbdb1c631	-0.0868038
61	0x3d176a2a	0.03696648
62	0x3d3e43fd	0.046451557
63	0x3d8ed32f	0.06973874
64	0x3cabb238	0.020959005
65	0x3cea6417	0.02861218
66	0x3dd6431d	0.104620196
67	0x3b9d8073	0.004806572
68	0xbc7276d0	-0.014798835
69	0x3e1b98a5	0.15194948
70	0x3d9f10d8	0.077668846
71	0x3d9437cf	0.07237207
72	0xbe458c67	-0.1929184
73	0x3de472a4	0.111546785
74	0x3d455daa	0.048185028
75	0xbdc8ed90	-0.098109365
76	0xbe365600	-0.17806244
77	0x3db0c5bf	0.08631467
78	0xbbee78cc	-0.0072775837
79	0xbd0425aa	-0.03226248
80	0x3ba3d16c	0.0049993303
81	0x3db3af78	0.087737024
82	0x3d380834	0.044929698
83	0x3df4dcda	0.119561866
84	0xbe3ab76a	-0.1823403
85	0x3de04399	0.10950393
86	0xbd94531c	-0.07242414
87	0x3d8e4e25	0.06948499
88	0xbe08aac2	-0.13346389
89	0xbbf025ca	-0.0073287236
90	0x3d88e8a5	0.066849984
91	0x3d9f6e1d	0.07784674
92	0xbd1c7d8f	-0.03820568
93	0x39a6f5b0	0.0003184504
94	0x3d8b5e13	0.068050526
95	0x3ca1fee4	0.019774862
96	0xbc074efb	-0.0082585765
97	0xbd486147	-0.048920896
98	0x3cda7626	0.026667666
99	0x3c654014	0.013992328
100	0xbd3473ab	-0.044055622
101	0x3dad24cd	0.08454285
102	0xbd0d7402	-0.03453446
103	0xbd1ab331	-0.037768546
104	0x3d21ec77	0.03953215
105	0x3dbcb12c	0.0921348
106	0xbd401803	-0.0468979
107	0xbda2c7e2	-0.07948281
108	0xbd050efa	-0.032484986
109	0x3db17bbb	0.08666178
110	0xbd48d5ec	-0.049032137
111	0xbd3ffdce	-0.046872906
112	0xbcd497ec	-0.025951348
113	0xbc6607e0	-0.0140399635
114	0xbd70e1a9	-0.058808956
115	0xbc9db353	-0.019250548
116	0xbd202ba0	-0.039104104
117	0xbb459501	-0.0030148628
118	0x3c98ff7c	0.018676512
119	0xbc8588a5	-0.016300509
120	0x3c9c3e25	0.019072602
121	0xbc805ab2	-0.015668247
122	0xbdeb8085	-0.114991225
123	0xbd79e7e0	-0.06101215
124	0xbd71c34f	-0.05902415
125	0x3d9696d1	0.07352985
126	0xbd83e338	-0.06439823
127	0x3c611118	0.013736986
128	0x3d865488	0.06559092
129	0x3db5852e	0.08863293
130	0x3e655ba8	0.22398245
131	0x3e00e8b6	0.12588772
132	0xbd1ad5d0	-0.037801564
133	0x3d2fdfe2	0.04293812
134	0x3dfa1356	0.12210719
135	0x3e468e41	0.19390203
136	0x3dda50f9	0.106599756
137	0xbd3846c2	-0.044989355
138	0x3e4d4eef	0.20049642
139	0x3e503bd5	0.20335324
140	0xbb903d76	-0.004401858
141	0xbd58b28c	-0.05290465
142	0x3cd29d27	0.025709702
143	0x3db75e45	0.08953527
144	0xbc6161f6	-0.013756266
145	0x3c3853f7	0.0112504875
146	0xbcea19d8	-0.028576776
147	0xbce38319	-0.027772473
148	0xbd27633c	-0.04086612
149	0xbdd2a4b1	-0.10285319
150	0x3cdea859	0.027179884
151	0x3d67d639	0.056600783
152	0x3b21874c	0.0024647294
153	0xbd980065	-0.0742195
154	0x3c2e5471	0.01064025
155	0x3db89c78	0.09014219
156	0x3c8de99d	0.01732331
157	0xbdf55e15	-0.11980835
158	0x3b87f309	0.004148845
159	0x3d262959	0.040566776
160	0x3d61da13	0.055139612
161	0xbbb51e9e	-0.0055273315
162	0x3dc95e40	0.0983243
163	0x3d83f702	0.064435974
164	0x3a0c276c	0.00053464505
165	0x3bf5027f	0.007477104
166	0x3dae05a8	0.084971726
167	0x3d867b08	0.06566435
168	0xbd1e980f	-0.038719233
169	0xbacdc0b1	-0.0015697685
170	0xbd49427e	-0.049135678
171	0x3ca4b5de	0.020106252
172	0xbd8c83a0	-0.06861043
173	0x3d65a48d	0.05606513
174	0x3be164db	0.006878478
175	0x3d4cf2ac	0.050036117
176	0x3d3f0516	0.04663571
177	0x3dc8699f	0.097857706
178	0x3d9328b8	0.07185501
179	0x3cd7eac5	0.026357064
180	0x3d99a6c4	0.07502511
181	0x3ca3ed4e	0.020010617
182	0x3c7ed27d	0.015553114
183	0xbb395bd1	-0.0028283487
184	0x3cc51aa6	0.024060559
185	0x3e3d8039	0.18505944
186	0x3d5c7cc4	0.053829923
187	0x3d8c2e10	0.06844723
188	0x3dda8cb7	0.106713705
189	0x3e71150a	0.23543182
190	0x3d12069d	0.03565084
191	0x3dadd592	0.08488001
192	0x3dda11e9	0.10647947
193	0x3d4c6bec	0.04990761
194	0x3e1073c2	0.14106658
195	0x3d7b93a5	0.0614201
196	0x3cba32f9	0.022729384
197	0x3c89d57d	0.016825432
198	0x3c1948a7	0.009355701
199	0x3e80ef25	0.25182453
200	0x3d5673cd	0.05235653
201	0x3d9b71e0	0.07590079
202	0x3dbf686b	0.09346088
203	0x3ddab032	0.10678138
204	0xbd184d75	-0.037183244
205	0xbda1d280	-0.07901478
206	0x3a6245b0	0.00086316
207	0x3d2fe975	0.04294725
208	0x3d4be928	0.049782902
209	0x3c288936	0.01028662
210	0xbc045640	-0.008077204
211	0xbcd2c68d	-0.025729442
212	0xbd185c6f	-0.037197527
213	0x3d886365	0.06659583
214	0xbd965efa	-0.07342334
215	0xba73a0c3	-0.000929367
216	0x3b82f28e	0.0039962
217	0x3d7ea2d0	0.06216699
218	0x3ac3e41e	0.0014945304
219	0xbd5a2295	-0.053255636
220	0xbc8fcb91	-0.017553123
221	0x3df5d1cb	0.120029055
222	0xbcc3925d	-0.023873502
223	0xbd6af75a	-0.0573648
224	0x3df002fa	0.11719318
225	0x3c86ae2c	0.016440473
226	0xbd8323ab	-0.064032875
227	0x3c113412	0.008862512
228	0x3e0cc370	0.13746428
229	0xbd52fd0a	-0.051510848
230	0x3ddb013e	0.10693596
231	0xbc12548f	-0.008931293
232	0xbcb0b0b2	-0.02156863
233	0x3db7f1a0	0.08981633
234	0x3cec4769	0.028842645
235	0x3d595b93	0.053065848
236	0xbdd55319	-0.1041624
237	0xbd3417c4	-0.043967977
238	0x3d27465d	0.040838588
239	0xbca66f7a	-0.020316828
240	0x3d8cb7d1	0.06870998
241	0x3e1613e4	0.14656025
242	0x3d0fa47b	0.03506897
243	0xbd27da18	-0.040979475
244	0x3da346e5	0.079725064
245	0x3d92104d	0.071320154
246	0xbdc39706	-0.0955029
247	0x3c1e1a59	0.009649836
248	0x3c27f721	0.010251791
249	0x3e0a17e8	0.13485682
250	0xbd3773c2	-0.04478813
251	0x3bd13997	0.006385039
252	0x3d07093d	0.032967795
253	0x3d444642	0.047918566
254	0xbddd14b3	-0.10794964
255	0x3d019d08	0.031643897

main.2.bias f4 [32]
0	0xbd7d957b	-0.061910134
1	0x3d65b2c3	0.056078684
2	0xbd1ddd29	-0.038540993
3	0x3ca51af6	0.020154458
4	0x3d4315ad	0.047628094
5	0xbd92dedc	-0.07171413
6	0x3cf07009	0.029350298
7	0xbcf8fffb	-0.030395498
8	0x3dbcd274	0.09219828
9	0x3cca6724	0.024707384
10	0x3c2de9fd	0.010614869
11	0xbd258c30	-0.040416896
12	0x3d99cf46	0.075102374
13	0x3bdc0fb0	0.0067157373
14	0xbc051ea4	-0.008124981
15	0x3bd955ca	0.0066325413
16	0x3c14f7b6	0.009092262
17	0x3dc42a80	0.09578419
18	0x3db08746	0.08619551
19	0x3bbb503d	0.0057163523
20	0xbc59ab50	-0.013285473
21	0x3d330e74	0.043714955
22	0xbde29efc	-0.1106548
23	0xbda434b7	-0.08017867
24	0x3acc5085	0.0015587962
25	0xbdbcfbf9	-0.092277475
26	0xbcbe32ed	-0.023217643
27	0x3d9e8663	0.07740476
28	0xbe05d9f8	-0.1307143
29	0x3db15366	0.08658485
30	0x3da12656	0.0786864
31	0xbe253341	-0.16132833

main.3.weight f4 [32]
0	0x3f69ae68	0.9128175
1	0x3f792ce2	0.9733411
2	0x3f5cb461	0.86212736
3	0x3f89724d	1.0738007
4	0x3f8d2273	1.1026138
5	0x3f85c7e0	1.0451622
6	0x3f7ee425	0.9956687
7	0x3f3f11c8	0.7463651
8	0x3f5df5cf	0.867032
9	0x3f60f417	0.8787245
10	0x3f6116bb	0.8792531
11	0x3f7f5aa4	0.9974768
12	0x3f5d6614	0.86483884
13	0x3f8ad326	1.0845687
14	0x3f57dfcb	0.84325856
15	0x3f5d863b	0.86532944
16	0x3f8505b1	1.0392362
17	0x3f606c3f	0.8766517
18	0x3f83c853	1.0295509
19	0x3f72e8ab	0.94886273
20	0x3f5f1cc1	0.8715325
21	0x3f7c7376	0.9861368
22	0x3f8b5ced	1.0887734
23	0x3f63a436	0.8892244
24	0x3f8651dd	1.0493733
25	0x3f7efeae	0.9960736
26	0x3f715b2a	0.9427973
27	0x3f61de8e	0.88230217
28	0x3f7fa84f	0.99866194
29	0x3f88db07	1.0691842
30	0x3f71c3e0	0.94439507
31	0x3f969471	1.1764051

main.3.bias f4 [32]
0	0xbe790348	-0.24317658
1	0xbe24c631	-0.16091229
2	0xbe4cff25	-0.20019205
3	0xbde4275e	-0.11140321
4	0xbd853286	-0.06503777
5	0xbd3e64f0	-0.04648298
6	0xbda54348	-0.080694735
7	0xbe61684a	-0.2201244
8	0xbe2e283b	-0.17007534
9	0xbe138130	-0.1440475
10	0xbe5ed3ce	-0.21760485
11	0xbdafac2e	-0.085777625
12	0xbdcb7910	-0.099352
13	0xbd98e5c0	-0.07465696
14	0xbe674ea1	-0.22588588
15	0xbe448561	-0.19191505
16	0xbda8c527	-0.08240729
17	0xbe5be18e	-0.21472761
18	0x39a76f58	0.0003193568
19	0xbdd22a6e	-0.10261999
20	0xbdb7354e	-0.08945714
21	0xbdbfe603	-0.09370043
22	0xbd9cc666	-0.07655029
23	0xbe2aba02	-0.16672519
24	0xbc96b4c9	-0.018396752
25	0xbe036ddb	-0.12834875
26	0xbe7a86c8	-0.24465477
27	0xbdfe7b7d	-0.12425897
28	0xbca550a9	-0.020180063
29	0xbd94d1dd	-0.07266591
30	0xbdde960f	-0.10868465
31	0xbd5fd1be	-0.054643385

main.3.running_mean f4 [32]
0	0xbda816e6	-0.082074925
1	0x3c676a58	0.014124475
2	0x3c113a80	0.008864045
3	0x3cc1c3be	0.023652907
4	0x3e36e826	0.17861995
5	0xbd83b1b3	-0.06430378
6	0xbed5decc	-0.41771543
7	0xbe7eb32d	-0.24873038
8	0x3e12cc85	0.1433583
9	0xbd3bdd5e	-0.04586541
10	0x3e92df33	0.28685912
11	0xbe71e3cc	-0.23622054
12	0xbde48873	-0.11158838
13	0xbe08d3a1	-0.1336198
14	0xbd1fddce	-0.03902989
15	0x3e47e8b7	0.19522367
16	0xbc95aa17	-0.018269582
17	0x3e33a5a0	0.1754365
18	0xbec20ece	-0.3790192
19	0xbd56df3e	-0.052458994
20	0x3c190e5a	0.009341801
21	0x3e713e24	0.23558861
22	0xbe2f4059	-0.1711439
23	0x3dfb7b4e	0.12279378
24	0xbe9e5885	-0.3092691
25	0xbdbaaad2	-0.09114613
26	0x3c82305f	0.015892206
27	0x3e8ad617	0.27116463
28	0xbed4d982	-0.41572195
29	0x3d98109a	0.074250415
30	0x3da913cb	0.08255728
31	0xbc2937bb	-0.010328229

main.3.running_var f4 [32]
0	0x3c974686	0.018466245
1	0x3baa7c43	0.0052028014
2	0x3c9d0b19	0.01917033
3	0x3ccb36da	0.024806429
4	0x3ce78b2d	0.028264606
5	0x3caba4b1	0.020952554
6	0x3ce7aecb	0.02828159
7	0x3cbdc524	0.023165293
8	0x3cf26e54	0.029593624
9	0x3cb1bf66	0.021697711
10	0x3c3003f9	0.010743135
11	0x3d0987e6	0.03357687
12	0x3c8578f3	0.016293025
13	0x3c38f462	0.011288734
14	0x3c627dd7	0.013823948
15	0x3cb51d4d	0.022108698
16	0x3be179be	0.006880968
17	0x3c8a81f0	0.016907662
18	0x3d7c132d	0.061541725
19	0x3cac7b93	0.021055019
20	0x3cd0a127	0.025467468
21	0x3c89532f	0.016763298
22	0x3cb17003	0.021659857
23	0x3d0149b3	0.031564426
24	0x3d03720d	0.03209119
25	0x3c648e9f	0.013950019
26	0x3c95d890	0.018291742
27	0x3ccccca6	0.024999928
28	0x3c3d71fc	0.0115628205
29	0x3c091c25	0.008368527
30	0x3ce6476d	0.02811023
31	0x3cd04302	0.025422577

main.5.weight f4 [64, 32, 4, 4]
0	0xbcd7282d	-0.026264274
1	0x3da13d7c	0.07873055
2	0x3dedc4ee	0.11609827
3	0xbe595394	-0.21223289
4	0xbd64ecf6	-0.055890046
5	0xbe06c0a8	-0.1315943
6	0xbd7ef486	-0.062244914
7	0xbe01d5fd	-0.12679286
8	0xbd5149f3	-0.051095914
9	0xbd5dd700	-0.054160118
10	0x3d3e4e64	0.046461478
11	0x3de38c1c	0.11110708
12	0xbd9a1666	-0.075238034
13	0xbd13fe62	-0.03613127
14	0xbc9ec044	-0.019378789
15	0xbdeb7918	-0.11497706
16	0x3cf99dc1	0.03047073
17	0xbd8a1888	-0.0674296
18	0x3cced36c	0.025247298
19	0xbcd1a009	-0.025589006
20	0xbc49ab1a	-0.01230886
21	0xbe1833cf	-0.14863513
22	0x3c8c3784	0.017116316
23	0xbcbc6dcd	-0.023001576
24	0xbc7f63c6	-0.015587753
25	0xbcd0230c	-0.025407337
26	0x3c28e0e1	0.010307522
27	0xbd2c3406	-0.0420418
28	0xbd754265	-0.059877772
29	0xbd80837b	-0.06275078
30	0xbd1d62aa	-0.03842417
31	0x3c195569	0.009358742
32	0x3d19ae75	0.03751989
33	0xbc4cdf16	-0.01250436
34	0x3d242abc	0.040079817
35	0xbe1630f7	-0.14667116
36	0x3cadbdba	0.021208633
37	0xbd741fdc	-0.059600696
38	0xbd77dbee	-0.060512476
39	0xbd146177	-0.036225762
40	0x3d0cb7f3	0.034355115
41	0xbbadc9a3	-0.005303578
42	0xbd226218	-0.03964433
43	0xbd0253b4	-0.031818107
44	0xb908d3a3	-0.00013048812
45	0xbb86530e	-0.0040992564
46	0xbd84e42f	-0.06488835
47	0xbd880d14	-0.066431195
48	0xbd39fb92	-0.04540593
49	0x3d0c1a5e	0.034204833
50	0xbd903922	-0.07042147
51	0xbdb7fb48	-0.08983475
52	0xbdcba86e	-0.09944235
53	0x3cda3eca	0.026641268
54	0xbde7eea9	-0.11324818
55	0xbd529435	-0.051410872
56	0x3d6ac412	0.057315893
57	0xbba9a399	-0.005176973
58	0xbc873be2	-0.016508047
59	0x3c225037	0.00990682
60	0xbd8c1ac8	-0.068410456
61	0x3e0fee23	0.14055686
62	0x3c422f3c	0.011852082
63	0xbe03b589	-0.12862219
64	0xbc776af9	-0.015101188
65	0xbbf93901	-0.0076056723
66	0x3d24d0bd	0.04023813
67	0x3d23a8f7	0.03995606
68	0x3ce659dd	0.028119022
69	0xbca42d66	-0.020041179
70	0xbd515d3d	-0.05111431
71	0xbd7e2d76	-0.062055074
72	0x3e0e8a16	0.13919863
73	0x3d8cb52a	0.06870492
74	0xbdaec56f	-0.08533751
75	0xbdb6020e	-0.08887111
76	0x3dc59806	0.09648137
77	0xbd4dec80	-0.050274372
78	0xbdc60f97	-0.09670942
79	0xbd0c0a80	-0.0341897
80	0xbce334ae	-0.02773508
81	0x3d898b78	0.06716055
82	0x3d4ab47d	0.049488533
83	0xbdcc65a1	-0.09980322
84	0x3e204e09	0.15654768
85	0x3c554332	0.013016509
86	0xbd4fc3d9	-0.050723884
87	0xbdb3f4b3	-0.08786907
88	0xbd7666be	-0.060156576
89	0x3c320861	0.0108662555
90	0x3d240924	0.04004778
91	0x3ca9378c	0.02065637
92	0x3e5181db	0.20459692
93	0xbd9d8f3b	-0.07693335
94	0xbd6786ec	-0.056525156
95	0xbe285c17	-0.1644138
96	0xbd2562e2	-0.040377505
97	0xbded1e3e	-0.11578034
98	0x3da5d197	0.08096617
99	0xbc554d2f	-0.01301889
100	0x3a0494f2	0.0005057595
101	0xbd386fb4	-0.045028403
102	0x3d9cf3ac	0.07663664
103	0x3d9f0140	0.0776391
104	0xbdcefb82	-0.10106565
105	0x3d131db7	0.03591701
106	0x3d01ded3	0.031706642
107	0xbd0acd7f	-0.033887383
108	0x3c1f60e3	0.009727689
109	0xbd884fef	-0.06655871
110	0x3de19ead	0.11016593
111	0xbd04cb32	-0.032420345
112	0xbd0a6c68	-0.03379479
113	0xbd92a8f4	-0.071611315
114	0xbd5c4e7c	-0.053785786
115	0xbd060244	-0.032717004
116	0xbd4af58c	-0.049550578
117	0xb9221f79	-0.00015461248
118	0x3ccd701f	0.025077878
119	0xba4ba0bc	-0.0007767787
120	0xbd14aac0	-0.036295652
121	0x3c0cf1fa	0.008602614
122	0x3cc12968	0.023579314
123	0x3d560a17	0.052255716
124	0xbd8edfd5	-0.06976286
125	0xbcbaefd7	-0.022819443
126	0xba51dc2c	-0.00080055255
127	0x3cf104bf	0.029421208
128	0xbd4f1d85	-0.05056526
129	0x3d12cb98	0.035838693
130	0xbc961476	-0.018320303
131	0xbcb5cc39	-0.022192108
132	0xbbce9c58	-0.0063052587
133	0x3d5ff43d	0.054676283
134	0xbd917af4	-0.071035296
135	0xbced7114	-0.028984584
136	0xbd58c355	-0.05292066
137	0x3d019d7a	0.031644322
138	0x3dd4fe95	0.1040012
139	0x3d8e8eb3	0.069608115
140	0x3ac44721	0.0014974811
141	0x3cedb388	0.029016271
142	0xbd6c0702	-0.05762387
143	0x3bddfe73	0.0067747175
144	0xbd9a2e6b	-0.07528385
145	0xbd07954b	-0.03310136
146	0xbcd6aff7	-0.026206953
147	0xbc50cd57	-0.012744269
148	0xbcf6cf37	-0.030128105
149	0x3d87cc7c	0.06630799
150	0xbd3bb301	-0.04582501
151	0xbd248aea	-0.04017154
152	0x3d2346de	0.039862506
153	0x3cfafc52	0.030637894
154	0x3cf762c1	0.030198457
155	0x3cf1bf57	0.029510183
156	0xbd517f9b	-0.051147085
157	0x3d99910e	0.0749837
158	0x3d918bd7	0.071067505
159	0x3be463d7	0.0069699096
160	0xbd2428fc	-0.04007815
161	0x3d92ad06	0.07161908
162	0x3c4a9e9a	0.012366915
163	0xbd8ba5ef	-0.06818759
164	0x3d6b4ac4	0.05744435
165	0xbad5f6f3	-0.0016324207
166	0xbcec93e9	-0.028879123
167	0xbd2bd337	-0.041949477
168	0xbd000cb7	-0.031262126
169	0xbc011082	-0.007877471
170	0xbb2c8ce7	-0.0026329102
171	0x3d12a561	0.03580225
172	0xbc425fba	-0.011863643
173	0x3d5b292b	0.053506058
174	0xbdb99629	-0.09061844
175	0xbd95f564	-0.07322195
176	0x3d9238a0	0.071397066
177	0xbd3dbdce	-0.04632359
178	0x3dd2801c	0.10278341
179	0xbc70bb68	-0.014693119
180	0x3aef4e07	0.0018257507
181	0xbdb50372	-0.08838548
182	0x3d9bb5eb	0.076030575
183	0xbd48847d	-0.048954476
184	0x3e042546	0.12904844
185	0xbc48b400	-0.012249947
186	0x3d874a81	0.06606007
187	0xbd072651	-0.032995526
188	0x3da13075	0.078705706
189	0xbb9828f5	-0.0046435543
190	0x3cb6b546	0.022303235
191	0xbc591279	-0.013249033
192	0x3d5128fa	0.05106447
193	0xbc74badc	-0.014937129
194	0x3cd202ec	0.025636159
195	0x3b295f07	0.0025843994
196	0x3da430c7	0.08017116
197	0x3d9cc276	0.07654278
198	0x3cbb82dd	0.022889549
199	0xbc084bc1	-0.008318842
200	0x3af36a36	0.0018571082
201	0x3b9dfb41	0.0048212116
202	0x3d52140b	0.051288646
203	0xbbe54491	-0.006996699
204	0x3c26572b	0.010152618
205	0x3ca374b7	0.019953115
206	0x3ccea324	0.025224276
207	0xbcc28ac7	-0.023747815
208	0xbd9b6a83	-0.07588675
209	0x3d613195	0.054978926
210	0x3c995a85	0.01871992
211	0x3e46a5e1	0.19399215
212	0xbd696548	-0.056981355
213	0x3d5c5fa9	0.053802166
214	0xbcff6005	-0.031173715
215	0x3d2dd997	0.042443838
216	0xbe0dab04	-0.13834769
217	0xbd12fb29	-0.035884056
218	0xbb7a94e1	-0.0038235711
219	0x3b2c0d45	0.0026253026
220	0x3ccbbe0a	0.024870891
221	0xbc2cc33f	-0.010544597
222	0xbcdaca39	-0.026707755
223	0x3caf3779	0.021388756
224	0x3da3d6ed	0.07999978
225	0xbdc4b7e1	-0.096053846
226	0x3d32c6ab	0.043646496
227	0xbd36625d	-0.0445274
228	0xbd2c5076	-0.04206892
229	0xbd21d3e5	-0.03950872
230	0xbd45d176	-0.04829546
231	0xbc43330b	-0.011914025
232	0x3dee2ed4	0.116300255
233	0xbd41b759	-0.047293995
234	0xbd116f29	-0.0355064
235	0x3cd7cb01	0.026341917
236	0xbdd7f12b	-0.10544046
237	0xbd2545ab	-0.040349644
238	0xbd67386f	-0.056450304
239	0xbdfbba54	-0.12291399
240	0x3d0f88ef	0.0350427
241	0xbd4a3f65	-0.049376864
242	0xbd69e306	-0.057101272
243	0xbdf86ba8	-0.12129909
244	0xbdc9fdda	-0.098628715
245	0xbd66afc3	-0.056319963
246	0xbda625c7	-0.08112674
247	0xbd9faace	-0.0779625
248	0xbd01c14c	-0.031678483
249	0xbd48eeae	-0.049055748
250	0xbd3fc73b	-0.04682086
251	0xbdca76a8	-0.09885913
252	0xbd2a4f8d	-0.04157977
253	0xbe1b49c6	-0.15164861
254	0xbdc23e8b	-0.094845854
255	0xbda79a86	-0.0818377

main.5.bias f4 [64]
0	0x3cbbc9b3	0.022923326
1	0x3d38116c	0.04493849
2	0xbd1eaf96	-0.03874167
3	0x3d1b68fb	0.037941914
4	0xbca10418	-0.019655272
5	0x3c1258e2	0.008932324
6	0xbcb37e6e	-0.021910872
7	0x3c1996b0	0.009374306
8	0x3c9e018b	0.019287845
9	0xbc7949c1	-0.015215338
10	0x3b4009a7	0.0029302628
11	0xbc756d78	-0.014979713
12	0x3d0560e0	0.03256309
13	0x3c7abcd6	0.015303811
14	0xbc328169	-0.010895112
15	0x3abfe71a	0.0014641017
16	0x3c7d1acb	0.0154482825
17	0x3cd2ce11	0.025733026
18	0x3d086325	0.033297677
19	0xbd051701	-0.03249264
20	0x3a486935	0.00076450716
21	0x3d2b028b	0.041750472
22	0xba9e0579	-0.0012056074
23	0xbc9329d6	-0.017964285
24	0x3c2043e2	0.0097818095
25	0xbc0b74a9	-0.008511701
26	0x3b909a15	0.0044128993
27	0xbcadec42	-0.02123082
28	0xbd16a7cb	-0.036781114
29	0x3d1a4fd4	0.037673786
30	0x3d1c7785	0.03819992
31	0xbd85df83	-0.06536772
32	0xbbbf65b1	-0.00584098
33	0xbbbc782e	-0.005751631
34	0x3d16d9e9	0.03682891
35	0x3b35d992	0.002774809
36	0x3c1790a8	0.009250797
37	0x3c78e713	0.015191811
38	0xbc8b3ff0	-0.016998261
39	0x3c0105ab	0.0078748865
40	0x3d203184	0.03910972
41	0x3d73108a	0.059341945
42	0xbb17f5b4	-0.0023187222
43	0x3c9a2b8f	0.018819598
44	0xbc2f523d	-0.0107007595
45	0x3c994891	0.01871136
46	0xbcfe5fc1	-0.031051518
47	0x3d1dc61c	0.03851901
48	0x3b905175	0.0044042417
49	0x3d18a95c	0.03727089
50	0xbb8d53a3	-0.004312949
51	0xbcfd534f	-0.030923514
52	0xbd740e32	-0.05958385
53	0x3c0d26b2	0.008615183
54	0xbcc5eb09	-0.024159925
55	0x3cce6dac	0.02519878
56	0xbc50a80e	-0.01273538
57	0x3ca0ed33	0.019644355
58	0xbd05af3f	-0.03263783
59	0xbc148c69	-0.0090666795
60	0xbca7bc65	-0.020475576
61	0xbab4c34f	-0.0013791117
62	0xbca77569	-0.020441728
63	0x3d2fe517	0.042943086

main.6.weight f4 [64]
0	0x3f93deb2	1.1552336
1	0x3f998fa4	1.1996961
2	0x3f8d7280	1.1050568
3	0x3f8e4d1a	1.111728
4	0x3f95deb0	1.1708584
5	0x3f957dd4	1.1679025
6	0x3f917ef3	1.1366867
7	0x3fa1510d	1.260286
8	0x3f92dae8	1.1473055
9	0x3f946f51	1.1596471
10	0x3f87fc65	1.06239
11	0x3f90598e	1.127733
12	0x3f95917c	1.1685023
13	0x3f9352c5	1.1509634
14	0x3f9a4b3d	1.2054211
15	0x3f9d9959	1.2312423
16	0x3f958e3f	1.1684035
17	0x3f8830d0	1.0639896
18	0x3f8eef69	1.1166812
19	0x3f93d1f3	1.1548446
20	0x3f95a6b1	1.1691495
21	0x3f9cb544	1.2242818
22	0x3f9eafe7	1.2397431
23	0x3f964f2c	1.1742911
24	0x3f8f912d	1.1216179
25	0x3f8f6ce3	1.1205105
26	0x3f98847e	1.1915433
27	0x3f930cc5	1.1488272
28	0x3f8df93c	1.1091685
29	0x3f9f5638	1.2448187
30	0x3f971347	1.1802758
31	0x3f8b8775	1.0900713
32	0x3f8910ba	1.070823
33	0x3f8f18f4	1.117949
34	0x3f9b8a05	1.2151495
35	0x3f9dd600	1.2330933
36	0x3f82d94c	1.0222564
37	0x3f8c3bd5	1.0955759
38	0x3f904fc3	1.1274341
39	0x3f87ac19	1.0599395
40	0x3f8d2678	1.1027365
41	0x3f92c378	1.1465902
42	0x3f93bbc3	1.1541675
43	0x3f89b67d	1.0758816
44	0x3f905089	1.1274577
45	0x3f9325e5	1.149594
46	0x3f9f5809	1.2448741
47	0x3f990399	1.1954223
48	0x3f89c86c	1.0764289
49	0x3f8af914	1.0857263
50	0x3f8c8465	1.0977904
51	0x3f84f815	1.0388209
52	0x3f8fd52a	1.1236928
53	0x3f984f51	1.1899205
54	0x3f92f0b1	1.1479703
55	0x3f9c014a	1.2187893
56	0x3f90d6c7	1.1315545
57	0x3f8cfcc3	1.1014637
58	0x3f8e3998	1.1111326
59	0x3f91a35c	1.1377978
60	0x3f931a96	1.1492488
61	0x3f85fa06	1.0466926
62	0x3f826b1c	1.0188937
63	0x3f953c34	1.1658998

main.6.bias f4 [64]
0	0x3d23269b	0.03983174
1	0x3bf4fe98	0.007476639
2	0x3c9e904d	0.019355917
3	0x3c2bad07	0.010478265
4	0x3cea0cbf	0.028570531
5	0x3caf3f50	0.021392494
6	0x3d8cc20d	0.0687295
7	0x3ce9e77a	0.02855276
8	0x3aa196a6	0.0012328222
9	0xbcf9e3ad	-0.030504072
10	0xbdb7beb0	-0.08971918
11	0xbd0f2765	-0.03494968
12	0x3d2ecb31	0.042674247
13	0x3c83d1d3	0.016091263
14	0x3c8bb08d	0.01705196
15	0x3d1ced62	0.038312323
16	0x3cc3c7e0	0.023899019
17	0xbd0bd168	-0.034135252
18	0xbe13d5cc	-0.14437026
19	0xbca00589	-0.01953389
20	0xbd32f8ec	-0.04369442
21	0x3b6677e6	0.003516668
22	0x3c98a58c	0.018633626
23	0x3a8b2bb5	0.0010617884
24	0xbc9c31f9	-0.019066798
25	0xbc585504	-0.013203863
26	0x3c15ebdb	0.009150471
27	0x3d1f0870	0.038826406
28	0xbc5fc881	-0.013658644
29	0x3d98e101	0.07464791
30	0xbc4b0a10	-0.012392536
31	0xbd6909a3	-0.056893956
32	0xbcd4ef60	-0.02599305
33	0xbcc798b7	-0.024364812
34	0x3d2b7ec3	0.041868936
35	0x3af36ee1	0.0018572473
36	0xbe04f961	-0.12985756
37	0xbc101646	-0.008794373
38	0xbb98fdca	-0.004668926
39	0xbae7e43b	-0.0017691919
40	0xbb37750e	-0.0027993354
41	0xbce1133a	-0.027474988
42	0x3d17ea66	0.037088774
43	0xbd66074a	-0.056159295
44	0xbd1e62c8	-0.038668424
45	0x3d06e318	0.032931417
46	0x3d17b72e	0.03703993
47	0x3d8fe20d	0.07025538
48	0xbd1671a9	-0.03672949
49	0xbd096ec9	-0.03355292
50	0x3ab090d3	0.0013470895
51	0xbd1f7297	-0.03892764
52	0x3b545e63	0.0032404892
53	0x3d0b616b	0.034028452
54	0xbdbf6734	-0.09345856
55	0x3dad5161	0.084627874
56	0xbcbeafcd	-0.023277188
57	0xbc7c82ec	-0.015412074
58	0xbce61d39	-0.028090106
59	0xbc1c7119	-0.009548449
60	0x3d55e75d	0.0522226
61	0xbe528ad0	-0.20560765
62	0xbbee1b08	-0.007266406
63	0x3d99d4ae	0.075112686

main.6.running_mean f4 [64]
0	0xbfc3f2fb	-1.5308527
1	0xbef8c58f	-0.48588225
2	0x3d5e8668	0.0543274
3	0xbf3e4c74	-0.7433541
4	0xc00ba5f0	-2.182003
5	0x3ef3b17f	0.47596356
6	0xbfba5019	-1.4555694
7	0x3f68fc82	0.91010296
8	0x3f385bf2	0.720153
9	0x3ed36dc9	0.41294697
10	0x3e17df21	0.1483121
11	0x3facf0b2	1.3510954
12	0xbf9d6e94	-1.2299371
13	0xbf1c3b64	-0.6102812
14	0xc004c76f	-2.0746725
15	0xbfe9283e	-1.8215406
16	0xbfad5882	-1.3542635
17	0x3f42f349	0.76152474
18	0x3f56ce03	0.839081
19	0xbe6e6719	-0.23281516
20	0xbf9437fe	-1.1579587
21	0x3ed5e28a	0.41774398
22	0x3f528a54	0.8224232
23	0x3f201a78	0.6254039
24	0x3f4de649	0.8042951
25	0x3f7cdb6a	0.987723
26	0xbf607aa1	-0.87687117
27	0x3e533e92	0.20629337
28	0xbf5ac7f0	-0.8546133
29	0xc014017e	-2.312591
30	0xbf2b6a1b	-0.6695878
31	0xbbdd867a	-0.0067604156
32	0x3f6decd5	0.929395
33	0x3e920c0e	0.28524822
34	0xc010e6c6	-2.2640853
35	0x3f85b069	1.0444461
36	0x3fda71e2	1.7066004
37	0x3fb2195c	1.3913989
38	0x3f10fe6e	0.5663823
39	0x3ea1dc1a	0.31613237
40	0x3f874c0a	1.057008
41	0x3f021820	0.5081806
42	0xbfb4fa10	-1.4138813
43	0x3ea1da6e	0.3161196
44	0x3eb22ede	0.34801382
45	0x3f08908e	0.5334557
46	0xbfa956fe	-1.3229673
47	0xc01a5d3a	-2.41194
48	0x3f4ee9af	0.8082532
49	0x3f479e2c	0.77975726
50	0x3f108506	0.5645298
51	0xbefff38c	-0.499905
52	0x3f004d58	0.5011802
53	0xbeda84f4	-0.4267956
54	0x3f260801	0.64855963
55	0xbe379506	-0.17927942
56	0x3f289e2a	0.6586634
57	0x3f7e5090	0.9934168
58	0x3f7e12f8	0.99247694
59	0xbea9ea45	-0.33186546
60	0xbe1524d9	-0.14564838
61	0x3f3e700b	0.74389714
62	0xbf0b1420	-0.54327583
63	0xbfc4a116	-1.536166

main.6.running_var f4 [64]
0	0x40a03535	5.006495
1	0x3fd943a5	1.6973768
2	0x402625af	2.59605
3	0x40139101	2.3057253
4	0x40d791b5	6.7365365
5	0x3fe4399d	1.7830082
6	0x40aba104	5.363405
7	0x4089e8cf	4.309669
8	0x4000bb1b	2.01142
9	0x3fcd97b7	1.6061925
10	0x3fc24098	1.5175962
11	0x408381ab	4.1095786
12	0x40a8f088	5.2793617
13	0x3fad7deb	1.3554052
14	0x402d8187	2.7110307
15	0x4093897b	4.6105323
16	0x40892429	4.285664
17	0x3fb3bc2e	1.4041803
18	0x3f6b20bc	0.91846824
19	0x3fa471f3	1.2847275
20	0x40651807	3.5795915
21	0x4002716c	2.0381727
22	0x409b0e0e	4.8454657
23	0x3ff1c12e	1.8887079
24	0x40219c05	2.5251477
25	0x4037db26	2.8727508
26	0x4080a990	4.0206985
27	0x4029eb92	2.655003
28	0x3fd65ad7	1.6746472
29	0x40a9425a	5.2893496
30	0x4042d5a1	3.0442889
31	0x4014808e	2.3203464
32	0x40036330	2.052929
33	0x3faa0385	1.3282324
34	0x40b8ce88	5.7752113
35	0x405d27e6	3.4555602
36	0x4022176e	2.53268
37	0x40be7d87	5.952823
38	0x3fdd4660	1.7287102
39	0x401d693e	2.4595485
40	0x3f872068	1.0556765
41	0x3fd4daf2	1.6629317
42	0x409f6abf	4.9817805
43	0x3fe1b191	1.7632314
44	0x40178d92	2.3680158
45	0x40096769	2.1469367
46	0x40b396b4	5.6121464
47	0x40cb70f1	6.357537
48	0x3fd039c4	1.6267629
49	0x406a3c81	3.6599429
50	0x3ff0e1f2	1.8818953
51	0x3faad180	1.3345184
52	0x401fd1c8	2.497179
53	0x407b1a42	3.9234776
54	0x4001fbec	2.031001
55	0x404003cd	3.000232
56	0x40354c87	2.8327959
57	0x4059fec4	3.4061747
58	0x3ffdc006	1.9824226
59	0x3fd6b541	1.6774064
60	0x3fc36a04	1.5266728
61	0x3f889c2e	1.0672662
62	0x408cdfc4	4.402315
63	0x409612ac	4.6897793

main.8.weight f4 [1, 64, 4, 4]
0	0xbd03808a	-0.032105006
1	0xbdaa6c72	-0.083214656
2	0xbd8f358e	-0.069926366
3	0x3dcafa0b	0.09910973
4	0x3dfcba7e	0.12340258
5	0xbd30daf8	-0.043177575
6	0xbbe7c189	-0.0070726317
7	0x3ddedc57	0.1088187
8	0x3d264c65	0.0406002
9	0xbe4181fd	-0.18897243
10	0x3d8772d0	0.066136956
11	0x3e1c69ef	0.15274785
12	0x3e048bf5	0.12944014
13	0xbd5843a2	-0.052798875
14	0x3c0ebfad	0.008712691
15	0x3dee4884	0.11634925
16	0xbc6db3a2	-0.01450816
17	0x3deae799	0.11469955
18	0x3e2b9c09	0.16758741
19	0x3decb345	0.115576304
20	0x3d60cca2	0.054882653
21	0x3e8764be	0.26444048
22	0xbdf7f3e4	-0.12107065
23	0x3d9b47be	0.07582043
24	0x3cf2c274	0.029633738
25	0x3d8c0c63	0.068383
26	0x3e79f2de	0.24409053
27	0xbb87750d	-0.0041338266
28	0x3d67ce8c	0.056593463
29	0xbc62737e	-0.013821481
30	0xbda815dd	-0.08207295
31	0x3d29d3ba	0.041461684
32	0xbd08755b	-0.033315044
33	0x3ca105d9	0.019656109
34	0xbda56693	-0.08076205
35	0xbd824b5d	-0.06362031
36	0x3d66cdf4	0.056348756
37	0xbc890498	-0.016725823
38	0x3dc14502	0.0943699
39	0xbdd84c68	-0.10561448
40	0x3e0a2027	0.13488828
41	0xbc30678e	-0.010766877
42	0x3dca6129	0.09881813
43	0xbdb3bb0b	-0.0877591
44	0x3d6974bb	0.05699609
45	0xbdb5a719	-0.08869762
46	0xbcb00111	-0.021484884
47	0xbe013d40	-0.12621021
48	0xbd7f5444	-0.06233622
49	0xbdb6c390	-0.08924019
50	0xbdb08d2e	-0.08620678
51	0xbd0bf352	-0.034167595
52	0x3c0e418b	0.008682619
53	0x3dd28fbc	0.102813214
54	0xbd1d26d0	-0.038367093
55	0x3d7ef6de	0.06224715
56	0x3e0857df	0.1331477
57	0xbb85187a	-0.0040617557
58	0xbd956e0b	-0.0729638
59	0x3df5c12e	0.11999737
60	0x3dd135e4	0.10215357
61	0xbcb100da	-0.021606851
62	0x3e332bbf	0.17497157
63	0x3ce5941c	0.028024726
64	0x3dd40b36	0.10353701
65	0x3c93642d	0.017992103
66	0xbdc0bd41	-0.09411097
67	0xbd3bc6ee	-0.04584401
68	0x3e175317	0.1477779
69	0x3d65ac22	0.05607236
70	0xbca03d9e	-0.019560631
71	0xbdbafba3	-0.09130027
72	0x3e450407	0.19239818
73	0x3a48e4a2	0.00076634635
74	0x3cd9d1bf	0.026589273
75	0xbab4d1a1	-0.0013795384
76	0x3e3284cd	0.17433472
77	0xbd4e7e0c	-0.050413176
78	0x3d3b8755	0.04578336
79	0xbb97cc1f	-0.0046324874
80	0xbcb381d9	-0.021912502
81	0x3d6a828f	0.057253417
82	0x3e0247a4	0.12722641
83	0xbadeff0d	-0.0017013267
84	0x3e075ece	0.13219759
85	0x3e6c0271	0.23047806
86	0x3de42499	0.11139793
87	0x3e1f1a89	0.15537466
88	0x3d9b0500	0.07569313
89	0x3da3575b	0.07975646
90	0x3d21365c	0.03935848
91	0x3e0d8450	0.13820004
92	0xbc754a9c	-0.014971402
93	0xbd9920c7	-0.07476955
94	0xbdd6a2b4	-0.10480252
95	0xbcf92dcf	-0.030417351
96	0x3d1ff388	0.03905061
97	0x3dd10877	0.10206693
98	0x3debec96	0.115197346
99	0x3e039982	0.12851527
100	0xbd0e42f1	-0.03473181
101	0xbd787afd	-0.060664166
102	0xbe107191	-0.14105822
103	0x3de2b47d	0.11069582
104	0x3c3fd583	0.01170862
105	0xbd9f2bb5	-0.07772008
106	0xbc842cba	-0.016134609
107	0x3d5cb67e	0.053884976
108	0x3cd21b6a	0.025647838
109	0xbe2dd7d8	-0.16976869
110	0x3c47405f	0.012161343
111	0x3df03864	0.11729506
112	0xbd4f77d5	-0.05065139
113	0xbc301e44	-0.010749403
114	0xbe1317fc	-0.14364618
115	0xbd1637ad	-0.03667419
116	0xbd69f977	-0.057122674
117	0x3dfe051c	0.12403318
118	0xbdf11f3f	-0.11773538
119	0xbde79d4b	-0.11309298
120	0xbe25d743	-0.16195397
121	0x3e59fbed	0.21287508
122	0xbdc8b7fb	-0.098007165
123	0xbddd400c	-0.108032316
124	0xbe1da702	-0.1539574
125	0x3ebf358d	0.37345544
126	0xbd6d0cc4	-0.057873502
127	0xbda13f09	-0.07873351
128	0xbd1809a7	-0.03711858
129	0x3e676208	0.2259599
130	0xbddc76e2	-0.107648626
131	0xbdd34bc8	-0.103171885
132	0xbd188f65	-0.037246127
133	0x3c9642ae	0.018342342
134	0x3c030898	0.007997654
135	0xbdffc85e	-0.12489389
136	0xbcf48e3b	-0.029852977
137	0x3b091f38	0.002092315
138	0x3dda948c	0.10672864
139	0xbd0470c3	-0.0323341
140	0xbe2905f2	-0.16506174
141	0xbdbdf4c4	-0.09275201
142	0xbdbaaad6	-0.091146156
143	0xbdbb6ff4	-0.09152213
144	0x3d90ebf2	0.07076253
145	0xbd2aa611	-0.04166228
146	0x3e285ae5	0.16440924
147	0xbdaebe8d	-0.085324384
148	0xbd89ee3e	-0.06734894
149	0x3d9edbdc	0.077567786
150	0x3d317d08	0.04333213
151	0x3df3afa2	0.11898734
152	0xbd0c86ee	-0.034308366
153	0xbe02cdc6	-0.12773809
154	0x3dbf1dd4	0.09331861
155	0x3e11475f	0.14187382
156	0xbdfa72d7	-0.12228935
157	0xbd9fd8df	-0.07805037
158	0xbd212f62	-0.03935183
159	0xbd530cca	-0.05152587
160	0xbda75b30	-0.081716895
161	0xbd3e96e2	-0.04653061
162	0x3ce749da	0.028233457
163	0xbd8cdf3b	-0.06878515
164	0x3bdb7291	0.006697007
165	0x3d477821	0.04869855
166	0x3d1bfd9b	0.038083654
167	0x3dabcd1f	0.08388733
168	0xbd881fcf	-0.06646692
169	0x3ccbf5d2	0.02489749
170	0x3e07a0bc	0.13244909
171	0x3e5a4217	0.21314274
172	0xbd135fe7	-0.03598013
173	0xbd703cd7	-0.05865177
174	0xbd805bfc	-0.062675446
175	0xbb66f6d0	-0.0035242327
176	0xbc65f58f	-0.0140355965
177	0x3ddfcc91	0.1092769
178	0x3d8c02ac	0.06836447
179	0xbdc1b0c3	-0.09457543
180	0xbde1bc66	-0.11022262
181	0x3c956e89	0.018241184
182	0xbdaaa68e	-0.08332549
183	0xbdc0fbcc	-0.094230264
184	0xbd71b046	-0.059005998
185	0xbd646cf7	-0.05576798
186	0x3d2e9dfe	0.04263114
187	0xbd151630	-0.036398113
188	0xbdc452f2	-0.09586133
189	0x3d7689d7	0.060190048
190	0xbd96102b	-0.073273025
191	0xbe470b5f	-0.19437931
192	0x3e3cc215	0.18433411
193	0x3d79e849	0.06101254
194	0x3d8ec17b	0.06970497
195	0x3d3f8224	0.04675497
196	0x3de8d297	0.11368292
197	0x3d7a2adc	0.06107603
198	0x3b2fd6eb	0.0026830982
199	0xbdad3ba9	-0.08458645
200	0x3e26f5c5	0.16304691
201	0xbcfc894f	-0.030827193
202	0xbdc8f6f2	-0.09812726
203	0x3c2273e5	0.009915327
204	0x3e20b0bb	0.15692417
205	0x3e12f8cd	0.14352722
206	0x3e09d1fb	0.13459007
207	0x3d43c329	0.04779354
208	0x3dc7a37d	0.0974798
209	0xbd60f272	-0.054918714
210	0x3b6e5312	0.0036365432
211	0xbbd86d14	-0.0066048
212	0xbc4de0e1	-0.012565822
213	0x3d9b8999	0.07594604
214	0x3df39a8f	0.11894714
215	0x3c53ed13	0.012934941
216	0x3ccb4171	0.024811478
217	0xbdbfbd69	-0.09362299
218	0x3dc4a30c	0.09601411
219	0x3dcb56d0	0.099286675
220	0x3d698c10	0.05701834
221	0x3d899afc	0.06719014
222	0x3ec793dd	0.38979998
223	0x3c4fe890	0.012689725
224	0xbb507cf3	-0.0031812757
225	0x3e10319a	0.14081421
226	0xbda18615	-0.07886902
227	0xbd1b8b73	-0.037974786
228	0x3d27003c	0.040771708
229	0x3e00e457	0.12587105
230	0xbd8ca44b	-0.06867274
231	0x3d092331	0.033480827
232	0xbd3bff0a	-0.04589752
233	0x3cc6f1f1	0.024285289
234	0xbd956cf9	-0.072961755
235	0x3d3d2ffe	0.046188347
236	0x3da96ba0	0.08272481
237	0x3dc16552	0.094431534
238	0x3e14f429	0.14546265
239	0x3e50909c	0.20367664
240	0x3d9b75c4	0.075908214
241	0xbd0bce00	-0.034132004
242	0xbd53cb59	-0.0517076
243	0x3cbf3aec	0.023343526
244	0x3e20192f	0.15634607
245	0x3d8413f4	0.06449118
246	0x3d818bba	0.06325479
247	0x3de3823b	0.11108824
248	0x3de89983	0.11357405
249	0xbd25ff07	-0.040526416
250	0xbd300e5a	-0.042982437
251	0x3e0f6a09	0.14005293
252	0x3e02b479	0.12764157
253	0xbdaba73e	-0.08381508
254	0x3e198691	0.1499274
255	0x3dfd3c29	0.1236499
