saved_model/G_state_dict: n_epoch= 10, z_dim= 30.pt (torch, 177105 bytes, 15 tensors)

main.0.weight f4 [16, 1, 4, 4]
000000 90 d3 c8 bd 7c e1 1c 3e 39 20 b1 bd 2f 57 15 bd
       -0.09805977 0.1532039 -0.08648724 -0.036460098
000010 f7 37 37 3e 76 fb ff 3d d1 37 12 bf d3 ff 96 3d
       0.17892443 0.12499134 -0.5711642 0.07373013
000020 59 9c ad 3e a4 11 98 bd 6e 12 ae be 2c 11 f5 bc
       0.33908346 -0.0742524 -0.33998436 -0.029915415
000030 84 b8 87 3e 44 b2 96 be a8 33 8b 3c e2 34 d0 bc
       0.26507962 -0.2943288 0.016992405 -0.025415841
000040 75 30 a5 3c dc 62 82 3e 26 7d 33 3e 59 1a d5 3d
       0.020164708 0.2546605 0.17528209 0.10405416
000050 1a 7a 82 3d 44 82 95 3d b9 65 0a 3e fc 18 88 3e
       0.06370945 0.07300237 0.13515367 0.26581562
000060 ec 16 f2 bd 20 71 10 be 2b 74 89 be 6d 95 b8 3d
       -0.11820778 -0.14105654 -0.26846442 0.09012876
000070 4b b7 04 bd 47 cc 7b bd f0 22 fc bd 29 00 f9 3c
       -0.032401364 -0.06147411 -0.12311351 0.030395584
000080 f6 72 28 bc 01 20 a4 3d d5 32 27 3e cd 55 a5 be
       -0.010281315 0.08013917 0.16327985 -0.32292023
000090 b8 29 41 be ea 01 b7 3e b8 3c f0 3d 28 2b 25 be
       -0.1886357 0.35743648 0.11730331 -0.16129744
0000a0 a4 1b 6c 3d d7 58 5b 3e 61 38 e5 be d1 38 1b bd
       0.057643548 0.21420608 -0.44769576 -0.03789598
0000b0 bd d2 a2 bc 79 71 41 3d d3 30 54 bd 87 a2 9e bd
       -0.019875878 0.047227357 -0.051804375 -0.077458434
0000c0 cf ff a9 bb 06 af 87 3b b3 b9 8e bc 42 65 1f 3c
       -0.0051879655 0.0041407375 -0.017422533 0.009728732
0000d0 81 fd 8e bc 58 3f 02 bf b7 dc 4e be 22 6a 7a bf
       -0.017454864 -0.50877905 -0.20201384 -0.97818196
0000e0 2d ea e6 3c 66 3b 0e 3f d5 94 2e 3e d0 76 7d bc
       0.028187836 0.55559385 0.17048962 -0.015470222
0000f0 ec 21 8a ba dd d6 1f bb a7 3e 9d 3b 28 de 5a 3b
       -0.0010538674 -0.0024389543 0.0047987285 0.0033396576
000100 eb 91 46 bc e4 eb cc 3d ed 9b de 3e b8 5d 87 be
       -0.0121197505 0.1000593 0.43478337 -0.2643869
000110 54 2f 2e be 6a a1 ae be 8c f5 a4 3e b0 56 7c 3c
       -0.17010242 -0.34107524 0.32218587 0.015401527
000120 5f 0c c8 3d 3d 9a 8b be c3 81 dc 3d 23 10 0c be
       0.097679846 -0.27266112 0.107669376 -0.1367803
000130 4d c2 94 3d 86 5b 3c be dd 1b 7f 3e b0 14 02 be
       0.072636224 -0.18394288 0.24912973 -0.12703204
000140 c0 5a 92 be 30 cb d5 be f7 8d be be 03 d6 03 be
       -0.28584862 -0.41756582 -0.37217686 -0.12874608
000150 ee 99 8e 3e 1d 34 0f 3f 5d 90 cf 3e 4e 89 15 bc
       0.27851814 0.55938894 0.40539828 -0.009126974
000160 2e a9 c5 3d 22 33 56 be 22 cd 3a be 2b 02 41 3e
       0.09651409 -0.20917943 -0.18242314 0.18848483
000170 7b b0 2c be cf 3e e5 3d 2f ba 9d bd 7f 04 fe bc
       -0.16864197 0.111936204 -0.07701527 -0.031008003
000180 4b 7c 51 be c6 ab 0c be 7b f0 9a 3d e5 1b 83 3e
       -0.2045757 -0.13737401 0.07565399 0.2560722
000190 bd fe 4c 3d 9b 13 80 3e 0b 2c be 3d 0a 60 ad bd
       0.050047625 0.25014958 0.09285744 -0.084655836
0001a0 14 f3 8a be de 4e 96 3d 34 fb 16 3e 67 82 2a be
       -0.2713858 0.073392615 0.14744264 -0.16651307
0001b0 c1 1f 59 3e 53 a1 f0 bd 27 9d 81 3d a2 2e 00 3e
       0.2120352 -0.1174952 0.063288026 0.12517789
0001c0 6d 1e 85 3d f0 94 d5 3d c4 5a c2 be a6 6b 16 3e
       0.06499944 0.10428798 -0.37959874 0.14689502
0001d0 05 7a 6d be 53 f3 14 bd d7 03 20 bd 4b 60 c8 3e
       -0.23191078 -0.036364865 -0.039066162 0.39135966
0001e0 c3 cb 81 3e f8 83 96 bd 5c 36 5d 3e ba 9b b1 be
       0.2535077 -0.0734939 0.21602768 -0.34689122
0001f0 1b 07 63 bd 4b 62 d2 3d 87 cc 21 bd 58 1a f4 3c
       -0.0554267 0.10272654 -0.039501693 0.029797718
000200 a7 a6 48 bc 17 27 14 3d 2c 04 2c bd eb 7f 4e 3d
       -0.012246764 0.03617009 -0.041996166 0.05041496
000210 46 a2 e4 bd d7 52 34 3e 9b 68 ba 3c 0c cf f6 bd
       -0.11163764 0.17609726 0.022754958 -0.1205121
000220 33 7a 72 bd ea bd 70 be 59 74 87 3e d2 d3 6d 3e
       -0.05919857 -0.23509946 0.26455954 0.23225334
000230 72 1a e8 3c 40 6e cb be 2d c4 2c 3e f0 1a 31 3e
       0.028332923 -0.39732552 0.1687171 0.17295432
000240 b7 d8 d6 3d 60 a2 23 3e b4 32 bd 3c 39 39 3d 3e
       0.10490554 0.1597991 0.023095466 0.1847886
000250 f9 31 59 be 3e 3d b1 be 72 fe 9f be 9f cd aa 3c
       -0.2121047 -0.34617037 -0.31248814 0.02085
000260 74 d3 12 bf b0 ff c9 be f8 a1 0e bf 9b 08 4b be
       -0.573539 -0.39452887 -0.55715895 -0.19827501
000270 dd 42 0e 3e dc e5 a2 be 80 7c f5 bd 09 2f ed 3d
       0.13892694 -0.31815994 -0.11986637 0.11581237
000280 fd d6 93 bd 6e 17 1b be e1 b5 48 3e e5 92 f4 3d
       -0.0721874 -0.15145656 0.19600631 0.119420804
000290 6b 85 35 3d 19 ea 0c 3e fa 39 40 3e 9b 1c 29 3e
       0.04431669 0.13761176 0.18772116 0.16514818
0002a0 a5 ae 8d 3e c3 69 8d 3e 3e a0 7e 3d b7 af 02 be
       0.27672306 0.27619752 0.062164538 -0.12762342
0002b0 a5 60 e6 bc 5b fb 33 be d8 4c 3e be 73 b4 17 be
       -0.028122256 -0.17576353 -0.18584001 -0.1481493
0002c0 c9 9c b3 3d 66 9e 27 be 5b a1 74 be 78 e8 a4 bc
       0.08770139 -0.16369018 -0.23889677 -0.020130381
0002d0 f8 d0 4f 3e e1 de 3f 3e 08 e5 31 be 6a 71 4c be
       0.20294559 0.18737365 -0.17372525 -0.19965139
0002e0 0a 46 43 3e 7b 8d ce 3e b1 0e 9a 3d 4c bd 2f be
       0.19069687 0.40342316 0.075223334 -0.17162055
0002f0 99 94 b2 be 8c 36 6c 3e d6 8a c4 3d ee cc e1 bc
       -0.34878996 0.23067683 0.09596793 -0.027563538
000300 2b fc 8e bf de f6 b2 bf 43 20 e3 3d 6d 4c b9 bc
       -1.1170706 -1.3981588 0.11090138 -0.02261945
000310 c9 6e 33 be 84 47 4e 3f 6b 95 2a bf ef 91 98 3c
       -0.1752273 0.80577874 -0.66634244 0.018624274
000320 c5 8f cf bd fd df 98 3e a9 ed 93 be 23 c5 14 3c
       -0.10134844 0.2985839 -0.28892258 0.009080204
000330 c2 41 d8 bb a4 24 91 3c ae 06 8c bc 80 7b 1b ba
       -0.006599636 0.017717667 -0.017093029 -0.00059311837
000340 f8 18 4e bd d7 0a 9e bd bc 71 c9 3d 38 77 b7 bd
       -0.05031678 -0.07716911 0.09836146 -0.08958286
000350 ed ba be bd 44 d0 0e bd 68 c5 b6 bd ac 72 de 3d
       -0.09312997 -0.034866586 -0.08924371 0.10861716
000360 7a e1 04 be f0 b1 5b 3d eb 85 5c bd 64 b1 95 3d
       -0.12976637 0.05363649 -0.05383865 0.07309225
000370 a2 ae c1 3d 94 72 b3 bc 77 72 23 be a9 5f ab bd
       0.09457137 -0.021905221 -0.15961634 -0.08367855
000380 72 e5 8e bd 9d 60 80 bd e9 df c4 3d b8 11 91 3c
       -0.06977357 -0.062684275 0.0961302 0.017708644
000390 c7 60 6b bd 08 68 62 3e 66 bd fd 3d a6 fc 0d be
       -0.05746534 0.22109997 0.123896405 -0.13865909
0003a0 91 6a 77 be ab 73 64 3e b8 9f cb 3d 2e 0b 0b bd
       -0.24161746 0.22309749 0.09942573 -0.03394621
0003b0 db d4 d7 bd f8 8a 6a 3e ea 7a fc bd ba f4 76 bd
       -0.10538646 0.22904575 -0.123281315 -0.060291983
0003c0 e8 b7 0c 3e 9a 86 70 3e 98 c6 9d be da 6f ae bc
       0.1374203 0.23488846 -0.30815578 -0.02129357
0003d0 68 60 9b 3e 0d ef 54 be dc 9e 95 be a7 8f 82 bd
       0.3034699 -0.20794316 -0.29222763 -0.06375056
0003e0 1a f3 75 bb 2e 2d d9 be 4e 07 ad 3e 1e ed 94 3d
       -0.0037528933 -0.42417282 0.33794636 0.07271789
0003f0 4a d5 a4 be 49 fb 44 bd 6c 89 38 be a3 cf 6a 3a
       -0.32193977 -0.048091207 -0.18021172 0.0008957332

main.0.bias f4 [16]
000000 1a 98 21 3c 47 ce 83 be f3 d0 6f bd 1f c5 25 bb
       0.009862924 -0.25743315 -0.05854888 -0.0025294495
000010 3d 48 f6 bb 13 a0 58 bc 19 b1 63 be 75 b7 a5 bc
       -0.0075159357 -0.013221758 -0.22235526 -0.02022908
000020 74 9b 8e 3b 21 86 1b 3e 1c b6 ad be 37 e4 9e be
       0.0043520276 0.15187885 -0.33928 -0.3103349
000030 0e bf c9 b9 ad d7 10 3e b6 a9 3e 3e 22 20 b8 bb
       -0.00038480054 0.14144774 0.18619427 -0.005619065

main.2.weight f4 [32, 16, 4, 4]
000000 ee 67 bb bd 47 a1 43 3e 38 34 82 bd 29 32 f5 3d
       -0.091506824 0.19104491 -0.06357616 0.11972458
000010 cc 30 7c be cc 0d 06 3e 1b d2 3c 3d ca c3 5a bc
       -0.2462799 0.130912 0.04609881 -0.013352344
000020 70 81 e1 bd 2f 01 2b 3e 9f 32 d0 3d 94 cd 3a 3d
       -0.11011016 0.1669967 0.10165905 0.04560621
000030 28 70 9e bd ea e0 d0 3c 47 85 22 be 7f 50 9b 3d
       -0.07736236 0.025497872 -0.15871154 0.07583713
000040 39 93 62 be c2 36 7c 3d ad 7b 8e 3d 75 65 37 bd
       -0.22126473 0.06157566 0.06957183 -0.04477449
000050 da d5 11 3e 07 7e 03 3e 5f 85 de 3d b9 4d a0 bd
       0.14241734 0.12841044 0.10865282 -0.078273244
000060 6d e6 5f 3e 63 1c fd 3d d2 d9 86 3e 94 22 00 3e
       0.21865244 0.1235893 0.2633806 0.1251319
000070 56 53 55 3e 30 2a 24 3d 09 85 40 3e 2b d8 99 3d
       0.20832571 0.040079296 0.18800749 0.07511934
000080 3a 49 91 bd 0c f3 b3 3c 98 6e 50 bd 50 63 27 be
       -0.07094045 0.02196648 -0.05088672 -0.16346478
000090 f0 8a 5f 3d 22 0f 05 bd c3 2e 6f 3d 72 63 4b bd
       0.05457586 -0.032485135 0.058394205 -0.049655385
0000a0 c1 59 a9 bc 7b 4c 77 bb 38 56 52 3d f7 7a 6a 3d
       -0.02067268 -0.0037734795 0.051351756 0.057246175
0000b0 31 b0 27 bc 0f 20 ef 3d 50 22 9f 3d 23 5b 22 3e
       -0.010234878 0.116760366 0.077702165 0.15855078
0000c0 4f ff 9d 3e 10 b3 b0 3b ae 49 6c 3e a6 08 b2 3c
       0.30858847 0.0053924397 0.23074982 0.02173264
0000d0 e8 a2 a0 3d 7e e6 4a 3e 7f d6 78 3e 7d a0 a0 3c
       0.07843572 0.19814488 0.24300574 0.019607777
0000e0 c6 3b 70 3b 1c 30 8e 3d f2 5b 9d 3e 5f f0 77 3e
       0.0036656721 0.0694277 0.3073421 0.24212788
0000f0 d6 71 07 be 8c d7 91 3c 5a 51 30 3e 58 f6 63 3e
       -0.13227019 0.017802976 0.17218533 0.22261941
000100 a4 a6 bf 3c 12 84 06 3e e5 90 8e 3b 89 57 c9 3d
       0.02339489 0.13136318 0.004350769 0.09831149
000110 a7 8a 50 3e 4a e1 2f 3e 31 f8 98 3e 40 43 19 3e
       0.20365392 0.17175785 0.29876855 0.1496706
000120 70 f4 2f 3e f7 dc 2e 3e a0 09 5f 3d 24 83 20 bd
       0.1718309 0.17076479 0.05445254 -0.039187565
000130 e5 2f 84 3c 12 db 24 bd 2b 8c 9d bd 6f 48 db bd
       0.01613612 -0.040247984 -0.076927505 -0.10707175
000140 74 36 38 3d 16 dc 0c bd e7 a1 1d 3d 38 16 f9 3d
       0.044973806 -0.034389578 0.03848448 0.12162441
000150 f8 43 da 3d e5 12 1f 3e 56 45 88 3e 35 dd 03 3e
       0.10657495 0.15534551 0.266154 0.12877353
000160 96 1a 1c be 88 a9 fd 3c b2 fa ac 3d 10 c9 17 3e
       -0.15244517 0.030964628 0.08446254 0.14822793
000170 89 cb 1e 3e 54 a1 49 3d c8 47 06 bd e0 48 09 be
       0.1550733 0.04922612 -0.0327833 -0.13406706
000180 8d 96 cb 3c d4 12 9e 3c 34 36 b2 bd 51 63 3d be
       0.024852062 0.019296087 -0.08701745 -0.18494917
000190 2a cc 38 bd ab dc 2f be aa c0 d5 bd eb ee 18 3d
       -0.04511658 -0.17174022 -0.104371384 0.037337225
0001a0 1a 7c 10 bc b0 99 bc bd ab e2 e4 bd c1 a4 68 3c
       -0.008818651 -0.09209001 -0.11176046 0.014199437
0001b0 2e 6d 83 3d bf 70 30 3e f7 14 02 bc dc b7 75 bc
       0.06417309 0.17230509 -0.007939569 -0.014997449
0001c0 4e 44 69 3d 88 4e 00 bb e0 15 46 be e5 fc 6e 3d
       0.056949906 -0.0019578058 -0.19344282 0.058346648
0001d0 81 6b 09 bc 51 db 87 bd 37 2b 26 3d ae 28 92 3b
       -0.008387447 -0.06633628 0.040568557 0.004460416
0001e0 03 af 40 3c 30 1c 81 3d 20 96 84 3c e7 32 63 bc
       0.011760476 0.063042045 0.016184866 -0.0138671165
0001f0 1e db 35 3d e0 6d d7 3d 50 cc ef bd 9c ea 70 be
       0.04439842 0.10519004 -0.117088914 -0.23526996
000200 ca c3 9b bd 83 52 17 3d 42 65 f3 bd c7 60 73 bc
       -0.07605703 0.036943924 -0.11884548 -0.0148546165
000210 7d 54 14 3d 0a bf 85 3d eb 1f a0 3d cf 2e 0e 3e
       0.036213387 0.065305784 0.07818588 0.13885044
000220 26 6b 44 3e 29 36 36 3d ff f3 e0 bb 94 d1 a0 bd
       0.19181499 0.044485245 -0.006865024 -0.07852474
000230 ec 6c 86 3d d2 50 e2 3c 8f ae e5 bd 8c 5d 0e be
       0.06563744 0.027626429 -0.11214935 -0.13902873
000240 f4 e7 0a 3e 1a 4b 81 3c 76 ea 18 3d ea 88 e8 bc
       0.13565046 0.015782882 0.037332974 -0.028385598
000250 a5 4f 51 3d c6 38 84 3c df 0b cc 3d c3 fd 60 3d
       0.051101346 0.016140353 0.09963202 0.054929506
000260 a3 4e d1 3d 7a 64 94 bd 3b 78 6d 3c a1 75 7a bd
       0.10220077 -0.07245727 0.014493997 -0.061147336
000270 56 0e ea bd 9b d3 55 bc cb 74 95 3c f6 9b 15 bc
       -0.114285156 -0.013050939 0.018244168 -0.009131422
000280 de c2 d8 3d 9f 19 28 3e fa 99 f7 bd 26 46 4b be
       0.10584043 0.16416024 -0.120899156 -0.19850978
000290 b3 86 9b 3b cd 51 34 bd af 66 39 bd 21 33 8d bd
       0.004746282 -0.044023324 -0.045263942 -0.06894518
0002a0 34 6b 8e bd b4 10 be bc fa 9e e7 3c 72 00 17 3e
       -0.06954041 -0.023201324 0.028274048 0.14746264
0002b0 11 2f 10 3e fc b1 34 3e 1d e9 79 3e 47 b0 1a 3e
       0.14080454 0.1764602 0.24405332 0.15106307
0002c0 84 f0 4a 3e 81 4c 16 3d c2 e9 c3 3e b0 a5 15 3e
       0.19818312 0.036694054 0.3826428 0.14613986
0002d0 16 a4 90 3e e2 21 93 3e 0b cb 9b 3e fb 40 32 3e
       0.28250188 0.28736788 0.30428347 0.174076
0002e0 5b 7a b5 3d c1 de 5d 3e 6a 5b 93 3d 39 8e 9a bd
       0.08861228 0.21667005 0.0719517 -0.07546658
0002f0 1d b5 bb bc ef d6 44 3e a9 08 dc 3d 3e 95 aa bd
       -0.02291351 0.19222616 0.10743839 -0.08329247
000300 3e 8d 8f 3d c7 a6 33 3e 81 0c c3 bd ec 9d 99 3d
       0.07009362 0.1754409 -0.09523869 0.07500824
000310 a9 30 45 be 8a 0c 03 3e b9 57 63 3d 88 00 49 3e
       -0.19256844 0.12797752 0.05550358 0.19629109
000320 36 67 2c bd fa 7e e5 3d 59 c9 04 be 0c 1b 56 be
       -0.042090617 0.112058595 -0.12967433 -0.20908755
000330 c6 71 31 3c 5e ef 59 bd 3f 4a 30 be 8d e6 68 bd
       0.010830348 -0.053206794 -0.17215823 -0.056860495
000340 06 52 08 3d 5c 19 8e 3c 5a e1 eb bc 44 b5 f5 bd
       0.03328135 0.017346077 -0.02879398 -0.11997464
000350 a6 de 63 3d 05 0c b4 3c 14 d3 a4 3b f0 13 74 bd
       0.055632256 0.021978388 0.0050300453 -0.059589326
000360 89 73 b3 3d 6d 53 0e 3e 0d 51 72 3d 97 d0 6a bd
       0.08762271 0.13899012 0.059159327 -0.057327833
000370 dc 79 99 3d 01 ab e4 bd 30 5d 0a be 76 a0 90 bd
       0.07493946 -0.11165429 -0.1351211 -0.070618555
000380 37 8b 8e 3c 9c 3e f4 bd d6 ba 4d bd 7c 35 9a bc
       0.017400367 -0.11926004 -0.05022701 -0.018824331
000390 dd 56 e9 3d 3b 60 43 3c fe 66 78 ba 4f 7a d2 bb
       0.11393521 0.011924799 -0.0009475796 -0.0064232717
0003a0 a8 bb 80 3d b6 f4 b9 3c 3c 3e 8c 3d ac 73 a1 3d
       0.062857926 0.022699695 0.06847808 0.07883391
0003b0 1d a5 0d 3d 0a e8 34 be 73 b8 19 bd 3b 21 03 bd
       0.034581292 -0.17666641 -0.03752942 -0.032014113
0003c0 7a b0 3a 3c 12 52 15 be bf e6 f0 bd 13 0c b3 bd
       0.011394614 -0.14582089 -0.11762761 -0.08742537
0003d0 b1 24 97 bc 40 56 82 3d 71 97 db bd 2f 22 a3 bc
       -0.018450113 0.06364107 -0.107222445 -0.019913761
0003e0 1c fa 91 bd e9 08 30 bd e1 ec 2a 3d eb eb fe 3d
       -0.07127783 -0.042977247 0.04172981 0.124473415
0003f0 1d 13 9e 3c 8d 2c 1a 3e 00 a7 a9 3d 1c 70 0a 3e
       0.019296223 0.15056057 0.08283806 0.13519329

main.2.bias f4 [32]
000000 0f 16 b8 bd c3 1f b7 3c 3b e1 42 be 62 97 20 3c
       -0.08988582 0.022354012 -0.19031231 0.0098017175
000010 91 25 d5 bd 4c 54 80 bd fb 01 54 be 9e 87 1c bc
       -0.10407556 -0.06266078 -0.2070388 -0.009553818
000020 6d 27 a3 3d 72 f2 8c 3d f1 14 37 3d 61 f3 57 be
       0.07966504 0.0688218 0.044697706 -0.21088935
000030 90 95 39 bd 7b ee ce 3c 63 27 33 3c ce 31 b7 3d
       -0.04530865 0.0252602 0.0109346835 0.08945046
000040 61 a4 15 bd 65 73 88 bd 10 94 42 3e 5f a2 d0 bb
       -0.036533717 -0.06662635 0.19001794 -0.0063670124
000050 19 15 06 3d b0 71 2b bd c6 2a aa bb 71 b5 44 3d
       0.032734964 -0.041856468 -0.0051930873 0.0480246
000060 22 57 d3 bd d4 53 84 3d 3f f6 5c bd d9 21 3c be
       -0.10319354 0.064613014 -0.053945776 -0.18372287
000070 d8 7f 9a 3c 75 3e 9e bc 7d 59 4a bd d5 63 14 bd
       0.018859789 -0.019316891 -0.04940175 -0.03622802

main.3.weight f4 [32]
000000 af fe 3d 3f 63 4c 90 3f 69 fa 9a 3f 61 84 8e 3f
       0.7421674 1.1273311 1.2107669 1.1134149
000010 0f 88 39 3f 95 fd 78 3f c2 13 97 3f ff 75 4a 3f
       0.72473234 0.97261935 1.1802905 0.790863
000020 27 31 51 3f b9 95 67 3f 4e df 80 3f d5 4a 8d 3f
       0.81715626 0.90462834 1.0068147 1.1038462
000030 b3 4f 93 3f d6 ac 5a 3f bb 12 8f 3f cf f4 60 3f
       1.1508697 0.85419977 1.1177591 0.8787355
000040 52 81 5f 3f 6e 96 70 3f 01 ab a7 3f 5f 4b 39 3f
       0.873067 0.9397954 1.3099061 0.7238063
000050 96 cc 4a 3f 08 3a 3c 3f fe 40 62 3f f7 27 72 3f
       0.79218423 0.7352605 0.8838042 0.9459223
000060 82 92 49 3f 7c 43 87 3f 62 d2 5b 3f ce 4e 41 3f
       0.7873918 1.056747 0.85867894 0.7551087
000070 78 3e 95 3f 5e e3 71 3f 89 16 58 3f e2 69 3a 3f
       1.1659689 0.9448756 0.84409386 0.72817814

main.3.bias f4 [32]
000000 1b 77 c7 be eb bc 8c be 1b c4 0d be 88 d6 ca be
       -0.38958058 -0.27487883 -0.1384434 -0.396168
000010 df 9b d3 be 18 31 4a be c0 7f 3d be 0c d3 e9 be
       -0.41329858 -0.1974529 -0.18505764 -0.45668828
000020 73 74 a6 be 09 70 94 be a3 8e 08 be fd 2d 28 be
       -0.3251072 -0.28991726 -0.13335662 -0.16423793
000030 ce 4b 71 be 1c d4 e5 be be ef a1 be db ad 53 be
       -0.23564073 -0.4488839 -0.3162822 -0.2067179
000040 b7 d3 5b be 87 8a c2 bd 73 6c 86 bc 0c a8 b3 be
       -0.21467482 -0.09499078 -0.016409134 -0.35089147
000050 13 a1 eb be 32 e4 e8 be 29 8e c8 be c2 51 17 bf
       -0.46021327 -0.454866 -0.3917096 -0.5910913
000060 5c f5 9a be f2 88 e6 bd ad 64 a3 be 8d 9a 7a be
       -0.3026532 -0.11256589 -0.31912747 -0.24473019
000070 fb 84 2b bd 8d 19 06 be b9 2c c8 be e5 ab df be
       -0.041874867 -0.13095684 -0.3909662 -0.43685833

main.3.running_mean f4 [32]
000000 c4 1b d3 3c a7 65 0c bd d3 c0 cd be f0 35 20 be
       0.025770076 -0.03427663 -0.40186176 -0.15645576
000010 a3 30 a1 3c a7 4b a5 be f9 fa a4 be b8 0f 6a 3e
       0.019676512 -0.3228428 -0.32222727 0.22857559
000020 36 b9 83 3e c2 60 08 3c 16 1c a6 be 2c 76 be be
       0.25727242 0.00832385 -0.32443303 -0.37199533
000030 aa a1 94 be ed 55 46 bd 42 d5 a9 bd f1 b0 25 be
       -0.2902959 -0.04842179 -0.08292629 -0.16180779
000040 dd ba 6a bd bf 25 8f be e4 cf 42 bd 63 29 38 bd
       -0.057307113 -0.27958485 -0.04756154 -0.044961344
000050 84 4b b9 bc d2 ac 09 3b b3 6a c3 3e 7b a1 6a 3e
       -0.022619016 0.002100755 0.38167343 0.22913162
000060 09 65 b0 3b b5 83 db bd 10 d1 b1 be 29 ff c1 be
       0.005383138 -0.107184805 -0.34729815 -0.37889984
000070 94 cb 8c be 7c f1 b3 be 6c f5 ff bc f5 08 c7 3d
       -0.27499068 -0.35145175 -0.031244956 0.09718505

main.3.running_var f4 [32]
000000 44 74 97 3d 21 ff d9 3d 1e f9 3a 3e 0f 68 9f 3d
       0.07395223 0.10644365 0.18259093 0.077835195
000010 fb 00 73 3d 91 09 6c 3d c6 00 83 3d 8a 11 82 3d
       0.059327107 0.05762631 0.06396632 0.063510016
000020 aa e4 31 3d 41 5a 9b 3d fa 84 1f 3d 1a 5c fc 3d
       0.04343096 0.07585574 0.038945176 0.123222545
000030 66 da 04 3e bd 1c 49 3d 87 ca b7 3d ff 40 83 3d
       0.12973937 0.049099673 0.08974176 0.064088814
000040 20 98 9a 3d 04 40 02 3d 56 3e d1 3d de 55 39 3d
       0.07548547 0.03179933 0.10216968 0.045247905
000050 85 9b 4b 3d 72 91 c7 3d fe d4 d0 3d 45 73 89 3d
       0.04970886 0.09744538 0.10196875 0.06711439
000060 49 c9 7e 3d 4e 64 de 3d 35 29 c0 3d 40 39 43 3d
       0.06220368 0.10858975 0.093828596 0.04766202
000070 8d f8 23 3e b4 34 4d 3d 08 84 5f 3d 75 db 80 3d
       0.16012783 0.05009909 0.054569274 0.06291858

main.5.weight f4 [64, 32, 4, 4]
000000 a4 c8 56 be 2d 29 2f be 6a b6 39 be cc 28 f5 bd
       -0.20974976 -0.17105551 -0.18135992 -0.11970672
000010 2a 8e 87 3d c0 f5 13 be b0 a5 d8 bd 84 2d 85 bc
       0.066189125 -0.14449215 -0.105784774 -0.016257055
000020 3c 38 a1 3d 40 b1 a7 3d 39 17 1f 3d ff 5f 4c bd
       0.07872054 0.08188105 0.038840506 -0.049896237
000030 9d e8 7c be 5d 0b 2a be c4 ec 97 bd 7c ff a9 bd
       -0.2469811 -0.16605897 -0.07418206 -0.08300683
000040 a2 bc 1d 3d 6e f5 1d be 71 c6 94 3d c9 74 36 be
       0.038509972 -0.15425655 0.07264412 -0.17817988
000050 db 6c 3f 3d 42 9a 5a be 15 b2 48 be c4 d9 8a be
       0.046734672 -0.21347907 -0.19599183 -0.27119267
000060 c6 a8 55 bd c1 f5 ff bd 50 5f 34 3d 48 f2 8e 3d
       -0.052162908 -0.12498046 0.04403621 0.06979805
000070 0f 50 36 be 2f d8 ae bd 7e 63 c1 3d fd 56 ae bd
       -0.17803977 -0.085373275 0.09442805 -0.085126854
000080 a2 9a f8 3d 2c 3c 2e be 10 f7 75 3c ef fd 57 3e
       0.12138869 -0.17015141 0.015012518 0.21092962
000090 e6 77 7d 3c 36 5b ad bd ca 30 d5 bd 00 7f 99 bc
       0.015470481 -0.08464663 -0.104096964 -0.018737316
0000a0 5c c9 1d 3d 0e 4f 34 bd ba 58 d1 bd af ff d7 3d
       0.03852211 -0.044020705 -0.102220014 0.10546815
0000b0 3c 9f 32 bd 3d 3f d3 bd 05 c4 8f bd c7 fc 1d 3e
       -0.04360889 -0.10314796 -0.0701981 0.15428458
0000c0 e9 13 60 3d 5e bf 7f be e1 f4 db bd 41 2d bd bd
       0.054706488 -0.24975345 -0.10740066 -0.09237147
0000d0 1e 8e 3c be cb e1 73 be 4a e9 64 be ac 75 f2 bc
       -0.18413588 -0.23816602 -0.22354618 -0.029597126
0000e0 40 0e cf 3d 83 ae 5d bd aa 83 65 bd 74 83 fb bb
       0.1011014 -0.054121505 -0.056033768 -0.0076755825
0000f0 0a 3a 57 bc 3f c0 0c bd c5 9f 52 bd fe bd 30 3e
       -0.013136396 -0.034363028 -0.0514219 0.17259976
000100 18 c6 5e be 6e c1 05 be 04 bc ea bd ea 37 6a bd
       -0.21755254 -0.13062069 -0.114616424 -0.05718223
000110 bc d0 32 bd 6f 4d 07 be 18 4f bb 3d 0b 69 c9 bd
       -0.043656096 -0.13213132 0.09145945 -0.098344885
000120 fd 29 c2 bd 0e a7 1c be 70 e9 e9 bc c6 c9 e4 3c
       -0.09480665 -0.15298101 -0.028553694 0.027928244
000130 74 4b ae bd ba fd a2 bd 6d 77 a3 3d 4e 1d 50 bd
       -0.08510485 -0.07958551 0.07981763 -0.050809197
000140 e1 3a 33 3e 89 94 c2 bc 3f 71 38 bb 03 0d 36 bd
       0.1750293 -0.023752468 -0.0028143672 -0.044446003
000150 30 94 58 be d0 4d 80 bd 70 06 13 bd 29 d3 39 bd
       -0.21150279 -0.062648416 -0.03589481 -0.045367394
000160 b6 98 ec 3d 3f 1a 08 bd 46 69 ab bd 25 46 52 ba
       0.11552565 -0.033228155 -0.08369689 -0.00080213166
000170 94 a7 dc bd 93 08 ee 3d 2f dd cf 3b 3d 23 21 bd
       -0.107741505 0.11622729 0.006343506 -0.039340246
000180 5e 1e d6 3d 2e d9 94 bc cb 50 95 bc 65 c4 f0 bd
       0.10455011 -0.018169966 -0.018227002 -0.11756209
000190 09 20 87 bd d2 c3 7f bd 15 1a e1 bd 6a 41 9d 3b
       -0.06597907 -0.06244261 -0.10991303 0.0047990577
0001a0 2f 7c 96 bc 02 86 87 bd 1f b0 44 be 39 9a 94 bd
       -0.018369762 -0.06617357 -0.1920781 -0.07255978
0001b0 04 da b5 3c ff 99 38 3d 21 ca d9 bd 25 72 b4 3a
       0.022198685 0.045068737 -0.10634256 0.0013766928
0001c0 7b 67 9d bd 40 ce 0d be 89 4e 1f be 57 7f 93 3d
       -0.07685753 -0.1384821 -0.15557303 0.072020225
0001d0 81 2d 23 be 52 e8 cb bb bd fa 73 bd 95 85 d0 bd
       -0.15935327 -0.006222763 -0.059565295 -0.10181729
0001e0 dd d4 a3 bc c7 d5 f5 bd ac a7 f3 bd 3a 05 0a be
       -0.019998962 -0.120036654 -0.11897215 -0.13478556
0001f0 15 c7 89 bd 66 a0 59 bd 01 35 22 3d 22 6c 9a bd
       -0.06727425 -0.053131483 0.03960133 -0.07540156
000200 16 cf 4c be ef 1d c7 bc 3b 79 06 be d5 b3 1f be
       -0.20000872 -0.024306266 -0.13132183 -0.15595944
000210 af 70 d6 bd 77 81 09 be 78 3f 82 3c e0 3a 1b be
       -0.104707114 -0.13428293 0.015899405 -0.15159178
000220 14 2d bb bd 2b 6a 95 bd 1b 21 d0 bd e7 f0 cf bd
       -0.09139457 -0.072956406 -0.10162564 -0.1015337
000230 43 c2 24 bd 4f 6a a7 bd 4b 1e 59 3d 8b 7f 04 bd
       -0.040224325 -0.08174574 0.053007405 -0.032348197
000240 77 5c d4 bd 4e ea fd bd 54 cf 42 be 5b d9 1e 3c
       -0.10369199 -0.12398206 -0.19024402 0.009695376
000250 bb 2e 02 be ac 4e 7a 3d 1c 79 57 bd be 51 df bd
       -0.12713139 0.061110184 -0.052605733 -0.10904263
000260 de 1b 1d 3e 11 0e e7 3d 60 e1 0a 3d c2 23 fe 39
       0.15342662 0.1128198 0.03390634 0.00048473297
000270 89 cf 18 3e 60 91 8b 3d c5 f7 7d bc 47 67 32 be
       0.14922918 0.068148375 -0.015500967 -0.1742221
000280 d9 9d 22 3a a3 fa fa 3b 76 e4 32 3d 14 a2 e1 3d
       0.00062033307 0.0076592728 0.04367491 0.11017242
000290 8c 4a ae bd 58 66 ea bc 15 3d cb bc 85 bc 6a 3c
       -0.085103124 -0.028613254 -0.0248094 0.014327173
0002a0 63 cd 8c 3d 4d f3 20 3a 76 48 8b bc b1 9d ed 3d
       0.06875112 0.000613977 -0.017002326 0.11602343
0002b0 94 6e ce 3d 63 b8 9b 3d b6 8f a5 bc 93 44 15 3e
       0.10079685 0.07603528 -0.020210128 0.1457694
0002c0 6b 53 3b 3d 26 2a 24 bc 16 d1 52 bd f3 1e a2 3d
       0.04573385 -0.010019815 -0.05146893 0.07916059
0002d0 81 d2 0c bd a3 26 93 be 6d 08 d0 be bd 71 70 be
       -0.03438044 -0.28740415 -0.40631428 -0.23480888
0002e0 31 d6 1c bd 6f fc 4f bd 28 6c eb bd 8e 2f 38 3d
       -0.038290206 -0.05077785 -0.114952385 0.044967227
0002f0 1a a0 21 bd cf 94 11 be fc e2 6d bd 35 a3 5b 3d
       -0.039459325 -0.14216922 -0.058077797 0.053622443
000300 3b 10 ae 3d 83 42 ae 3c bf 9d a7 bd 65 9a 93 3d
       0.084991895 0.02127195 -0.081843846 0.07207183
000310 bb 6b 26 be ad c3 6a be c1 0f 90 bd 68 87 8d 3d
       -0.16252033 -0.22926207 -0.07034255 0.06910592
000320 4b cb 54 bc 7d 54 89 3d af d5 52 3d 42 72 13 3e
       -0.012987922 0.06705568 0.051473316 0.14399055
000330 11 16 74 be 99 9f 53 bc 7c 9c 82 3d e4 74 60 3e
       -0.23836543 -0.012916469 0.06377503 0.2191959
000340 db 15 ae bc 8f 5d cd bd 4f 97 27 be e7 2f e6 bd
       -0.021250656 -0.100276105 -0.16366313 -0.112396054
000350 b7 3b ac bd de 48 bf bd a8 13 47 3e 3b 59 d2 bd
       -0.08409827 -0.0934007 0.19441092 -0.102709256
000360 d4 78 6f be 45 65 4a 3d 98 65 2a 3d 9b a9 78 3b
       -0.23385936 0.049412984 0.041600794 0.003794289
000370 b7 bb 81 bd 28 9a d5 3d b3 2f 9b bb 3c 11 a0 bc
       -0.06334632 0.104297936 -0.004735911 -0.019539468
000380 9c 95 d6 bc e4 af 21 be 85 4b 0c be d5 c0 9b be
       -0.026194386 -0.15789753 -0.13700683 -0.30420557
000390 e9 0e 82 bc 3d 5b b9 bd 9b 6e 65 be 89 2a e5 bd
       -0.01587625 -0.090506054 -0.22405474 -0.111897536
0003a0 44 ff d6 bd ef ef fc bd 34 91 c7 bd b7 44 3a 3c
       -0.10497907 -0.12350451 -0.09744492 0.011368922
0003b0 a8 d8 39 be 30 fc 08 be 1b 2d 94 3d c9 d2 25 3d
       -0.18149054 -0.13377452 0.07235166 0.040484224
0003c0 71 70 d3 3d 9a b7 03 3e 38 58 97 bd f8 5f fe bc
       0.10324181 0.12863007 -0.07389873 -0.03105162
0003d0 22 05 fd bd aa 82 c7 bd 68 5d d9 bd fe 2e fe bc
       -0.12354495 -0.09741719 -0.10613519 -0.031028267
0003e0 0e 6e b7 3d 37 9a 5f bd 1c 6c 05 3d b1 07 8e 3d
       0.08956538 -0.05459043 0.032573804 0.06935061
0003f0 f7 21 82 bd 2d da d6 3b 7b 58 bb bd 1a 0f 03 bd
       -0.063541345 0.0065567703 -0.09147736 -0.031996824

main.5.bias f4 [64]
000000 55 7b b0 bb 7c d2 38 3c 49 0d 17 3c 34 65 37 bc
       -0.005385796 0.011280652 0.009219476 -0.011193562
000010 5a 73 a0 3d fa 20 a7 bd a8 c4 1a bd 76 7d 03 3d
       0.078345016 -0.08160587 -0.037785202 0.03210207
000020 19 6e 24 bd f6 57 04 bd c7 e3 93 bb 9d ad e3 3c
       -0.04014406 -0.03231045 -0.004513237 0.027792746
000030 3d b0 d4 3c e6 24 79 bd 66 50 89 3d e4 14 2b 3d
       0.025962943 -0.060826205 0.06704788 0.04176797
000040 ee 37 bd 3c c4 1d cc bc 69 cd 1d 3c ab 31 9b bd
       0.023097958 -0.024916537 0.009631493 -0.07577833
000050 ea 23 0e 3d 67 8c cf bb d1 29 f2 3c 5b 27 8c bd
       0.03470222 -0.006333876 0.029560955 -0.06843444
000060 b6 58 a6 bc 8e d7 91 bd c6 a8 d7 3c b5 32 90 3c
       -0.020305973 -0.07121192 0.026325595 0.017602304
000070 85 e9 15 bc 74 74 8c bc 91 4c 17 3d 29 ac 5d 3c
       -0.009149914 -0.017145373 0.036938254 0.013529816
000080 58 f8 0d 3d 47 2d 85 bd 34 8a f5 bc f6 1e d3 bc
       0.034660667 -0.065027766 -0.029973127 -0.0257716
000090 0c fd 59 3a dc d1 73 bd bf e3 7f bc ff bb 34 3d
       0.00083156 -0.05952631 -0.015618264 0.0441246
0000a0 c4 d4 5d 3d 30 02 0e bc 20 49 90 bd 5a b7 b4 bc
       0.054157987 -0.008667514 -0.070451975 -0.022060085
0000b0 58 01 08 3c 06 99 88 bc cd fd 74 bd 33 7a 1a 3c
       0.008301102 -0.01667453 -0.059812356 0.009428549
0000c0 b4 ec be 3c 3d d0 53 bc 2c 5a 83 bd cc 7b 45 bb
       0.023306228 -0.012928066 -0.06413683 -0.0030133603
0000d0 ac 75 fd 3a 68 fe 9d 3d 37 92 af bd 79 1c 24 b9
       0.0019337437 0.0771454 -0.0857281 -0.00015650866
0000e0 de 23 01 ba 1c 9c ef 3c de 0a 67 3c f4 a3 75 bd
       -0.0004926304 0.029249243 0.014101712 -0.05997081
0000f0 9c cf 02 bd 16 cc 87 3d 00 1b 4b 3d 2e 12 04 3c
       -0.031936273 0.06630723 0.049586296 0.008060975

main.6.weight f4 [64]
000000 c9 6e ba 3f 42 2e 89 3f 36 62 8f 3f 4b 77 8d 3f
       1.4565059 1.0717242 1.1201847 1.105203
000010 4b bf a9 3f cd b1 a8 3f d2 5f a6 3f 4c 34 af 3f
       1.3261503 1.317926 1.2997992 1.3687835
000020 43 5a 95 3f 6a 0b 9b 3f 2a 53 8d 3f 69 b0 93 3f
       1.1668171 1.2112858 1.1041005 1.1538211
000030 e6 b1 9d 3f 1f 5b 9c 3f 2d df a4 3f a8 eb ad 3f
       1.2319915 1.2215308 1.2880608 1.3587542
000040 fd b6 a0 3f d5 85 a9 3f d8 eb 99 3f c8 21 96 3f
       1.2555844 1.3243967 1.2025099 1.1729059
000050 97 c8 a0 3f 39 9d 9f 3f 33 42 97 3f 1d 22 a8 3f
       1.2561215 1.2469856 1.1817077 1.313541
000060 1b 2a 96 3f 92 df a5 3f 2b e9 87 3f fc 9c aa 3f
       1.17316 1.2958853 1.0618032 1.3329158
000070 8c 0e a3 3f 21 be 98 3f e7 05 9f 3f 44 c0 a2 3f
       1.2738814 1.1933023 1.2423676 1.2714925
000080 48 01 93 3f ba 0b a7 3f 96 6c 96 3f e7 0c b2 3f
       1.1484766 1.3050454 1.1751888 1.3910187
000090 35 f0 ab 3f fe cc 81 3f 6f 61 94 3f 1a f9 94 3f
       1.343268 1.0140684 1.1592234 1.163852
0000a0 7c 20 a7 3f e4 a1 b0 3f 1f bf b5 3f 88 3e b6 3f
       1.3056788 1.3799405 1.419895 1.4237833
0000b0 03 1d 9a 3f 38 28 ab 3f 11 64 8e 3f 03 ab a8 3f
       1.2040104 1.3371649 1.1124288 1.3177189
0000c0 b2 36 91 3f 59 b0 9c 3f 74 e3 94 3f ca a4 a4 3f
       1.1344817 1.2241317 1.1631913 1.286279
0000d0 6a 31 9d 3f 74 b6 a5 3f 60 d9 a0 3f d4 ec d8 3f
       1.2280705 1.2946305 1.2566338 1.6947274
0000e0 a7 1d b5 3f 6c 91 a5 3f b2 36 a5 3f 2b 0d c1 3f
       1.4149674 1.2935004 1.2907317 1.5082144
0000f0 8f 9f 98 3f d8 35 b7 3f a2 47 a4 3f 23 b7 9a 3f
       1.1923693 1.4313307 1.2834361 1.2087139

main.6.bias f4 [64]
000000 6f 5f 5f 3e 93 07 61 be b5 14 2f be 1f 0c 91 bd
       0.21813749 -0.21975546 -0.17097743 -0.0708239
000010 b8 50 0b be 87 64 d7 bd e3 c9 39 be cd 55 87 3c
       -0.1360501 -0.10517221 -0.1814342 0.016520405
000020 07 91 c6 bd d7 73 04 be 1f 44 ee bd bd b2 70 be
       -0.096956305 -0.12934814 -0.11634087 -0.23505683
000030 bc 95 6f be e7 75 31 be fa 1e 20 bd 11 52 8c be
       -0.23396963 -0.17330132 -0.03909204 -0.27406362
000040 01 4a 2a be a8 8a 84 bd e3 63 87 bd ba 5e 0d be
       -0.16629793 -0.06471759 -0.06610849 -0.13805667
000050 ce 60 53 be f7 c3 0e be e7 c4 0e be 7e c6 69 be
       -0.20642397 -0.13941942 -0.139423 -0.22829625
000060 df bb 43 be 7d 86 61 be e3 d6 ce bd 59 ba 03 bd
       -0.19114636 -0.2202396 -0.1009958 -0.032160137
000070 d9 78 e4 bd 23 0d 3f be 52 45 a6 be 0a 9d c7 bd
       -0.11155862 -0.18657355 -0.32474762 -0.0974675
000080 5e 68 c5 bd bc c8 91 bd be 13 58 be bb 06 0d be
       -0.09639047 -0.07118365 -0.21101281 -0.13772099
000090 98 7b a8 bd 19 2a 82 be d9 25 7a bd 43 85 78 be
       -0.08226699 -0.25422743 -0.06107125 -0.24269585
0000a0 89 3a 54 be 4d ef 4c be 72 64 2d bb ee c6 17 be
       -0.20725454 -0.20013161 -0.0026457575 -0.1482198
0000b0 53 d1 b2 bc a2 25 dc bd 4e 36 72 be d5 fd b8 bd
       -0.02182833 -0.107493654 -0.23653528 -0.090327896
0000c0 e8 3b 41 be 64 fb a6 bd eb 20 ba bd c7 da 25 be
       -0.18870509 -0.08153418 -0.0908831 -0.16196738
0000d0 7e 69 93 be a2 5f 9b 3d 76 e8 1f be 78 5b 4d be
       -0.28791422 0.075866 -0.1561602 -0.20054424
0000e0 8d 55 15 3d 5a 84 55 bd 13 2a 0a be 7c df ab 3d
       0.03645854 -0.052128173 -0.13492613 0.08392236
0000f0 8c a8 ce bd 87 d6 9f bd c9 fd de bd d1 8a 0a be
       -0.100907415 -0.0780459 -0.108882494 -0.13529517

main.6.running_mean f4 [64]
000000 a7 e0 7d c0 24 c3 0f 3e 37 d2 15 bf 03 d1 23 3f
       -3.9668367 0.14039284 -0.5852389 0.639908
000010 bd a9 24 40 3f 04 88 3f b5 a6 91 be c2 77 80 bf
       2.57286 1.0626296 -0.284475 -1.0036547
000020 b4 27 d1 bf c4 ec 1c bf 93 d2 8c 3e 48 d9 e5 3f
       -1.6340241 -0.61298776 0.27504405 1.7956934
000030 3e 1f 59 3f 95 89 bc 3f e4 d7 20 bf a1 ec 99 3f
       0.84813297 1.4729487 -0.6282942 1.2025338
000040 ab 5a 9d 3f 9c ec 42 40 c2 fb c7 bf d6 5c a6 3f
       1.2293295 3.0456915 -1.5623705 1.2997081
000050 2e f8 99 3e c6 82 25 3f f2 34 0e 3f c8 dc 6d 3f
       0.3007216 0.6465267 0.5554954 0.9291501
000060 ad a1 86 3f 62 e5 f7 3e 48 18 47 bf e9 f7 d6 bf
       1.051809 0.48417193 -0.77771425 -1.6794406
000070 be 90 27 3f 7f d4 88 3f da 97 94 3f 8a 81 bc 3f
       0.65455234 1.0689849 1.1608841 1.4727032
000080 ee a6 2c 3f 5f af 8b 3f fb c3 34 3e f8 c6 e6 3f
       0.67442214 1.0912894 0.17652886 1.802947
000090 9a b9 81 3f 9a 82 83 3e ad 0f cf 3e 41 23 41 3f
       1.0134766 0.2568558 0.40441647 0.7544442
0000a0 99 ba be 3e 17 a3 85 3e 93 5c d1 bf 22 2a 60 bd
       0.37251738 0.2610099 -1.6356376 -0.05472768
0000b0 8a dc f7 bd 04 16 c2 3f 0e 6e 40 3d ca 8d 04 40
       -0.12102611 1.5162969 0.046979956 2.071154
0000c0 ac 18 63 3f b8 b9 10 c0 d0 1a 97 3e 35 65 b6 3f
       0.8870952 -2.2613354 0.29512644 1.4249636
0000d0 7d 5e b4 3e 8e 26 49 c0 ca b0 f2 3f e7 4e 67 3f
       0.3522834 -3.1429782 1.8960202 0.9035477
0000e0 cf 45 2e c0 3c 9d 4f 3f 76 e5 85 3f e3 3c 44 c0
       -2.7230108 0.81099296 1.0460651 -3.0662162
0000f0 66 cd db 3f c9 3b f7 3f c3 4e 30 3f e7 a5 94 3f
       1.7172058 1.931512 0.6887018 1.1613129

main.6.running_var f4 [64]
000000 32 b7 2b 40 a0 61 11 40 f8 7a ff 3f d6 5e ca 3f
       2.6830564 2.2715836 1.9959402 1.5810192
000010 1b 38 b8 3f 1d 2d 06 40 4d 38 fb 3f d3 e0 c1 3f
       1.4392122 2.0965035 1.9626557 1.5146736
000020 34 5c 21 40 90 ff 30 40 cf 77 0b 40 05 77 d4 3f
       2.5212526 2.7655983 2.1791875 1.6598822
000030 ca 8d d0 3f e4 14 de 3f 4c 92 ca 3f 94 33 f6 3f
       1.629327 1.7350125 1.5825896 1.923449
000040 89 b3 0a 40 86 c6 b3 3f cb 04 34 40 df 12 0f 40
       2.167208 1.404496 2.8127925 2.2355268
000050 ce ac 06 40 04 36 e2 3f 2c ab b8 3f 03 b3 ee 3f
       2.1042972 1.7672734 1.4427238 1.864838
000060 30 35 dc 3f 85 5a bf 3f de d5 26 40 7b 8d 17 40
       1.7203732 1.4949499 2.6068034 2.3680103
000070 32 83 b6 3f 39 86 73 40 00 fa 32 40 cc 0c 2b 40
       1.4258788 3.8050673 2.7965088 2.672656
000080 87 74 8f 3f e5 35 ea 3f 83 e2 13 40 32 b6 03 40
       1.1207436 1.8297697 2.3107002 2.0579953
000090 04 f3 23 40 7b d3 ff 3f d0 f8 4c 40 68 d8 0d 40
       2.5617075 1.9986414 3.2026863 2.2163334
0000a0 ae 17 03 40 59 e7 10 40 f7 b1 e1 3f 88 a6 13 40
       2.0483203 2.2641203 1.7632436 2.3070393
0000b0 79 b8 25 40 66 e5 e4 3f cf 6e a8 3f 55 3f dc 3f
       2.5893843 1.7882507 1.3158816 1.7206827
0000c0 d3 74 05 40 32 52 14 40 8d c0 e9 3f af f9 02 40
       2.0852554 2.3175168 1.8261887 2.0464895
0000d0 6a 5b c4 3f fc c9 4e 40 ed 98 2d 40 7c ab 44 40
       1.5340397 3.2310781 2.7124588 3.0729666
0000e0 44 e1 35 40 c4 fe ab 3f 80 8c ff 3f 6b 45 4c 40
       2.8418741 1.3437123 1.9964752 3.191737
0000f0 ab e6 50 40 7d cf 00 40 7b b4 04 40 a1 4f f6 3f
       3.2640789 2.012664 2.0735157 1.9243051

main.8.weight f4 [1, 64, 4, 4]
000000 69 e0 89 3e 06 5b 9c 3d 99 86 32 bd fc de c6 3d
       0.26929024 0.07634549 -0.043585394 0.097105
000010 83 19 9b 3e 2f 27 71 be 13 58 b9 be 30 1d 2b 3e
       0.302929 -0.23550104 -0.36200008 0.16710353
000020 79 ed 84 3e 3f ec 94 be 32 37 33 be 4b 4c 1a 3e
       0.25962427 -0.2908649 -0.17501524 0.15068166
000030 51 64 89 3e b3 a4 df be 18 fd 13 bf 7e 94 63 3e
       0.26834348 -0.43680343 -0.57808065 0.22224614
000040 f5 2a 05 be 56 a2 0b 3e 32 40 dc 3c 54 c3 e9 bc
       -0.13004668 0.13636145 0.02688608 -0.028535523
000050 a1 a8 1f 3d c8 f4 1b bd 01 32 3f 3e df 94 d3 bc
       0.038979176 -0.03807524 0.18671419 -0.025827823
000060 88 c3 35 3d 0e 1e 94 3e 10 30 92 be 31 33 24 bd
       0.044375926 0.2892918 -0.28552294 -0.040087882
000070 72 c4 10 3d 3f 4d 4b 3e 37 9e 40 3d 7d a6 3e bd
       0.035343595 0.19853686 0.047025885 -0.046545494
000080 9b 98 5b be 00 22 88 bd 81 fd 33 3d 9f 7c ca bd
       -0.21444933 -0.0664711 0.043942932 -0.09887051
000090 b2 27 8f bc db 4c 8d 3e a3 95 85 bd a9 f7 f1 3d
       -0.017474983 0.275977 -0.065226816 0.118148156
0000a0 40 9b b8 3d ef af 08 3d 92 a7 ad 3d d5 ef 4e 3e
       0.090139866 0.03337091 0.08479227 0.20208676
0000b0 92 09 30 bb 7b 89 de 3d ee 9f 73 3e 34 e7 f3 3d
       -0.0026861173 0.10866066 0.23791477 0.11909333
0000c0 4b da 85 bd d1 4b 85 3c 98 7d d9 3e 89 fe 59 3e
       -0.06535777 0.016271504 0.42478633 0.21288504
0000d0 6c e7 e7 bd 4e 55 b4 3d f5 9c 44 3d c9 a8 f2 3d
       -0.11323437 0.08805333 0.04800125 0.118485995
0000e0 b4 e4 5b bd 51 7c bd 3d 87 06 ce 3d 0a 6d 9a 3d
       -0.053684905 0.09252227 0.10059839 0.07540329
0000f0 f9 92 f7 bd 59 77 0a 3e 8c 20 83 3d 72 28 ef ba
       -0.1208858 0.1352209 0.06402692 -0.0018246307
000100 df 44 aa be c7 22 87 be 28 7e 23 be fb 40 5f be
       -0.3325567 -0.2639372 -0.15966094 -0.21802132
000110 17 2b 24 be 2c 23 66 3e 92 71 73 bd b9 dd 09 be
       -0.16032062 0.22474355 -0.05943448 -0.13463487
000120 eb 74 39 be fd f6 47 bd 7e ec 12 bd 69 35 83 bd
       -0.18111007 -0.04881953 -0.035870068 -0.064066716
000130 2c 1e ba be ee 84 7c be 15 7a 3c be f3 d5 37 be
       -0.36351144 -0.24660084 -0.18405946 -0.17952709
000140 3a 9b 6b be 7d 05 25 be 65 09 7c 3e 23 b8 5c be
       -0.23008433 -0.16115375 0.24612959 -0.21554618
000150 c4 51 7c be b8 3f c6 bd 14 14 41 be db 93 24 bd
       -0.24640566 -0.09680122 -0.18855315 -0.04018007
000160 75 d9 00 be b3 33 e4 b9 be 68 e6 bd de e6 a4 bd
       -0.12582953 -0.00043526068 -0.11250447 -0.08051847
000170 28 6d 83 3d 9b bb 5a bc 2f 20 0c 3f 36 1d b2 be
       0.06417304 -0.013350393 0.5473661 -0.3478791
000180 d7 4f 1e be 6c 09 40 be 35 3c 67 be 70 ee 26 bc
       -0.15460144 -0.18753594 -0.22581561 -0.010188684
000190 c3 0c 55 bd 66 25 37 be 98 d3 98 3e a6 dd 2a bd
       -0.052014124 -0.1788536 0.29848933 -0.041715287
0001a0 fe bc 3c 3e 64 dd 8b be 42 4b ee 3c 39 30 8e bd
       0.1843147 -0.27317345 0.02908862 -0.069427915
0001b0 ba 17 af bc 98 cf d4 3d 96 17 e1 3c 22 10 03 be
       -0.021373618 0.10391158 0.027477067 -0.12799123
0001c0 d7 9c 3d 3e 22 00 82 3e c1 f3 31 3e b6 8c d1 bd
       0.18516861 0.25390726 0.17378141 -0.102319166
0001d0 ae 7a 5e 3e a7 bc fc 3d 9a e3 12 3e 5b 45 74 be
       0.21726486 0.1234067 0.14344636 -0.23854582
0001e0 8a b6 44 3e 2c 23 dc 3d d3 6c f2 bd 33 b2 33 be
       0.19210258 0.10748896 -0.11837163 -0.17548446
0001f0 78 34 6b 3e 1c 20 b5 3e 6f ab 8d 3e 49 b5 e2 3d
       0.22969234 0.3537606 0.27669856 0.11069734
000200 1b f2 2d 3d cc 34 49 3e c2 35 34 3e 6a fc 16 3e
       0.042467218 0.19649047 0.17598632 0.14744726
000210 3c 73 2f 3e a3 9c 27 be 55 e5 8b 3d d7 59 8e bd
       0.17133802 -0.16368346 0.06830851 -0.06950729
000220 1b f5 6d 3e b6 b2 65 3e 79 66 04 3e 91 ea d9 bc
       0.23238032 0.22431454 0.12929715 -0.026601108
000230 c1 33 3a 3d 44 1b 0c 3e 39 71 11 3d 16 a2 cc 3c
       0.045459513 0.13682276 0.03550837 0.024979632
000240 39 f0 89 bd 16 ef 45 bd ec b9 8e 3d 56 4f 09 3c
       -0.06735272 -0.048323713 0.069690555 0.008380732
000250 60 69 6d 3d ff 12 bf 3d 0c 06 5d 3e d2 01 bf 3d
       0.05796182 0.09329795 0.21584338 0.09326519
000260 c7 c5 bc 3e da e1 fb bd ab e8 93 be 5f e8 61 3e
       0.36869642 -0.12298937 -0.2888845 0.22061299
000270 6d f3 1d 3d a9 bc e4 bd 7a f8 04 3e 0a f5 c1 3b
       0.038562227 -0.111687966 0.12985411 0.0059191035
000280 67 68 90 3d 78 df d9 3e 07 fc 40 3d 63 b5 0e be
       0.07051163 0.42553306 0.047115352 -0.13936381
000290 e2 17 a1 3e c5 9c 24 bd d9 dc 3d bd e3 ad 68 be
       0.31463534 -0.04018857 -0.046353195 -0.22722583
0002a0 8a fa 0a 3b af f8 3c 3c 1d b9 02 3e 48 bc ca bd
       0.0021206462 0.0115339 0.12765928 -0.09899193
0002b0 c9 4a 43 be 2f a7 35 3e 54 d3 3e bd 06 89 3c bd
       -0.19071497 0.17739557 -0.046588257 -0.046029113
0002c0 54 10 c8 3d 6a 49 98 3d d2 26 98 3e 4c 96 17 3e
       0.09768739 0.074358776 0.29717118 0.14803427
0002d0 16 16 39 be e2 fa 4b bd e1 7b f9 bc 0f d6 7c 3b
       -0.18074831 -0.049799807 -0.030454578 0.0038579737
0002e0 7d fe 26 be f9 37 87 3d 09 94 d9 3d 96 fb f0 3e
       -0.16308017 0.06602473 0.106239386 0.47066945
0002f0 6f d1 40 be d7 bd 0d be db 54 69 be 8d cc a9 3e
       -0.18829893 -0.1384195 -0.22786276 0.33163872
000300 bc 80 6a be 9e 68 ba 3e 27 29 29 3e c7 fa ff bd
       -0.22900671 0.36407942 0.16519605 -0.12499004
000310 7a 34 2a 3e 5c 83 eb bd 59 48 de 3d 84 94 5c 3e
       0.1662158 -0.11499664 0.10853643 0.21541029
000320 7a 9d 95 3e b6 66 5d bd d4 44 2e 3d 94 58 48 3e
       0.29221708 -0.05405303 0.04254611 0.1956504
000330 30 de 1f be e3 73 d9 bd 3c 59 c9 bd 58 7b 82 be
       -0.15612102 -0.10617807 -0.09831473 -0.2548473
000340 05 b0 5a be fb c7 91 be 5b 76 dd ba 3e 51 06 be
       -0.21356209 -0.28472885 -0.0016896235 -0.13116929
000350 22 c9 28 be 64 c2 05 3e e7 62 8f 3d 72 49 f0 3d
       -0.16482976 0.13062435 0.07001286 0.117327586
000360 19 74 21 be 75 16 f1 bb 50 f3 08 be 00 ef 91 3e
       -0.15766944 -0.0073574134 -0.13374066 0.28502655
000370 d1 8a 21 be 46 2e 35 bd d8 ec 7b 3e 43 f5 0a be
       -0.1577561 -0.044233583 0.24602067 -0.13570122
000380 3b b3 cc bd 0a eb 4a 3d 85 df 08 3e 56 8d a6 3d
       -0.09995123 0.049540557 0.13366516 0.081324264
000390 3c 0e 6a 3e 32 68 24 3e d3 aa a0 3e 1b e4 6a 3e
       0.22856992 0.16055372 0.3138033 0.22938578
0003a0 7d 56 55 3e 2a 2d 47 be 10 7a a9 3c 12 55 2c 3e
       0.20833774 -0.19450822 0.020688087 0.16829327
0003b0 cc 4b 80 3e 9e d4 35 3e 2e 65 92 3d 27 d1 cf 3d
       0.25057828 0.17756888 0.07148205 0.101473145
0003c0 d2 83 2e be a9 06 83 be 20 e3 7f be 77 0c 20 bd
       -0.17042473 -0.2559102 -0.24988985 -0.039074387
0003d0 b7 37 bc bc 62 e7 87 be fe 45 2c 3e 8e 31 89 3d
       -0.022975786 -0.2654372 0.16823575 0.06698905
0003e0 0a 3d 88 3d 43 c7 51 3e 4b 7b 6d be 60 4d bc bd
       0.06652267 0.20486169 -0.23191564 -0.091944456
0003f0 89 ee 1c bd 67 81 20 3e 1a 65 1b be d2 07 18 be
       -0.038313422 0.15674363 -0.15175286 -0.14846733
