saved_model/G_state_dict: n_epoch= 10, z_dim= 25.pt (torch, 277182 bytes, 19 tensors)

main.0.weight f4 [25, 64, 4, 4]
0	0x3b7dfa68	0.003875399
1	0xbdbeb79e	-0.09312366
2	0x3ec48e1b	0.38389668
3	0x3dd81475	0.10550777
4	0x3e10c495	0.1413749
5	0x3e3697ef	0.17831396
6	0x3db9d085	0.09072975
7	0xbd32a5f0	-0.04361528
8	0x3e06390c	0.13107699
9	0x3e1d8eb7	0.15386473
10	0xbe54e908	-0.2079202
11	0xbc9abba3	-0.0188883
12	0x3c1f847d	0.0097361775
13	0xbe37536f	-0.17902921
14	0xbd5498cf	-0.051903542
15	0x3e9c3b4b	0.30513987
16	0x3e83ee74	0.25767863
17	0x3dd25267	0.10269623
18	0x3dc020d9	0.09381265
19	0x3d970fc8	0.07376057
20	0x3e47675a	0.19473019
21	0x3dbd5e44	0.09246495
22	0x3ed2819b	0.41114506
23	0x3ca26ec1	0.019828202
24	0xbdf1f6e0	-0.11814666
25	0xbd2afd1b	-0.041745286
26	0xbde7e56d	-0.11323056
27	0x3c9d81d2	0.019226942
28	0xbe1b3c91	-0.15159823
29	0x3da84561	0.08216358
30	0x3d8a7252	0.06760086
31	0x3b7fc993	0.003903006
32	0x3c6e0ca0	0.014529377
33	0xbcf6f84a	-0.03014769
34	0x3e3b9ef8	0.1832236
35	0x3e54cced	0.20781298
36	0xbd12df21	-0.035857324
37	0xbe4b00c9	-0.19824518
38	0xbb56f0d7	-0.003279736
39	0xbdfb7466	-0.122780606
40	0x3cf5e383	0.030015713
41	0x3e8b266c	0.2717775
42	0xbd067aa1	-0.03283179
43	0x3e9fa058	0.3117702
44	0x3e909459	0.2823818
45	0xbdba541c	-0.09098074
46	0x3e12a34c	0.14320105
47	0x3f00d677	0.5032725
48	0x3c427f70	0.011871204
49	0xbbc0e26a	-0.0058863657
50	0xbe1b1d9c	-0.15148014
51	0xbc8eb3e4	-0.017419763
52	0x3e0edd86	0.13951692
53	0x3e422701	0.18960191
54	0xbe5a76d3	-0.2133439
55	0xbe633a0b	-0.2219011
56	0x3dbd5f29	0.09246666
57	0xbe505784	-0.20345885
58	0x3e1f3ed3	0.1555131
59	0xbc9c7736	-0.019099813
60	0x3d76f255	0.0602897
61	0xbe0e6dea	-0.13909116
62	0xbddbacfa	-0.10726352
63	0xb98000ba	-0.00024414604
64	0xbe15bfc5	-0.14623936
65	0x3d64ffc3	0.055907976
66	0xbdcab938	-0.09898609
67	0xbdd796ed	-0.10526834
68	0xbd5dcb90	-0.05414921
69	0x3dd4c3e5	0.103889264
70	0xbe6a1edd	-0.22863336
71	0xbeaff7d0	-0.34368753
72	0xbe05b743	-0.1305819
73	0xbdb374b5	-0.087624945
74	0x3e63598b	0.22202127
75	0xbd7de651	-0.061987225
76	0xbeb6b319	-0.35683516
77	0x3e078ba4	0.13236862
78	0x3e6558b8	0.22397125
79	0x3e024d40	0.12724781
80	0x3c508919	0.012727999
81	0x3c7eee76	0.015559783
82	0x3e08bad5	0.13352521
83	0x3dfe1131	0.12405623
84	0xbe61c58c	-0.22048014
85	0x3e3f579d	0.18685766
86	0xbdcfc176	-0.101443216
87	0x3df24d41	0.11831141
88	0xbc9d2097	-0.01918058
89	0x3e09614b	0.1341602
90	0x3e0ce477	0.13759027
91	0x3e82ec6c	0.25571
92	0x3de66724	0.11250141
93	0x3e8108fb	0.25202164
94	0xbe2b61bb	-0.167365
95	0x3df34864	0.11879042
96	0x3e1afd66	0.15135726
97	0xbe9c36dd	-0.30510607
98	0xbde770c0	-0.11300802
99	0x3d13aad0	0.03605157
100	0x3dd7c702	0.105360046
101	0x3d1ba25c	0.037996635
102	0x3d38b9ad	0.04509895
103	0xbe46f8fb	-0.19430916
104	0x3e304b11	0.17216136
105	0x3d9c2910	0.076250196
106	0x3e84f3c1	0.2596722
107	0xbd804095	-0.06262318
108	0x3c631f34	0.01386242
109	0xbe8e30cc	-0.27771604
110	0x3e736f86	0.23773012
111	0x396b8517	0.00022460926
112	0x3dce5a9a	0.100758746
113	0x3e0b873a	0.13625804
114	0xbd83538d	-0.064124204
115	0x3ce7a86b	0.02827855
116	0xbc240aaa	-0.010012308
117	0xbe13b686	-0.14425096
118	0xbc1d9c84	-0.009619836
119	0xbe861ea2	-0.26195246
120	0xbd13b47b	-0.03606079
121	0xbd0d206c	-0.034454748
122	0xbd9d61f6	-0.076847
123	0xbe91b866	-0.28460997
124	0xbcbd1cde	-0.023085054
125	0x3e139b32	0.14414671
126	0xbea31ebc	-0.31859386
127	0xbe1d1acd	-0.15342255
128	0x3b9c8bb0	0.0047773942
129	0x3e2c690f	0.16836952
130	0xbd8ec672	-0.06971444
131	0x3e4acf6a	0.19805685
132	0xbcb14e07	-0.021643652
133	0xbd9ebd75	-0.0775098
134	0x3deeb199	0.11654968
135	0x3d8a2087	0.06744485
136	0x3ba7b02a	0.005117436
137	0xbe63633d	-0.22205825
138	0xbdf52de3	-0.11971643
139	0x3e0cb5bc	0.13741201
140	0x3cc625d8	0.024187967
141	0x3eca56cd	0.3951935
142	0xbe0076ed	-0.12545367
143	0xbe1efc62	-0.15525964
144	0xbd738bd9	-0.05945954
145	0x3d5b8ea0	0.053602815
146	0x3d9b238b	0.07575139
147	0x3cb0d02c	0.02158364
148	0xbe8ab218	-0.27089
149	0x3e07970a	0.1324121
150	0x3d265b91	0.04061467
151	0xbe132705	-0.14370354
152	0x3d573358	0.0525392
153	0x3d9adb36	0.075613424
154	0x3dcb74be	0.09934376
155	0x3c35f4b2	0.011105703
156	0xbeaf4ca7	-0.3423817
157	0xbd3ba2af	-0.045809444
158	0x3ecc913a	0.3995455
159	0xbdb096ba	-0.08622499
160	0x3c830810	0.015995055
161	0xbedd19ba	-0.4318369
162	0x3d9aed98	0.07564849
163	0x3d262c24	0.04056944
164	0xbdc03eed	-0.09387002
165	0xbd435e6b	-0.047697466
166	0xbd57fd3d	-0.05273174
167	0x3dfa3d77	0.12218755
168	0xbd95c7af	-0.07313477
169	0xbc9195b6	-0.017771583
170	0x3d459d28	0.04824558
171	0x3a94037b	0.0011292541
172	0xbd724d9e	-0.059156053
173	0xbd6198b3	-0.055077266
174	0x3d5b1ad2	0.053492375
175	0xbe158271	-0.1460054
176	0xbe217451	-0.15767027
177	0xbe1013b7	-0.1407002
178	0xbe1f5bf6	-0.15562424
179	0xbee4ffc9	-0.447264
180	0xbe9d89aa	-0.30769092
181	0x3d620048	0.05517605
182	0xbd432069	-0.04763833
183	0xbd2aabe8	-0.04166785
184	0x3d86dc12	0.06584944
185	0x3e38726f	0.18012403
186	0xbe17fec4	-0.14843279
187	0x3ea392ae	0.31947845
188	0x3d81044e	0.06299649
189	0xbd5a1f03	-0.05325223
190	0xbe66deb3	-0.2254589
191	0x3e40d671	0.18831803
192	0x3ccf0f14	0.025275744
193	0xbdb34343	-0.087530635
194	0x3d263fb8	0.04058811
195	0xbd3f41d1	-0.046693627
196	0xbe4f18ff	-0.20224379
197	0xbeacb55b	-0.33732113
198	0x3ecb927d	0.397602
199	0xbda663a4	-0.08124474
200	0x3da05da8	0.078303635
201	0xbde81524	-0.11332157
202	0x3d15139a	0.036395647
203	0xbd7d612c	-0.06186025
204	0x3d0454f3	0.032307576
205	0xbdaff800	-0.08592224
206	0xbd4c101e	-0.049820058
207	0xbcdb27fc	-0.026752464
208	0x3bc929c2	0.006139011
209	0xbd07bde5	-0.033140082
210	0xbe077e52	-0.13231781
211	0xbd1e7140	-0.038682222
212	0xbe5cb715	-0.21554215
213	0xbedf4e97	-0.43614647
214	0xbedbbba8	-0.42916608
215	0xbd8e308d	-0.06942854
216	0xbd61889d	-0.055061925
217	0xbb51afb0	-0.0031995587
218	0x3d041623	0.032247674
219	0x3e32b4fc	0.17451853
220	0xbe386ed2	-0.18011025
221	0xbe102c9a	-0.14079514
222	0x3acde176	0.0015707451
223	0xbb58882e	-0.0033040154
224	0xbdbf98a1	-0.093552835
225	0x3e4bc35a	0.1989874
226	0x3e025635	0.12728198
227	0x3e7f9435	0.2495888
228	0xbe2f7dc9	-0.17137827
229	0xbcfebf0a	-0.031096954
230	0x3e454cf3	0.19267635
231	0xbcf91786	-0.030406725
232	0xbdd384f8	-0.10328096
233	0xbde731f4	-0.11288825
234	0xbe9b3759	-0.30315664
235	0x3de42cd1	0.111413606
236	0xbd995386	-0.07486634
237	0x3e7bb3d5	0.24580319
238	0xbe16ac96	-0.14714274
239	0x3c95f615	0.018305818
240	0xbdf3e7e9	-0.11909468
241	0xbe640649	-0.22268023
242	0x3df65931	0.12028731
243	0x3da34c00	0.0797348
244	0xbe23fe15	-0.16014893
245	0xbdd85d3a	-0.105646566
246	0x3e88f593	0.26749858
247	0xbe345ecf	-0.17614292
248	0xbddcbd71	-0.107783206
249	0x3e10ae9d	0.1412911
250	0xbda44391	-0.080207
251	0xbda97398	-0.08274001
252	0x3e3650f6	0.17804322
253	0x3e1a178c	0.15048045
254	0xbd6103c1	-0.05493522
255	0x3e5b628e	0.21424314

main.0.bias f4 [64]
0	0x3db8f8d4	0.09031835
1	0xbdd25ee1	-0.10272003
2	0xbe64891e	-0.22317931
3	0x3c0a752b	0.008450787
4	0x3e57a1e9	0.21057858
5	0x3da7a077	0.08184903
6	0x3e862a61	0.26204208
7	0xbd5e1f33	-0.054228973
8	0xbe0f41fc	-0.13990015
9	0xbe168263	-0.14698176
10	0xbe4555a6	-0.19270954
11	0x3c66c2cf	0.014084532
12	0x3da888d7	0.08229225
13	0x3d953d34	0.07287064
14	0x3c6cfdc6	0.014464801
15	0xbe47b9d8	-0.19504488
16	0x3dd9e6a0	0.10639691
17	0xbe100c48	-0.14067185
18	0xbe01ae45	-0.12664135
19	0x3d92eb9c	0.07173845
20	0xbe27d5a4	-0.16390091
21	0x3e71dbb9	0.23618974
22	0x3e315bd8	0.17320192
23	0xba6ca79b	-0.00090276607
24	0x3b41f530	0.0029595606
25	0x3d798a19	0.060922716
26	0x3c9990ca	0.018745799
27	0x3e3b63df	0.18299817
28	0x3e281bc7	0.16416846
29	0x3d7f458f	0.062322196
30	0xbce848c3	-0.028355008
31	0xbe2889ad	-0.16458769
32	0xbc16c15f	-0.009201377
33	0x3d895f12	0.06707586
34	0xbd58715a	-0.052842475
35	0x3e1c048b	0.15236108
36	0xbdae0686	-0.08497338
37	0xbe20f514	-0.1571849
38	0xbc85a560	-0.016314209
39	0xbd344da9	-0.044019375
40	0x3e4e3508	0.20137417
41	0xbe2c57c6	-0.16830358
42	0x3d8df041	0.069305904
43	0xbe4421c7	-0.1915351
44	0x3d6732f7	0.05644509
45	0xbce24aee	-0.02762362
46	0x3e19d0ea	0.150211
47	0xbe4505db	-0.19240515
48	0x3e07666d	0.13222666
49	0xbdbbc2d5	-0.09168021
50	0x3cda3a62	0.026639167
51	0xbea9c16f	-0.3315539
52	0x3af9ccbc	0.0019058208
53	0xbdabb143	-0.08383419
54	0xbd189251	-0.037248913
55	0x3e12f915	0.1435283
56	0xbe9880f8	-0.29785895
57	0x3d0943e3	0.033512007
58	0xbc4286db	-0.011872972
59	0x3d25d872	0.04048962
60	0x3e5429e8	0.20719111
61	0xbe581825	-0.2110296
62	0x3d00fb77	0.031489816
63	0x3d0caca8	0.034344345

main.1.weight f4 [64]
0	0x3f513cf9	0.8173366
1	0x3f6d03df	0.9258403
2	0x3f810167	1.0078553
3	0x3f8b4ff8	1.088378
4	0x3f631d6e	0.8871678
5	0x3fab8496	1.3399837
6	0x3f83a01d	1.0283238
7	0x3f114877	0.567512
8	0x3f98fdc8	1.1952448
9	0x3f74e848	0.95666933
10	0x3f31c8d2	0.6944705
11	0x3f6e755d	0.9314783
12	0x3ee826da	0.4534214
13	0x3f362389	0.7114797
14	0x3f84960a	1.0358288
15	0x3f398b95	0.7247861
16	0x3f4f043c	0.80865836
17	0x3ef65d6a	0.48118144
18	0x3f436d8b	0.76339024
19	0x3fa445c3	1.283379
20	0x3f95a8b1	1.1692106
21	0x3f6e45e5	0.930754
22	0x3f994467	1.1974
23	0x3f42a5be	0.7603415
24	0x3f22eead	0.6364544
25	0x3fab21ab	1.336965
26	0x3f39e86b	0.72620267
27	0x3f4b2d81	0.7936631
28	0x3f55b23e	0.834751
29	0x3f42b1f2	0.76052773
30	0x3f97b962	1.1853449
31	0x3f88c7b1	1.0685941
32	0x3f1f561b	0.6224076
33	0x3f464703	0.77452105
34	0x3f47d7fe	0.7806395
35	0x3f891338	1.070899
36	0x3f715ce3	0.9428236
37	0x3f5912d9	0.84794384
38	0x3f7680bb	0.9629018
39	0x3f6d3ef2	0.9267417
40	0x3f6dc968	0.92885447
41	0x3efa20c2	0.48853117
42	0x3f5e056a	0.8672701
43	0x3f86dec0	1.0536728
44	0x3f7ea9ed	0.99478036
45	0x3f3b00e6	0.73048246
46	0x3f6242f3	0.88383406
47	0x3f4a4d53	0.7902424
48	0x3f592430	0.8482084
49	0x3f728be6	0.9474472
50	0x3f0f086b	0.5587222
51	0x3f7ab8ca	0.97938216
52	0x3f6401c8	0.8906522
53	0x3f55ffa3	0.83593196
54	0x3f9ce767	1.2258118
55	0x3f850eb1	1.0395108
56	0x3f8e8486	1.1134193
57	0x3f802d62	1.001385
58	0x3f564c3c	0.83710074
59	0x3f38e9b9	0.7223163
60	0x3f847e43	1.0351032
61	0x3f9de39d	1.2335087
62	0x3f183b10	0.5946512
63	0x3f438272	0.7637092

main.1.bias f4 [64]
0	0xbf1fb921	-0.6239186
1	0xbead63db	-0.33865246
2	0xbefaf295	-0.490132
3	0xbf56cb16	-0.83903635
4	0xbe2ea535	-0.17055209
5	0xbf64bc8f	-0.8935022
6	0xbe3b659e	-0.18300483
7	0xbe7ed9ef	-0.24887823
8	0xbf1e30fa	-0.6179348
9	0xbf0a7a4f	-0.5409288
10	0xbea8ce86	-0.32970065
11	0xbe9b715e	-0.3035993
12	0xbe5f7fd3	-0.21826105
13	0xbf15cad9	-0.58512646
14	0xbef907ef	-0.48638865
15	0xbef52a15	-0.4788367
16	0xbec9cf68	-0.3941605
17	0xbdc8d04f	-0.09805357
18	0xbed97369	-0.42470863
19	0xbf0660fc	-0.52491736
20	0xbed18151	-0.40918973
21	0xbf3b1dd0	-0.73092365
22	0xbf584f6f	-0.84496206
23	0xbe81b17f	-0.2533073
24	0xbe83007d	-0.2558631
25	0xbeba5ef9	-0.36400583
26	0xbef319f9	-0.47480753
27	0xbe975167	-0.29554293
28	0xbf06c90a	-0.5265051
29	0xbe6865e8	-0.22695124
30	0xbe79de0a	-0.24401107
31	0xbf11f75c	-0.57018065
32	0xbf0a5b92	-0.54045975
33	0xbf172be4	-0.59051347
34	0xbf12e0de	-0.5737437
35	0xbf263000	-0.6491699
36	0xbed7f7e5	-0.42181316
37	0xbf39eb7a	-0.72624934
38	0xbf419d77	-0.756309
39	0xbef90db3	-0.48643264
40	0xbf0959c6	-0.5365261
41	0xbe50217f	-0.20325278
42	0xbef43b3c	-0.47701442
43	0xbf02f0eb	-0.5114886
44	0xbf45958c	-0.77181315
45	0xbea41edc	-0.32054794
46	0xbf362db3	-0.7116348
47	0xbf56d2d5	-0.83915454
48	0xbf08d515	-0.5345014
49	0xbef6810b	-0.48145327
50	0xbe97fbc3	-0.29684266
51	0xbf5ed281	-0.87039953
52	0xbf39850d	-0.72468644
53	0xbee1eacb	-0.44124445
54	0xbf193e56	-0.5986074
55	0xbe9e92b6	-0.30971307
56	0xbea25706	-0.3170702
57	0xbef95170	-0.48694944
58	0xbf217973	-0.6307594
59	0xbf0c4a2b	-0.5480067
60	0xbf23c149	-0.63966805
61	0xbf168e88	-0.58811235
62	0xbe58d0d1	-0.21173407
63	0xbeb32f7b	-0.34997162

main.1.running_mean f4 [64]
0	0x3dc99b15	0.09844033
1	0xbdcd3ca5	-0.10021333
2	0xbe58fa73	-0.21189289
3	0x3c3603f0	0.011109337
4	0x3e56713a	0.2094163
5	0x3da387a3	0.07984855
6	0x3e87bd49	0.265116
7	0xbd523663	-0.0513214
8	0xbe155bdd	-0.14585824
9	0xbe0f51dd	-0.13996072
10	0xbe406d93	-0.18791799
11	0x3c5f8454	0.013642389
12	0x3dabe067	0.08392411
13	0x3dab0bfc	0.08351895
14	0x3ba02aab	0.004887899
15	0xbe4de9aa	-0.20108667
16	0x3ddf5374	0.10904589
17	0xbe03e416	-0.12879977
18	0xbe03ef7c	-0.12884325
19	0x3da5df7e	0.080992684
20	0xbe25f2fd	-0.16205974
21	0x3e640d2d	0.22270651
22	0x3e20b36b	0.15693443
23	0x3bca9a4c	0.0061829444
24	0x3c8deffe	0.017326351
25	0x3d692def	0.05692857
26	0x3cc2cb13	0.023778474
27	0x3e37d789	0.17953314
28	0x3e24e6ce	0.1610367
29	0x3d8d337a	0.06894584
30	0xbceece45	-0.029151091
31	0xbe1b4ac0	-0.15165234
32	0xb8b8bb5c	-8.808702e-05
33	0x3d82bab8	0.0638327
34	0xbd241278	-0.040056676
35	0x3e141cca	0.14464107
36	0xbdb19579	-0.08671088
37	0xbe15de6b	-0.14635627
38	0xbcb71d3f	-0.022352813
39	0xbd18c2ce	-0.037295155
40	0x3e546d52	0.20744827
41	0xbe218012	-0.15771511
42	0x3d7b8e19	0.06141481
43	0xbe52da34	-0.2059105
44	0x3d1f6317	0.03891286
45	0xbce2a570	-0.027666777
46	0x3e23e4f9	0.16005315
47	0xbe4a624e	-0.19764063
48	0x3e06eb2e	0.13175651
49	0xbd84f8e7	-0.06492787
50	0x3d1e63d3	0.03866942
51	0xbeac4bda	-0.3365162
52	0x3bf66da8	0.0075203963
53	0xbd7d1633	-0.06178875
54	0xbd226d3a	-0.039654948
55	0x3e092e3e	0.13396546
56	0xbe97a1e3	-0.29615697
57	0x3d3f6dfa	0.04673574
58	0xbbcc1219	-0.0062277433
59	0x3d17f550	0.037099183
60	0x3e39daa1	0.18149807
61	0xbe697861	-0.22799827
62	0x3d199ff7	0.03750607
63	0x3d1b679b	0.037940603

main.1.running_var f4 [64]
0	0x3ef7b3d5	0.48379388
1	0x3ef762c9	0.48317555
2	0x3f1e192f	0.6175718
3	0x3f0389b3	0.5138199
4	0x3f1b503e	0.60669315
5	0x3f25bad8	0.64738226
6	0x3f21da3f	0.6322364
7	0x3f06c575	0.52645046
8	0x3f0be878	0.54651594
9	0x3f006819	0.5015884
10	0x3f084d1d	0.53242666
11	0x3f1a66a4	0.6031287
12	0x3eb2f4a3	0.34952268
13	0x3ee39800	0.44451904
14	0x3f087477	0.5330271
15	0x3eefa2b3	0.46803817
16	0x3ef7ae74	0.48375285
17	0x3f10e611	0.56601053
18	0x3effa0ec	0.4992746
19	0x3f2f2c1b	0.68426675
20	0x3f13ab9c	0.5768373
21	0x3f0e2798	0.55529165
22	0x3f0a17a4	0.5394232
23	0x3ee64fb3	0.4498268
24	0x3f043f26	0.51658857
25	0x3f1c3963	0.61025065
26	0x3eee8e86	0.46593112
27	0x3f431eb5	0.7621873
28	0x3ed43afd	0.41451254
29	0x3f3b345e	0.7312678
30	0x3f1cb16a	0.6120821
31	0x3f2b1e8a	0.66843474
32	0x3f08bf63	0.5341703
33	0x3ee7dc07	0.45285055
34	0x3efa7b52	0.4892221
35	0x3f0cef19	0.55052334
36	0x3f227cb0	0.6347151
37	0x3ecd11b6	0.40052575
38	0x3f1545ce	0.5830964
39	0x3f185e0c	0.59518504
40	0x3f218190	0.6308832
41	0x3edeae2c	0.43492258
42	0x3f0a0f70	0.53929806
43	0x3f345785	0.70446044
44	0x3f1d8dfe	0.6154479
45	0x3f05efff	0.5231933
46	0x3efd0943	0.4942113
47	0x3ed8e1ae	0.4235968
48	0x3f0474a7	0.517405
49	0x3f20b3c0	0.62774277
50	0x3edce7d4	0.4314562
51	0x3f1014a6	0.56281507
52	0x3f07d710	0.53062534
53	0x3f0064c2	0.50153744
54	0x3f3e5000	0.7434082
55	0x3f24ad10	0.6432657
56	0x3f269f05	0.65086395
57	0x3f2156a4	0.6302283
58	0x3f039c09	0.51409966
59	0x3ef3c91c	0.47614372
60	0x3f32ec7d	0.698921
61	0x3f25a38b	0.6470267
62	0x3f020784	0.5079272
63	0x3f0c97a8	0.5491891

main.3.weight f4 [64, 32, 4, 4]
0	0xbe12a3c2	-0.14320281
1	0x3d4dfa75	0.050287683
2	0x3d959206	0.073032424
3	0x3dbb90a3	0.09158447
4	0x3d94ba2f	0.07262074
5	0xbd1de506	-0.038548492
6	0x3dd7da8b	0.10539731
7	0x3cbe908e	0.023262288
8	0x3cd4e5c1	0.025988461
9	0xbe8f8bfe	-0.28036493
10	0x3dd72f9c	0.10507128
11	0xbde7c844	-0.113174945
12	0xbe2d7dfd	-0.16942592
13	0xbd543ea2	-0.051817544
14	0x3d6f240b	0.058383983
15	0x3e086e23	0.13323264
16	0x3e26d205	0.16291054
17	0xbc3675f1	-0.011136518
18	0x3db5471b	0.08851453
19	0xbd804b7f	-0.062644
20	0xbd2fb076	-0.042892896
21	0xbe458446	-0.1928874
22	0xbebb2dc4	-0.36558354
23	0xbd6d5b52	-0.057948418
24	0xba5cdb50	-0.0008425014
25	0xbcd598fa	-0.026073921
26	0xbd8b5670	-0.06803596
27	0xbeab55cd	-0.33463898
28	0xbdfe55df	-0.12418722
29	0xbe3b5db3	-0.18297462
30	0x3d9fbbb4	0.077994734
31	0x3dd81df6	0.105525896
32	0x3d78d13a	0.06074641
33	0xbd95dbb6	-0.07317297
34	0x3c124286	0.008926993
35	0x3b9afffe	0.0047302237
36	0x3e34cd8b	0.17656533
37	0x3e08e219	0.133675
38	0x3cf6093a	0.030033696
39	0x3dfa3b6f	0.12218367
40	0x3e31ca01	0.17362215
41	0xbd329e33	-0.0436079
42	0x3e4c2de5	0.19939382
43	0xbca9c0d0	-0.020721823
44	0xbe5a5ed4	-0.21325237
45	0xbda3591e	-0.07975982
46	0x3eb6acf7	0.35678837
47	0xbddcf3ab	-0.107886635
48	0xbcf368b5	-0.029713014
49	0xbb8d85fb	-0.00431895
50	0xbe4c99bb	-0.19980519
51	0x3dc0009d	0.09375117
52	0x3e48760d	0.19576283
53	0xbd1e28e7	-0.038613226
54	0x3e21b90d	0.15793248
55	0x3c8cc464	0.01718349
56	0xbe800cd8	-0.250098
57	0xbf0bd419	-0.5462051
58	0xbd210452	-0.03931076
59	0x3d4801b3	0.048829746
60	0xbdf280d5	-0.11840979
61	0xbee74266	-0.45167845
62	0xbe098894	-0.13431007
63	0xbe3f956d	-0.18709345
64	0x3d951f8a	0.07281406
65	0x3ba73e1d	0.00510384
66	0x3d2594bd	0.04042505
67	0xbd500666	-0.050787352
68	0xbdeb926d	-0.11502538
69	0x3d2162df	0.03940093
70	0xbe36671c	-0.1781277
71	0x3e768996	0.24075922
72	0x3d9c545b	0.07633277
73	0xbdbab6fd	-0.091169335
74	0x3e3953ba	0.18098345
75	0xbdc3efb2	-0.09567203
76	0x3e7f0138	0.24902809
77	0x3e2d8016	0.16943392
78	0xbe28a31b	-0.1646847
79	0xbea75b3b	-0.3268679
80	0x3e3b3b54	0.1828435
81	0xbe9cd0e0	-0.3062811
82	0x3d28767a	0.041128613
83	0xbdabdff8	-0.08392328
84	0x3ec54776	0.38531083
85	0x3dd8c0da	0.105836585
86	0x3d111883	0.035423767
87	0x3e199cfb	0.1500129
88	0x3e234666	0.15944824
89	0x3e5f91eb	0.21833007
90	0xbda9d1c6	-0.08291964
91	0xbd49c1ab	-0.04925696
92	0xbc6c8a9b	-0.014437343
93	0xbe84e816	-0.25958318
94	0xbe6d09cf	-0.23148273
95	0xbe29dca5	-0.16588075
96	0xbe21bcfa	-0.15794745
97	0x3c876298	0.016526505
98	0x3d1fbeba	0.03900025
99	0xbc851581	-0.016245605
100	0xbcee355e	-0.029078182
101	0x3dda6b97	0.106650524
102	0xbea25ef9	-0.31713083
103	0xbeb37bb7	-0.35055324
104	0xbe5e228f	-0.2169287
105	0xbdee29e8	-0.11629087
106	0x3dbf3882	0.0933695
107	0x3db5db15	0.08879677
108	0x3e2a436c	0.16627282
109	0x3e02de85	0.12780197
110	0xbe6be2c6	-0.23035726
111	0xbe988b2b	-0.29793677
112	0xbd848751	-0.06471122
113	0x3c20521c	0.009785201
114	0x3df2a2d2	0.11847462
115	0xbc00db71	-0.007864819
116	0xbe339d30	-0.17540431
117	0x3e0132df	0.12617062
118	0xbd6177a5	-0.055045743
119	0x3d95825c	0.07300255
120	0xbe0fd4a8	-0.14045966
121	0x3e8c4da0	0.27402973
122	0xbd2d8861	-0.04236639
123	0x3c84e877	0.01622413
124	0x3d44d6f5	0.04805656
125	0xbdc9955f	-0.098429434
126	0xbe8a1006	-0.2696535
127	0xbe6ba6d6	-0.23012862
128	0xbc6c6924	-0.014429364
129	0xbe328d84	-0.17436796
130	0xbca10bc2	-0.019658927
131	0x3dca77d0	0.09886134
132	0xbe92da86	-0.28682345
133	0xbdecbf10	-0.1155988
134	0x3dd65e2f	0.10467183
135	0xbe548861	-0.2075515
136	0xbd9f71e7	-0.07785397
137	0xbda5be7b	-0.08092972
138	0xbbb3efb9	-0.0054912237
139	0x3c9d0074	0.019165255
140	0xbd53dfa5	-0.051726956
141	0xbd8da5f5	-0.069164194
142	0xbea38441	-0.3193684
143	0xbe365fb6	-0.17809948
144	0xbe697e83	-0.22802167
145	0xbdd97695	-0.10618321
146	0x3dbe99d0	0.09306681
147	0xbcc949af	-0.024571268
148	0x3e6c3e0c	0.23070544
149	0xbd265357	-0.040606823
150	0xbe8a3e58	-0.2700069
151	0xbbf0183e	-0.0073271086
152	0xbe95eb45	-0.2928106
153	0x3da332df	0.07968687
154	0x3ed2f377	0.41201374
155	0xbdcaafd7	-0.0989682
156	0x3c857b04	0.01629401
157	0x3e4ce8ac	0.20010632
158	0xbdcf5232	-0.101230994
159	0xbe85de89	-0.26146343
160	0x3def045d	0.11670754
161	0x3c58c583	0.013230684
162	0xbb3d45e4	-0.002888077
163	0xbb27c35e	-0.0025598626
164	0x3d084515	0.033269007
165	0xbc92a741	-0.017902019
166	0x3da70228	0.08154708
167	0x3df7707f	0.12082004
168	0xbd928898	-0.071549594
169	0x3ea1901d	0.31555262
170	0x3e4cbb10	0.19993234
171	0xbe15776c	-0.14596337
172	0xbf04224d	-0.5161484
173	0xbdf598aa	-0.11992009
174	0xbdfdb13c	-0.123873204
175	0x3cafea33	0.02147398
176	0x3cad9fd5	0.021194378
177	0xbe12cba0	-0.1433549
178	0x3ccf2bf7	0.025289519
179	0x3dffcefd	0.12490652
180	0xbcbd2efa	-0.02309369
181	0x3e086377	0.13319193
182	0x3dc01982	0.09379865
183	0xbcdea235	-0.027176956
184	0x3a049be0	0.00050586276
185	0xbd6b63ef	-0.05746835
186	0xbdc5eb02	-0.09663965
187	0xbd93a4a4	-0.07209137
188	0xbb2395e7	-0.0024961175
189	0xbe82d89d	-0.25555888
190	0xbe063d14	-0.13109237
191	0xbd194321	-0.037417535
192	0x3e3f72af	0.18696092
193	0xbe28ad32	-0.16472319
194	0xbdc55cb3	-0.096368216
195	0x3d726113	0.05917461
196	0xbd261024	-0.040542737
197	0x3d1c5422	0.038166173
198	0x3e4ca354	0.1998418
199	0x3d741811	0.059593264
200	0x3d02ecee	0.031964235
201	0xbe39b2ce	-0.18134615
202	0xbd72c431	-0.059269134
203	0xbe701d55	-0.2344869
204	0xbceabbf8	-0.028654084
205	0x3d4dcf06	0.05024626
206	0x3dcbad78	0.09945196
207	0x3ce401df	0.027832923
208	0xbd8f9821	-0.07011438
209	0x3d9ea801	0.07746888
210	0x3d6d1dfe	0.05788993
211	0xbbcc15bb	-0.0062281764
212	0xbda6cd64	-0.08144644
213	0xbe5fbbf3	-0.2184904
214	0xbd9d257e	-0.07673167
215	0x3d7af38b	0.061267417
216	0xbd145ad7	-0.036219444
217	0xbe203e9a	-0.1564888
218	0xbc38a7f0	-0.011270508
219	0xbd1a669b	-0.03769551
220	0xbebc591f	-0.36786744
221	0xbf17884c	-0.5919235
222	0xbc89f183	-0.016838795
223	0x3e3e941a	0.18611184
224	0x3dd04625	0.10169629
225	0xbd6fa060	-0.058502555
226	0x3e1acf96	0.1511825
227	0xbd739c76	-0.059475385
228	0x3e8afc55	0.2714564
229	0x3ed96f71	0.42467836
230	0x3d7b7256	0.061388336
231	0x3dd30da8	0.10305339
232	0xbe4c14a0	-0.19929743
233	0xbdd89af7	-0.10576432
234	0x3dffe700	0.12495232
235	0xbc708f4b	-0.014682601
236	0xbe00992c	-0.1255843
237	0xbe2fe066	-0.17175445
238	0xbcdab483	-0.026697403
239	0xbe674085	-0.22583206
240	0xbdc42441	-0.095772274
241	0x3e75887b	0.23977844
242	0x3bb304b7	0.0054632085
243	0x3d21ed71	0.039533082
244	0xbeec14f2	-0.4610973
245	0xbe3ad10d	-0.18243809
246	0xbebfaa37	-0.3743455
247	0x3e02bdee	0.12767765
248	0xbeb0e719	-0.34551314
249	0xbc10ce40	-0.008838236
250	0xbbcb056f	-0.006195716
251	0xbc12abb9	-0.008952075
252	0x3d8888ef	0.06666743
253	0xbdcca5a1	-0.09992529
254	0xbb80ab32	-0.003926658
255	0xbe024d78	-0.12724864

main.3.bias f4 [32]
0	0xbdbb75cb	-0.091533266
1	0x3e021334	0.12702638
2	0xbda41cfa	-0.08013339
3	0x3dba6793	0.091017865
4	0xba6e9ed7	-0.00091026485
5	0xbd0aed91	-0.033917967
6	0x3e3d6e71	0.18499161
7	0xbe83995e	-0.25702947
8	0x3d31d588	0.04341653
9	0x3e063386	0.13105592
10	0xbc9766a3	-0.018481558
11	0x3d081ef4	0.033232644
12	0xbd282c47	-0.04105785
13	0xbd603476	-0.05473753
14	0x3e2d8fd6	0.169494
15	0x3d392161	0.04519785
16	0x3e456440	0.19276524
17	0xbe4b306c	-0.1984269
18	0xbd37bba5	-0.044856686
19	0xbd824a92	-0.063618794
20	0x3da784bc	0.08179614
21	0x3d8e96bc	0.06962344
22	0x3bdfda0f	0.0068314145
23	0x3c74ac54	0.014933664
24	0xbe8c0499	-0.27347258
25	0xbe5b3a9e	-0.2140908
26	0xbd975fb8	-0.07391304
27	0x3dd44add	0.103658415
28	0xbe239eb1	-0.15978505
29	0xbb8eb0c7	-0.0043545696
30	0xbc5e36ce	-0.013562871
31	0xbd9a9674	-0.07548228

main.4.weight f4 [32]
0	0x3f052c14	0.5202038
1	0x3f44ef0b	0.7692725
2	0x3f710758	0.9415183
3	0x3f07059d	0.5274294
4	0x3f472ef6	0.7780603
5	0x3fac06b1	1.3439542
6	0x3f461f4e	0.7739152
7	0x3f3d8d94	0.74044156
8	0x3f0aeffb	0.5427243
9	0x3f3649d2	0.7120639
10	0x3f6927a6	0.91076124
11	0x3f6103c5	0.87896377
12	0x3f33f83c	0.7030065
13	0x3f1cdc52	0.6127368
14	0x3f3f499e	0.74721706
15	0x3f452ac9	0.7701841
16	0x3f5355bd	0.825527
17	0x3ef789cb	0.48347315
18	0x3f2f761d	0.685396
19	0x3f800bce	1.0003603
20	0x3f416a90	0.75553226
21	0x3f49b036	0.787845
22	0x3f3cd689	0.73764855
23	0x3f3509f3	0.70718306
24	0x3f68463c	0.9073217
25	0x3f4353de	0.76299846
26	0x3f5a4c88	0.8527303
27	0x3f73faa3	0.95304316
28	0x3f11a388	0.56890154
29	0x3f7f0c8c	0.9962852
30	0x3f5a3131	0.8523131
31	0x3fa7bc37	1.3104314

main.4.bias f4 [32]
0	0xbe86bd07	-0.2631609
1	0xbf51ab28	-0.8190179
2	0xbf693aa9	-0.91105133
3	0xbecc94c3	-0.39957246
4	0xbf2923a6	-0.6607002
5	0x3e8b8f22	0.2725764
6	0xbf30cda5	-0.6906379
7	0xbf42748c	-0.75959086
8	0xbec4eb89	-0.3846095
9	0xbf4ce744	-0.80040383
10	0xbf844d7f	-1.033615
11	0xbf379e0c	-0.71725535
12	0xbedc86da	-0.43071634
13	0xbf04fdd2	-0.519498
14	0xbf221e3d	-0.6332739
15	0xbecdcc3e	-0.40194887
16	0xbf657462	-0.8963071
17	0x3b000f67	0.001954043
18	0xbf4e0eee	-0.8049153
19	0xbeef9121	-0.46790412
20	0xbf4c5666	-0.79819334
21	0xbf5762ba	-0.8413502
22	0xbf420808	-0.75793505
23	0xbf0ca9d0	-0.54946613
24	0xbf6eaf04	-0.932358
25	0xbf572419	-0.84039456
26	0xbf75019c	-0.9570558
27	0xbf8153f5	-1.0103747
28	0xbf003f77	-0.5009684
29	0xbf61515a	-0.8801476
30	0xbf5ee04c	-0.87061
31	0x3ea5c644	0.32377827

main.4.running_mean f4 [32]
0	0xbf921290	-1.1411915
1	0xc0008c47	-2.0085618
2	0xbfc15ebd	-1.5107037
3	0xc0033f4c	-2.0507383
4	0xbfc058b3	-1.5027069
5	0xbeddb4ab	-0.433019
6	0xbfe8d6c3	-1.819054
7	0xbfee5ff8	-1.8623037
8	0xc00e185d	-2.220237
9	0xbfcf859a	-1.6212647
10	0xbfd9d2d2	-1.7017462
11	0xbfb8bf13	-1.4433311
12	0xbf9c0a0a	-1.2190564
13	0xbfd21115	-1.6411463
14	0xbfdcb1e1	-1.7241784
15	0xbfc8a3f4	-1.5675035
16	0xbfec21ce	-1.8447816
17	0xbfdd7192	-1.7300284
18	0xbfc2f7e0	-1.5231895
19	0xbf90f583	-1.1324924
20	0xbfd2a712	-1.6457236
21	0xbfd560f3	-1.6670212
22	0xbfb93066	-1.4467895
23	0xbfb700ea	-1.4297154
24	0xc00354f5	-2.0520604
25	0xc0095c62	-2.1462636
26	0xbff0e705	-1.8820502
27	0xbfbf30f2	-1.4936812
28	0xc00c5ee0	-2.1932907
29	0xbfc68d38	-1.5511847
30	0xbfe9d7ec	-1.8269019
31	0xbe8d073d	-0.27544585

main.4.running_var f4 [32]
0	0x4027397c	2.6128836
1	0x406768ad	3.615764
2	0x402f56e0	2.7396774
3	0x4092c8a9	4.5869946
4	0x403c78ba	2.9448686
5	0x40cb0b30	6.3451157
6	0x406e9c0d	3.7282746
7	0x4059bf35	3.4022954
8	0x40c7dbf4	6.2455997
9	0x4056fda8	3.359232
10	0x40651bd7	3.5798242
11	0x405f5a96	3.489904
12	0x40649203	3.5714118
13	0x4049caa0	3.1529922
14	0x403e9038	2.9775524
15	0x4032cb9f	2.793678
16	0x40559cef	3.3377035
17	0x40840f3a	4.1268587
18	0x40245620	2.5677567
19	0x40392ccb	2.893359
20	0x403dab67	2.9635866
21	0x403f124b	2.9854915
22	0x407a117d	3.9073174
23	0x403a59da	2.911734
24	0x4059dfd8	3.4042873
25	0x40500cb7	3.250776
26	0x405bdc46	3.4353194
27	0x40531ba9	3.2985632
28	0x40649874	3.571805
29	0x404dd477	3.2160928
30	0x4051fafe	3.2809443
31	0x407aab19	3.916693

main.6.weight f4 [32, 16, 4, 4]
0	0xbc27e0aa	-0.010246435
1	0x3dcc2c2b	0.09969362
2	0x3d9197df	0.07109045
3	0x3d2f39b2	0.042779632
4	0xbcd0a160	-0.025467575
5	0x3d69e18c	0.057099864
6	0x3da2fece	0.079587564
7	0x3dbc2f63	0.09188726
8	0xbda67ef4	-0.08129683
9	0xbde3f670	-0.111309886
10	0xbc9ff182	-0.01952434
11	0x3d570b56	0.052501045
12	0xbb5b1323	-0.0033428154
13	0xbe474fc7	-0.19464026
14	0x3c1ae678	0.009454362
15	0x3ca580b7	0.020202978
16	0x3bd8b097	0.006612848
17	0x3dbd84a4	0.09253815
18	0x3e8acad7	0.2710788
19	0x3e2f2bcb	0.1710655
20	0xbdb7a700	-0.089673996
21	0xbe0cd4e6	-0.1375309
22	0x3cc318d1	0.023815544
23	0x3e42ca38	0.19022453
24	0x3da3ca9e	0.079976305
25	0xbd3ddd8f	-0.046353873
26	0xbd92343f	-0.071388714
27	0x3cb82d17	0.022482438
28	0xbd4e440f	-0.050357874
29	0xbd842bb3	-0.064536475
30	0x3c94a0ba	0.018143047
31	0x3cf80d7b	0.030279865
32	0xbc84a4c5	-0.01619185
33	0xbd8a7f55	-0.06762568
34	0x3e68721b	0.22699778
35	0x3c44f2bd	0.012020764
36	0xbcc30d8c	-0.02381017
37	0xbe218af9	-0.1577567
38	0xbcf641b3	-0.030060625
39	0x3e2e33f0	0.17012
40	0x3d0db4be	0.034596197
41	0xbd4e49b0	-0.050363243
42	0xbccf88a2	-0.025333706
43	0xbc5fc4ea	-0.013657788
44	0xbd902480	-0.07038212
45	0xbd9250aa	-0.07144292
46	0x3d426e00	0.047468185
47	0x3d9b4c0c	0.07582864
48	0xbd5d8b20	-0.054087758
49	0x3e3b8425	0.18312128
50	0x3e350cf5	0.17680724
51	0x3c752ab1	0.014963792
52	0xbd7badb0	-0.06144494
53	0x3d99f157	0.07516735
54	0x3e410385	0.18848999
55	0x3e063651	0.13106658
56	0xbdaea1ca	-0.085269526
57	0xbedb070e	-0.4277882
58	0xbdd322be	-0.10309361
59	0xbbb0d664	-0.005396651
60	0x3d70299d	0.058633436
61	0xbe089988	-0.13339818
62	0xbe27e064	-0.16394192
63	0xbdc4caa7	-0.09608965
64	0x3d0f7e1e	0.035032384
65	0x3d6db8f8	0.058037728
66	0x3e55074c	0.20803565
67	0x3e1fa616	0.155907
68	0xbc865fc9	-0.016403096
69	0xbdcb9dfd	-0.09942243
70	0x3df57fc3	0.11987259
71	0x3e79f41d	0.24409528
72	0x3cc493c8	0.023996249
73	0xbda4ad23	-0.08040836
74	0xbe3f29b6	-0.18668255
75	0x3dc995af	0.09843003
76	0x3d0de5ff	0.03464317
77	0x3ba426a6	0.00500949
78	0xbda3bdb2	-0.07995166
79	0x3c6c2fba	0.014415676
80	0x3c79b634	0.0152411945
81	0x3de8a0a8	0.11358768
82	0x3df28f3e	0.118437275
83	0x3d9877bf	0.07444715
84	0xbd27c11a	-0.04095564
85	0xbd4ec5ca	-0.050481595
86	0x3e4c6de7	0.199638
87	0x3e70bd40	0.23509693
88	0xbd4beee1	-0.04978836
89	0xbe016f16	-0.12640032
90	0xbddeddca	-0.10882147
91	0x3d20a553	0.039220165
92	0xbb5e9a37	-0.003396643
93	0x3d98b8b1	0.07457102
94	0xbd8a0af2	-0.06740369
95	0x3cd49d45	0.025953898
96	0x3c017b93	0.007902998
97	0xbc726eb5	-0.014796902
98	0x3cdfda43	0.027325755
99	0x3c984074	0.018585421
100	0x3be2c2eb	0.0069202087
101	0xbe16cc08	-0.14726269
102	0x3d585525	0.052815575
103	0xbd99aa3e	-0.07503174
104	0xbd14f12f	-0.036362823
105	0xbd789928	-0.060692936
106	0xbc9f2d40	-0.019430757
107	0x3d5e4ce2	0.05427254
108	0xbd6abc7e	-0.057308666
109	0xbe18ad38	-0.14909828
110	0xbc1b88a7	-0.00949303
111	0xbc103818	-0.008802436
112	0xbe45cfe1	-0.19317581
113	0xbda7cbd7	-0.08193176
114	0xbe0920b0	-0.13391376
115	0x3b97e454	0.004635373
116	0x3d812c3b	0.063072644
117	0xbe0c0741	-0.13674642
118	0xbd79f368	-0.061023146
119	0xbe017cb8	-0.12645233
120	0xbe06eb9d	-0.13175817
121	0x3aa110ac	0.0012288294
122	0x3d49e557	0.04929098
123	0xbd8c90cb	-0.068635546
124	0x3cc9d53c	0.02463781
125	0x3cf4ff5e	0.029906925
126	0xbd84f03a	-0.06491132
127	0x3dd327a7	0.103102975
128	0xbd4eba8c	-0.050470874
129	0xbd470bb9	-0.048595164
130	0x3d86ba7e	0.06578539
131	0xbcde1737	-0.02711068
132	0xbd2d7829	-0.04235092
133	0xbe09bfaf	-0.13452028
134	0x3d74e147	0.059785154
135	0xbd3d5f7a	-0.04623363
136	0xbd0a2d94	-0.033734873
137	0xbdb96d1f	-0.09054016
138	0x3e150eed	0.14556475
139	0x3c647df4	0.013946045
140	0xbc46981b	-0.012121226
141	0xbe3cf103	-0.18451314
142	0x3c42a691	0.011880533
143	0xbd2ef522	-0.042714246
144	0x3d50324f	0.050829228
145	0x3d32cb33	0.043650817
146	0xbd452610	-0.048132002
147	0xbd685f44	-0.056731477
148	0xbd07be5d	-0.03314053
149	0xbd6e494f	-0.05817538
150	0x3e4b7b76	0.19871315
151	0x3d75c12a	0.05999867
152	0x3c9739e1	0.018460216
153	0xbd93f2e7	-0.07224064
154	0xbccc7e4a	-0.024962563
155	0x3cb51b70	0.02210781
156	0xbd7c849e	-0.06164991
157	0xbc971abb	-0.018445363
158	0xbd579382	-0.05263091
159	0xbd830017	-0.063965015
160	0x3ca792cc	0.02045574
161	0xbde3468b	-0.110974394
162	0xbd9719cc	-0.07377967
163	0xbcc05fb0	-0.023483127
164	0x3dbd01a0	0.092288256
165	0xbe47f477	-0.1952685
166	0x3e3e9ead	0.18615218
167	0xbc5d0072	-0.013488876
168	0x3c4ef2c7	0.012631125
169	0xbd30b8e6	-0.043145083
170	0xbd80ce50	-0.06289351
171	0x3c8f45d2	0.017489348
172	0xbde6c8da	-0.11268778
173	0x3c71e96b	0.014765124
174	0xbd6b3dd9	-0.05743203
175	0x3c127ee9	0.008941391
176	0xbba438d5	-0.0050116577
177	0x3e815309	0.25258663
178	0x3e86f340	0.2635746
179	0x3d3c6706	0.04599669
180	0xbdef2b43	-0.116781734
181	0xbe226bf0	-0.15861487
182	0x3df4d5f5	0.119548716
183	0x3da90d95	0.08254544
184	0x3c6134fa	0.013745541
185	0xbd94b26f	-0.07260596
186	0x3d06e450	0.03293258
187	0xbdae1d70	-0.085017085
188	0xbd3c6eb9	-0.04600403
189	0xbd216699	-0.039404485
190	0x3d1ee778	0.038794965
191	0xbbbf7a5b	-0.0058434433
192	0xbda904d8	-0.08252877
193	0xbc825ddf	-0.015913902
194	0xbe53b8d9	-0.20675983
195	0xbe03bfb5	-0.12866099
196	0xbe36c880	-0.17849922
197	0xbdc10006	-0.094238326
198	0xbdb4f741	-0.088362224
199	0x3bc6703d	0.0060558603
200	0xbc8a6e54	-0.016898312
201	0x3cf726df	0.030169902
202	0xbd84648f	-0.064644925
203	0xbc54c6d3	-0.0129868565
204	0xbdf9f3ee	-0.12204729
205	0x3ce6e0f3	0.028183436
206	0xbd4ed92e	-0.050500087
207	0x3d224557	0.03961691
208	0xbd57c94a	-0.0526822
209	0xbd153b02	-0.036433227
210	0x3b9ab17c	0.004720865
211	0x3cfe011e	0.031006392
212	0xbd068425	-0.032840867
213	0x3b4a9182	0.0030909483
214	0x3c4531e9	0.012035825
215	0xbd4766a9	-0.04868189
216	0x3cd1a040	0.025589108
217	0x3bd4c383	0.0064930334
218	0x3d47efb1	0.048812572
219	0x3c4f1b5f	0.012640803
220	0xbc12f59d	-0.008969692
221	0xbd2511cf	-0.040300187
222	0x3dc9703a	0.09835859
223	0xbd55258e	-0.052037768
224	0xbdaa4300	-0.083135605
225	0xbdc45927	-0.09587317
226	0x3c411242	0.011784138
227	0x3d741b3a	0.059596278
228	0xbe1469a2	-0.1449342
229	0x3d57f1b9	0.05272076
230	0xbd7b859e	-0.061406724
231	0xbe5557eb	-0.2083432
232	0x3d02ee6d	0.03196566
233	0x3da01e5d	0.07818291
234	0x3d34696c	0.04404585
235	0x3b7ba66d	0.0038398758
236	0x3c93c825	0.018039772
237	0x3d25ddaf	0.040494617
238	0xbe14368a	-0.1447393
239	0xbdad52e9	-0.084630795
240	0xbd4bb3ba	-0.049731947
241	0xbd8d9e7c	-0.06914994
242	0x3e2cca3e	0.16874024
243	0x3c3cb8a0	0.011518627
244	0xbd8b947a	-0.06815429
245	0x3d471e16	0.048612677
246	0x3d83d00d	0.06436167
247	0xbe090c49	-0.13383593
248	0xbd09e190	-0.03366238
249	0xbb85dc2e	-0.0040850854
250	0x3c66c5e3	0.014085266
251	0x3d8cdeed	0.06878457
252	0xbdb31424	-0.08744076
253	0x3cad73b3	0.021173334
254	0x3d25bbc9	0.04046229
255	0x3c43b398	0.011944674

main.6.bias f4 [16]
0	0xbdf23b25	-0.11827687
1	0x3e313d5b	0.17308562
2	0x3e254104	0.16138083
3	0x3d8d7464	0.069069654
4	0xbdcdba35	-0.10045282
5	0x3e1a9c51	0.15098692
6	0x3cce28a8	0.02516587
7	0xbc555646	-0.0130210575
8	0x3d964b83	0.073386215
9	0x3e1a6d6b	0.15080802
10	0x3c92c697	0.01791696
11	0x3e14d864	0.14535671
12	0xbe0bb7bf	-0.13644312
13	0xbea5d0bc	-0.32385814
14	0x3d6bd8c2	0.057579763
15	0x3dfe9403	0.12430575

main.7.weight f4 [16]
0	0x3f1b66fd	0.6070402
1	0x3fceb916	1.6150234
2	0x3f25babc	0.6473806
3	0x3fd1dd18	1.6395597
4	0x3fbc2d35	1.4701296
5	0x3fa72ccc	1.3060546
6	0x3f06e6ec	0.5269611
7	0x3eead96a	0.45869
8	0x3f12606b	0.5717837
9	0x3f2961d7	0.66164917
10	0x3edad686	0.42741793
11	0x3fb397cf	1.4030703
12	0x3ed12fb5	0.4085671
13	0x3f24ba1f	0.643465
14	0x3ef1371f	0.47112367
15	0x3f2a95ea	0.66635

main.7.bias f4 [16]
0	0xbf1a705c	-0.60327697
1	0xbfbbf938	-1.468543
2	0xbf120aaa	-0.5704752
3	0xbff1d060	-1.8891716
4	0xbfb0601b	-1.3779329
5	0xbfa5cbc5	-1.295281
6	0xbe9df30a	-0.30849487
7	0xbe81fffa	-0.25390607
8	0xbf09fc03	-0.53900164
9	0xbf2f70f4	-0.6853173
10	0xbebd4f6a	-0.3697465
11	0xbfa83f02	-1.3144228
12	0xbe80b9b6	-0.25141686
13	0xbf35708f	-0.70874876
14	0xbe803fb6	-0.25048608
15	0xbf2b2b15	-0.6686261

main.7.running_mean f4 [16]
0	0xbf88f599	-1.069995
1	0xbf7b1a23	-0.98086756
2	0xbf3ad7f7	-0.72985786
3	0xbf862ce8	-1.0482454
4	0xbfa2e70d	-1.2726761
5	0xbf83e9df	-1.0305747
6	0xbf156119	-0.58351284
7	0xbf14e56f	-0.5816259
8	0xbf26e097	-0.65186447
9	0xbf4171ca	-0.75564253
10	0xbf42f29c	-0.7615144
11	0xbf7da612	-0.9908153
12	0xbf497607	-0.7869572
13	0xbf6dab82	-0.92839825
14	0xbf174411	-0.59088236
15	0xbf28cb0a	-0.65934813

main.7.running_var f4 [16]
0	0x3f297779	0.66197926
1	0x3f77129e	0.9651278
2	0x3f32cdaa	0.6984507
3	0x3f27facd	0.65617067
4	0x3f833703	1.0251163
5	0x3f67e121	0.90577894
6	0x3f1f44d1	0.6221438
7	0x3f62c204	0.88577294
8	0x3f031e1e	0.5121783
9	0x3f1cd667	0.6126465
10	0x3f1e310b	0.61793584
11	0x3f759e22	0.95944417
12	0x3f797b8e	0.97454154
13	0x3e9c4f67	0.3052933
14	0x3f912c6b	1.134168
15	0x3f0c3e9f	0.5478305

main.9.weight f4 [16, 1, 4, 4]
0	0xbc72d98f	-0.014822378
1	0xbe28fe82	-0.16503337
2	0xbd0aed6d	-0.033917833
3	0xbc46c838	-0.012132697
4	0x3e179cf6	0.1480597
5	0x3f9bfbca	1.2186215
6	0x3e286fc1	0.1644888
7	0xbcc348df	-0.023838459
8	0xbdb2c79e	-0.0872948
9	0xbe5b61fe	-0.214241
10	0xb91a6081	-0.00014722535
11	0xbb425e3e	-0.0029658224
12	0xbb30a9db	-0.002695671
13	0x39eef2cd	0.00045575798
14	0xbb0de701	-0.0021652582
15	0x3bc13c3a	0.005897072
16	0x38900c42	6.868738e-05
17	0xbb871bb3	-0.004123175
18	0x397b45f5	0.00023963286
19	0x38b942b6	8.833913e-05
20	0x3915980a	0.00014266386
21	0xbb1ea915	-0.0024209667
22	0x3bf14f47	0.007364187
23	0xbb22e424	-0.002485522
24	0x3b711dec	0.0036791516
25	0x401785d4	2.3675432
26	0x3ca3d73d	0.020000095
27	0x3ae9f6c7	0.0017850035
28	0x3cb44b0a	0.022008438
29	0x3c895b2a	0.016767103
30	0xbbede1ec	-0.007259598
31	0x3ae39c04	0.0017365222
32	0xbb2f1d2a	-0.0026720264
33	0x3b6c2470	0.003603246
34	0x3bc54b80	0.006020963
35	0x3b49c163	0.0030785433
36	0x3a4f1216	0.00078991184
37	0x3a8755fa	0.0010325306
38	0xbbcd6e94	-0.0062692855
39	0x3c442142	0.01197082
40	0x3fb77833	1.4333557
41	0x3f119c54	0.5687916
42	0x3bbba728	0.0057267137
43	0x3ba0c745	0.0049065673
44	0x3d3ecbfa	0.046581246
45	0x3c1b9592	0.00949611
46	0x3b34265f	0.0027488691
47	0x398b2eb8	0.00026546954
48	0x3ceeb981	0.02914119
49	0x3e833419	0.25625685
50	0x3e6e2fc1	0.23260404
51	0x3d8a1cea	0.06743796
52	0xbd76a1e5	-0.06021299
53	0x3f97abab	1.1849264
54	0x4043410f	3.0508459
55	0x3d0bc841	0.034126524
56	0x3d0589c3	0.032602083
57	0x3d72e5ac	0.059301063
58	0x3cb3ecbd	0.021963472
59	0x3c51aa59	0.012796962
60	0x3b8ac77c	0.004235206
61	0xbadec896	-0.0016997035
62	0xbb24d745	-0.0025152725
63	0x3b313df1	0.0027044977
64	0x3c484d01	0.01222539
65	0x3c992934	0.018696405
66	0x39694140	0.00022244919
67	0x3ab2b09e	0.0013632958
68	0x401d605b	2.459006
69	0x3de61be8	0.112357914
70	0xbc2247ac	-0.009904783
71	0xbb229ed4	-0.0024813907
72	0x3d8405e7	0.06446438
73	0x3bdc1ecf	0.00671754
74	0x3ab6dc6b	0.0013951188
75	0x3b1fdcd4	0.0024393098
76	0xbb1e166d	-0.0024122254
77	0x3b2da2a9	0.0026494658
78	0x3ba1b4aa	0.004934867
79	0xba8ebd45	-0.0010890147
80	0x3c0b9ec9	0.008521744
81	0xbb94f17e	-0.0045453897
82	0xbbb8b712	-0.005637058
83	0xbba18f32	-0.0049304003
84	0x3e1adc98	0.15123212
85	0x405d9b21	3.4625933
86	0x3cd7942d	0.026315773
87	0xbadecf2d	-0.0016998999
88	0xbcaf1129	-0.021370487
89	0xbd06b30c	-0.032885596
90	0xbc15f379	-0.009152287
91	0xb808c918	-3.261221e-05
92	0x3aab2ea6	0.0013060167
93	0x38554668	5.084873e-05
94	0x3ac86a9e	0.0015290563
95	0x3ad0b53b	0.0015923152
96	0xbc02de11	-0.007987515
97	0x3dbe90c2	0.09304954
98	0x3b1df27b	0.0024100828
99	0x39c7e737	0.00038128506
100	0xbe3774d5	-0.17915662
101	0x3c77b679	0.015119188
102	0xbdfcdd18	-0.12346858
103	0x3c4878fe	0.012235878
104	0x3aee86f1	0.0018198175
105	0x3e2d5b1b	0.16929285
106	0xbc83e1bd	-0.016098851
107	0xbbc93959	-0.0061408696
108	0xbb8dd5b8	-0.004328456
109	0x3b0810ba	0.0020761923
110	0x3bf42614	0.0074508283
111	0xbb85e2a2	-0.0040858546
112	0xbb01c56b	-0.0019801508
113	0x3db43434	0.087990195
114	0x3d124b31	0.03571624
115	0x3c5e2836	0.013559392
116	0xbd8129d5	-0.06306807
117	0xbd8fc207	-0.0701943
118	0xbdfb4f33	-0.122709654
119	0xbdd1c3e7	-0.102424435
120	0x3ddeae74	0.10873118
121	0x3b259ca5	0.002527037
122	0x3dd4e655	0.10395495
123	0x3d73a4dc	0.059483394
124	0x3c550c11	0.013003365
125	0x3b726551	0.0036986659
126	0x3c3f665d	0.01168212
127	0x3b8a06e5	0.0042122477
128	0x3ba8a522	0.0051466385
129	0xbb0c0344	-0.002136425
130	0xba836ba1	-0.0010026583
131	0x3b3c994d	0.0028777898
132	0x3a0fea1b	0.00054899015
133	0x3b7cdecf	0.0038584953
134	0x3f31a0e2	0.6938611
135	0xbc7f4ca7	-0.01558224
136	0x3bb80992	0.0056163752
137	0x3cb307fe	0.021854397
138	0x3f872acd	1.0559937
139	0xbb6a4fda	-0.0035753162
140	0x3acf0eb7	0.0015797232
141	0x3b34aaa2	0.0027567525
142	0x3c09fee9	0.008422592
143	0xb9dc0bf0	-0.00041970564
144	0x3b9cb0ef	0.0047818343
145	0x3ea02e07	0.31285116
146	0x3e2617c2	0.1622
147	0x3ce71293	0.028207099
148	0xbd1f13d2	-0.03883726
149	0x3f6982f3	0.9121544
150	0x3f5d594a	0.8646437
151	0x3c7de146	0.015495604
152	0x3bc6b6b4	0.0060642604
153	0x3dbc36ea	0.091901615
154	0x3c43d54d	0.01195271
155	0x3c72aa7c	0.014811154
156	0x3b037f50	0.0020064898
157	0x3b2211d4	0.0024729865
158	0x3b9db252	0.004812517
159	0x3b3d4fdd	0.0028886714
160	0xbc988baf	-0.018621294
161	0xbe4a787f	-0.19772528
162	0xbd4f099a	-0.050546266
163	0xbc8ab499	-0.016931819
164	0x3e34d6ab	0.17660014
165	0x3c872de9	0.016501384
166	0x3e5dfe21	0.21678974
167	0xbc18c5b4	-0.00932448
168	0xbdb1bbf7	-0.086784296
169	0xbe6641a5	-0.22485979
170	0xbd718f15	-0.058974344
171	0xbcae7598	-0.021296307
172	0xbbf71b9c	-0.007541133
173	0xba0e9819	-0.00054395344
174	0xbaf41244	-0.0018621166
175	0x3b2254b4	0.0024769725
176	0x38bacedc	8.907702e-05
177	0xbb67df87	-0.0035381035
178	0xbac09607	-0.0014693149
179	0xb9783e6b	-0.00023674376
180	0xb8bb51f2	-8.932118e-05
181	0x3c0482e6	0.008087849
182	0x3c4c3e0f	0.012465968
183	0x39649eca	0.00021802928
184	0xbc692fb9	-0.014232569
185	0x3d860c8e	0.06545363
186	0x40363448	2.846941
187	0xbbf87fdd	-0.007583602
188	0xbae36c9c	-0.0017351094
189	0x3b3917c4	0.0028242925
190	0x3cf3e995	0.029774467
191	0xbc8a113c	-0.016853921
192	0xbc1e6b3e	-0.009669123
193	0xbdab6768	-0.083693326
194	0xbcfb8e6f	-0.030707566
195	0x3b9b22fa	0.004734394
196	0x3dbc4eea	0.09194739
197	0xbc6c8c8a	-0.014437804
198	0x3dd82002	0.1055298
199	0xbd38597a	-0.045007206
200	0x3b5b1d9e	0.0033434401
201	0xbe2ec088	-0.17065632
202	0xbd425955	-0.047448475
203	0xbc077957	-0.008268676
204	0x3c9c6533	0.019091224
205	0x3b1f67eb	0.0024323415
206	0x3b7dca93	0.003872548
207	0xbc0d415e	-0.008621542
208	0x3af3411d	0.0018558834
209	0xbc32ebeb	-0.010920505
210	0xbbb6e018	-0.0055809133
211	0xb78a5266	-1.6489252e-05
212	0x3c8715a0	0.016489804
213	0xba9b2504	-0.0011836593
214	0x3c4bf063	0.012447449
215	0x3cd6d384	0.026223905
216	0x3d9a18a8	0.07524234
217	0x3ef28183	0.47364435
218	0x3eb4a573	0.35282478
219	0x3d7a202f	0.06106585
220	0x3eb9f20c	0.3631748
221	0x3f362f75	0.71166164
222	0x3eb35cdc	0.35031784
223	0x3da0e1fb	0.07855602
224	0xbb7f466b	-0.0038951884
225	0x3d040c0f	0.032238062
226	0x3cb1edff	0.02171993
227	0x3cb3acb2	0.021932933
228	0xbc28b7e3	-0.010297748
229	0x3d0b0e16	0.03394898
230	0xbdc62e27	-0.096767716
231	0x3dce0b82	0.10060789
232	0xbd475dcc	-0.048673436
233	0x3e7c13f1	0.24616982
234	0xbd503ea3	-0.050840985
235	0xbccacfdc	-0.024757318
236	0xbdf8cda8	-0.12148601
237	0xbba1dabc	-0.0049394052
238	0xbd0ad661	-0.033895854
239	0xbb067286	-0.0020515039
240	0xbabf701c	-0.0014605555
241	0x3c540a64	0.01294193
242	0x3b481f81	0.0030536356
243	0x3b0bcc5a	0.002133152
244	0x3c68d42a	0.01421074
245	0x3f3aba1d	0.72940236
246	0x3c8dfae9	0.017331557
247	0xbc32f4f5	-0.01092266
248	0xbca95b7e	-0.02067351
249	0x3f703b24	0.9384024
250	0x3d5333f7	0.05156323
251	0x3b90db15	0.004420648
252	0x3cd8035c	0.02636879
253	0x3bf4195c	0.007449312
254	0x3a1bb127	0.00059391785
255	0xba26153e	-0.0006335563
