saved_model/G_state_dict: n_epoch= 15, z_dim= 30.pt (torch, 297662 bytes, 19 tensors)

main.0.weight f4 [30, 64, 4, 4]
00000000: 9195 ecbc 9d14 e43d 78fa c03d 358f 723d
00000010: 2a60 a53d edee c53c 1568 50bd 0c05 38bc
00000020: f5de 1e3e 0e97 1fbd aa93 a8bd 9deb 29bd
00000030: 1ae8 9b3d 6d2a 733d 1aad d1bd abb5 023d
00000040: 673d 3c3d 01b5 103c b136 2abd eeb2 33bc
00000050: 5e20 1c3d eec0 4b3e 26e9 f8ba c3d2 5f3c
00000060: 5010 84bd 0949 55bc df87 87bd f5c9 40bc
00000070: b10d 323b 16b4 8f3c dab6 883c a9d4 b53b
00000080: 3a81 6c3c fa9d 81bd 5fee 213d 2600 ac3c
00000090: 9740 263d cdcc 973c 7d13 383e aa09 b2bc
000000a0: a991 cd3b 7e15 4cbd 96c0 7f3e 54b9 7d3c
000000b0: b499 493c 1600 29bc 8d5a 05bd fe15 443d
000000c0: 0b02 86bd deec 723c 6299 0abc 0ba9 063d
000000d0: 6d2b f53c a378 543e 43f6 20bd f5e3 2abb
000000e0: 3bb1 f83d 12f5 63bd a55f 11be 41ce 6cbc
000000f0: bd52 323b adff 0b3c bf89 3f3b 7039 87ba
00000100: a8c0 9abc 8ab4 f23d 6647 e9bc b4e1 fabc
00000110: 72b6 d33c 2d16 efbd fb7a eabc 9b96 cd3c
00000120: 5822 e13c 1e55 03bd 0a3c 8c3e 2ff1 063c
00000130: 9fa1 c5bd a016 923d 8df6 723d 972c 1c3d
00000140: a0c2 f0bc 6fa1 133d 3234 2abc ffd5 8a3b
00000150: 9264 e5bb ceea 903c 80b7 18be 178a 16bb
00000160: 64cf 3c3d 9841 40bd 48fe 2ebd 4669 b3bb
00000170: 42be 9dbc 9723 a2bc b5ea a1bb a529 973c
00000180: b04f 183e cbd8 c0ba 07dc e93c 302b 6cbc
00000190: 3d9d 21bc 12bf 0c3e acec 1bbe 829e 04bc
000001a0: 61ed 8abd 99ef 903e fee1 9a3d 907f 32bd
000001b0: 450c d93b 607e 48bc ae8c dabc e9e7 fe3a
000001c0: f24f d53d fc8d eebc 165a 38bd 997e 04bd
000001d0: eda7 a4bb 0faa 783e d2c9 823d 9687 0f3d
000001e0: 6185 b73b 1788 3dbe 9150 b1bd 16cc d13d
000001f0: 3c3d 13bc a4d1 cabc c5b6 0d3b b777 c2bd
00000200: f095 94bd a734 8e3e 5233 9c3d c90d a2bd
00000210: e5d2 273c 41aa 713e 7942 26be 2fe6 0b3e
00000220: f2df e13b 9904 7abd f869 5cbd 72db 4ebd
00000230: 8b6b b1bc b069 d5bd c1f3 5c3d 704a d03c
00000240: d3ed d5bc e8f2 e9bc 4acf 8b3d 9191 b3bd
00000250: c2a0 9cbc 2c7c de3d 148c da3d a3ee bc3b
00000260: 78ce 6f3d b712 08be b97f 81bd 4f5f 25bc
00000270: dbe5 163d 9f73 cf3c fbfc bbbc 00e8 eebb
00000280: 2dc4 35bc 0b20 d23a 6024 9fbb 7353 58bc
00000290: ec9c b7bb 7a29 62bd ca0e 10bc 2b28 c9ba
000002a0: 1f6d fb3c d051 1b3c b5cf 303e 7c4f 54bd
000002b0: b1f7 173d 339e b7bc ee27 933c 50fd d0bb
000002c0: b933 5ebc 31cd 203d abcb f23a b3c2 543c
000002d0: e22f 883c d00b abbd 7937 25bd a0c5 c1ba
000002e0: c364 32bc c097 4fbd ddb1 8fbd c8fe 583d
000002f0: 3637 09bc 119b 6b3d 6652 cdba 4265 a9bb
00000300: 8af2 0ebe 4af2 b1bb 564e 553d d838 ce3d
00000310: b444 56bc 2d14 863e 30ed 0d3c 6543 d13d
00000320: be21 1abd ef09 133e 5ea6 c6bd 2e33 e13c
00000330: ecd1 a1bc 6652 4a3d aec6 a43c 5624 bdbd
00000340: 1f85 b4ba e260 26bc 144f 78bc e0e5 533d
00000350: 6fc0 753d 80e6 db3b eadf 01bd 23fa bdbc
00000360: b846 21bb 4f50 193e 6086 aebd 50fa 4f3b
00000370: 0e8e 213d 7cd1 343d 3630 a5bb f3d0 efbc
00000380: ef12 97bc b28c c3ba 828b 9a3d 1baa f8bc
00000390: dbd0 523d f4f4 8d3e 8538 0e3e 567d eabd
000003a0: bf16 4a3b 7c2c 2b3e 7b5c 3cbc a0f8 94bd
000003b0: 526c 26bc 8279 293d 9f6b 29bd b32c 683e
000003c0: a1b0 443d d62a 693e 4305 df3d d17f 8a3c
000003d0: f38e 3d3c 687c 74bd 99d1 c13d 511e c7bb
000003e0: 6c70 413d 483c 95bb 411a 6dbd 0bda ccbc
000003f0: 5df2 c9bd 0a06 6a3d 6348 023e 1e5e f73c
-0.028879913 0.11136744 0.09422773 0.059218604 0.080749825 0.02416178 -0.05088051 -0.011231672
0.15514739 -0.038962416 -0.0823129 -0.041484464 0.07612629 0.059366632 -0.10238095 0.031911533
0.045956995 0.008832217 -0.041556064 -0.010967953 0.038116805 0.19897816 -0.0018990382 0.013661089
-0.06448424 -0.013017901 -0.06617712 -0.0117669 0.0027168805 0.017541926 0.016688753 0.0055490327
0.014435107 -0.0632896 0.03953397 0.020996165 0.04058894 0.018530274 0.17976184 -0.021733124
0.0062734676 -0.049825184 0.2497581 0.01548608 0.012304712 -0.010314962 -0.03255706 0.047872536
-0.065433584 0.014826981 -0.008459421 0.032876056 0.029927934 0.20749144 -0.039297353 -0.0026075814
0.12143179 -0.05565364 -0.14196642 -0.014453472 0.002720996 0.008544845 0.002922639 -0.00103168
-0.018890694 0.11850841 -0.028476428 -0.030625202 0.025843833 -0.116741516 -0.028623095 0.025096228
0.027482197 -0.032063596 0.27389556 0.008236214 -0.096499674 0.071332216 0.05931716 0.03812846
-0.02938968 0.036042627 -0.010388421 0.004236936 -0.0070005143 0.017690089 -0.1491375 -0.0022970492
0.04609622 -0.046937555 -0.04272297 -0.005475196 -0.019255761 -0.019792361 -0.0049413093 0.018452475
0.14874148 -0.0014713047 0.0285473 -0.014414594 -0.009864149 0.13744763 -0.15227002 -0.008094432
-0.06783558 0.28307799 0.07562636 -0.043578684 0.006623777 -0.012237161 -0.02667841 0.0019447777
0.10415639 -0.029120438 -0.045007788 -0.032347295 -0.005024901 0.24283622 0.063861504 0.035041414
0.005600617 -0.18508945 -0.08657945 0.102440044 -0.008986767 -0.024758168 0.0021623832 -0.0949549
-0.07255161 0.27774546 0.07626976 -0.079127856 0.010243152 0.23600103 -0.16236295 0.13662027
0.0068931514 -0.06103954 -0.053811997 -0.050502248 -0.021657726 -0.10420549 0.0539434 0.02542612
-0.02611438 -0.02855821 0.068266466 -0.08767999 -0.019119624 0.10863528 0.10671249 0.0057657524
0.058546513 -0.13288389 -0.06323189 -0.010093524 0.0368403 0.025323687 -0.022947779 -0.00729084
-0.011094135 0.0016031278 -0.004856631 -0.01320349 -0.0056034233 -0.055215336 -0.0087925885 -0.0015347054
0.030691681 0.009479955 0.17266734 -0.051833615 0.03710145 -0.022414302 0.017963376 -0.0063778535
-0.013562136 0.039258186 0.0018523833 0.012985873 0.016624395 -0.083518624 -0.040336106 -0.0014783628
-0.010888281 -0.05068183 -0.070163466 0.052977353 -0.00837498 0.05752093 -0.0015664815 -0.0051695416
-0.13959709 -0.0054304944 0.05207666 0.10069436 -0.013077904 0.26187268 0.008662507 0.102179326
-0.037629835 0.14359258 -0.09699701 0.027490225 -0.019753419 0.049394988 0.02011427 -0.09235446
-0.0013772583 -0.010154935 -0.015155572 0.051732898 0.059997972 0.0067108274 -0.03170768 -0.023190564
-0.0024608802 0.14972042 -0.08521724 0.0031734891 0.039442115 0.044145092 -0.0050411476 -0.02927444
-0.018441645 -0.001491925 0.0754614 -0.03035455 0.05146871 0.27725947 0.13888748 -0.11449687
0.0030836312 0.16716188 -0.011496658 -0.07273984 -0.0101576615 0.041375645 -0.0413624 0.22673301
0.04802001 0.22770247 0.108896755 0.01690665 0.011569726 -0.059688956 0.09463806 -0.006076612
0.047226354 -0.004554305 -0.057886366 -0.025006315 -0.0986068 0.057134666 0.12722926 0.030196246

main.0.bias f4 [64]
00000000: 3d27 e63c 16e5 993c f334 cfbc d968 db3d
00000010: 548f 57bc afb4 c73d caab 4bbd 8a2c 2c3d
00000020: abc7 67bc 03ce ff3d d098 c13d 6a81 debd
00000030: 5dd8 67bc 43ba 793b 154a 6bbd 0b26 aabb
00000040: a822 8abb ec3a 92bd 8b1e 3f3c fe57 6f3c
00000050: 1591 81bc cb78 ce3c 6146 a93a 654c 593d
00000060: 2ec7 b3bc 3426 f43c 514c ac3b b3d4 f5bc
00000070: 2104 d53c 04a2 513d d990 443d 7796 89bd
00000080: 6e6c aa3a a10c 383c d463 d73d fe9c a9bc
00000090: f016 b83c 2228 363c 1404 133c 049a 843d
000000a0: 744a 7a3d 2b8b c33d 9a14 06be 71f4 8bbd
000000b0: 9b99 8ebc 2d3e 2d3c f318 5f3c 3a9f 3a3d
000000c0: 2a0c e3bc 9e52 9bbc 360f c63c 7bbd 92bd
000000d0: de3c 503d d604 f5bc a0cb e7bc 03e6 eebc
000000e0: 80dd 153d 7886 1f3d 544f c13c d36e 863d
000000f0: 7713 04bc 303c 513d 1200 223d 66e2 de3d
0.028094882 0.018785994 -0.025293803 0.107133575 -0.013156731 0.097512595 -0.049724378 0.042034663
-0.014146726 0.124904655 0.09452975 -0.108645275 -0.014150706 0.0038105405 -0.057443697 -0.0051925234
-0.004215557 -0.07140145 0.011664997 0.014608381 -0.01581625 0.025204083 0.0012914651 0.05305137
-0.021945562 0.029803373 0.005258121 -0.03000865 0.026002945 0.0511799 0.0479897 -0.06718152
0.0013002285 0.01123348 0.105170876 -0.020704743 0.022471875 0.011117967 0.00897314 0.06474689
0.06110616 0.095480286 -0.13093796 -0.06833733 -0.01740723 0.010573906 0.013616788 0.045562007
-0.027715761 -0.018960293 0.024177175 -0.07165047 0.050839297 -0.029909533 -0.028295338 -0.029162413
0.036588192 0.0389466 0.023597397 0.06564107 -0.008061281 0.05108279 0.03955085 0.10883026

main.1.weight f4 [64]
00000000: f297 893f 41ab 673f 147a 893f 05ef 503f
00000010: 90bf 9a3f 742c 583f 3973 843f 0bcc 883f
00000020: 0c73 5f3f e415 853f eed5 6c3f c2ea 803f
00000030: 9d2f 5f3f 3682 8c3f 4041 843f a511 993f
00000040: 7be0 733f c7bd 683f 51c9 713f eb80 853f
00000050: 1f18 5f3f cf0d 933f 6cb3 593f 6b5f 823f
00000060: 4865 553f 2d73 9d3f d0f1 463f 8303 773f
00000070: 7187 783f 7194 503f ab7e 703f febc 873f
00000080: 77fe 363f 4f30 5f3f b01f 963f 50e1 6e3f
00000090: 860d 513f e78f 4d3f 69d9 4b3f 32c1 493f
000000a0: ebf5 803f 8113 8c3f a2da 363f 7415 783f
000000b0: 3130 573f 7a79 903f 8ba4 9c3f 2810 8a3f
000000c0: 9761 993f 462c 5f3f 17cf 3e3f 96aa 743f
000000d0: 99f6 6f3f cc20 9a3f 53dc 933f cb40 703f
000000e0: 5d5b 893f 36c0 873f 64f2 3b3f f96f 873f
000000f0: 2eb8 a43f 18b2 533f 5355 973f a658 a23f
1.0749495 0.9049569 1.074038 0.81614715 1.208971 0.8444283 1.0347663 1.0687269
0.8728492 1.0397305 0.9251393 1.0071642 0.8718203 1.0977237 1.0332413 1.195851
0.95264405 0.9091458 0.9444781 1.0429968 0.8714618 1.1488589 0.850394 1.0185369
0.8335767 1.2300774 0.77712727 0.96489733 0.9708167 0.81476504 0.9394328 1.0604551
0.7148203 0.8718309 1.172842 0.9331255 0.8166126 0.802977 0.79628617 0.7881042
1.0075048 1.0943452 0.7142736 0.96907735 0.8405791 1.1287072 1.2237715 1.078618
1.1982907 0.8717693 0.74534744 0.95572793 0.93735653 1.2041259 1.1551613 0.93848866
1.0731007 1.0605533 0.73416734 1.0581046 1.2868707 0.82693624 1.1822914 1.2683303

main.1.bias f4 [64]
00000000: 6741 70bd 0ebc ddbd 0421 34be 8bcd 38be
00000010: 7b7c 4abd 2bc8 19be 4d9e 20be df90 f63c
00000020: c31f b4bc 1d2d dcbd 5f46 18be 7367 62be
00000030: 47be a9bd 6c26 5abe 022f 51be dc67 133e
00000040: a6e0 a5bd 1ada 52be 183b 83bd 292c 2ebe
00000050: 2a58 d1bd 3da0 05bd cb4b a63d 152d 53be
00000060: 0da0 9dbd 8d94 41be 2e9f 56be 0d08 07bc
00000070: 095f a0bd 5a18 33be 29c2 52be ae2f 1ebe
00000080: 017c 1cbc c7db f4bd fa31 553c 547c 623d
00000090: 7fa1 3abe 5c6f 82bd 6b95 14be 79de e6bd
000000a0: 8ee0 c6bd de08 56bd 19ab eabd f69f 9f3d
000000b0: 5e59 36be 876a 81be 1f96 09be 4eab 39be
000000c0: 72e5 8e3c 7d6c 43be 3580 b2bd a2c6 93bb
000000d0: 4b3e 25be 1b10 3abe dd48 0d3d ce11 e0bd
000000e0: 66a2 0ebe b7d8 083e 3ce7 5abe 6fef f43d
000000f0: 8789 75be c3ec 48be 083a 12bd b59e 69be
-0.058656123 -0.10826884 -0.1759072 -0.18047158 -0.04943512 -0.15017764 -0.15685387 0.030098377
-0.021987801 -0.10750792 -0.14870594 -0.22109775 -0.08288246 -0.2130372 -0.20428088 0.14395088
-0.08099489 -0.20591012 -0.064077556 -0.17009033 -0.10221894 -0.03262352 0.08119925 -0.20622666
-0.07696543 -0.18904324 -0.2095916 -0.008241666 -0.078306265 -0.17489758 -0.20581879 -0.15447876
-0.009551049 -0.11955982 0.013012404 0.05529435 -0.18225668 -0.06368896 -0.14510123 -0.11272902
-0.09710799 -0.05225455 -0.114584155 0.07794182 -0.17807528 -0.25276586 -0.13436173 -0.18131754
0.017443392 -0.19084354 -0.0871586 -0.004509763 -0.16137044 -0.18170206 0.034493316 -0.10940896
-0.13929138 0.1336392 -0.21377271 0.11959731 -0.23978244 -0.19621567 -0.035699874 -0.22814448

main.1.running_mean f4 [64]
00000000: 99cc e93c abe6 713c 3d63 adbc de94 db3d
00000010: 6f16 49bc dcd5 ca3d 7e6e 4bbd 36f2 303d
00000020: 31cb 2dbc 819b ff3d ee25 c13d 6665 e2bd
00000030: 5633 37bc 1629 493b e45e 67bd 2b4a e2ba
00000040: c5a4 48bb 0b30 8abd 8844 2b3c 19f1 7d3c
00000050: dbd4 89bc f32d e03c ab55 eaba 0e75 583d
00000060: ac61 a3bc 0f11 ff3c 1378 e03b 4139 fbbc
00000070: 1e02 e93c fe81 5b3d fc83 343d d713 86bd
00000080: befc 6c3b 32a8 743c adae da3d 1efa c5bc
00000090: 1ff1 c13c 06bb 663c d59f fe3b c966 793d
000000a0: 5c59 753d af3c c53d 7938 08be 7224 8bbd
000000b0: 2328 96bc 8492 263c 8ec9 643c c0a7 363d
000000c0: 5188 e6bc dd6d 6ebc b5ef b33c ebdf 91bd
000000d0: 7842 4b3d 787e ffbc ccce f7bc bb45 d7bc
000000e0: 26da 203d fede 2b3d 1b44 ce3c bc13 7f3d
000000f0: df50 92bb 5453 483d ef8d 173d 7a11 de3d
0.028539943 0.014764468 -0.021165485 0.107217535 -0.012273415 0.09904072 -0.04966592 0.04319974
-0.010607527 0.12480832 0.09431063 -0.110544965 -0.011181673 0.0030694655 -0.05648698 -0.0017264535
-0.0030615788 -0.06747445 0.010453351 0.015499377 -0.01682513 0.02736566 -0.0017878314 0.052846007
-0.019944035 0.031136064 0.0068502515 -0.03066695 0.028443392 0.053590767 0.044071183 -0.06546753
0.0036161388 0.014932679 0.10677848 -0.024167117 0.023674546 0.014082676 0.0077705183 0.06088904
0.059899673 0.09630715 -0.13302793 -0.06794061 -0.018329686 0.010166768 0.01396407 0.044593573
-0.028141173 -0.014552561 0.021964887 -0.07122787 0.049623936 -0.031188235 -0.030249976 -0.026278367
0.039270543 0.04196071 0.02517896 0.06227468 -0.004465207 0.048907593 0.037000593 0.10843177

main.1.running_var f4 [64]
00000000: 2aaf 2d3e c437 fc3d 6da1 1a3e 979b da3d
00000010: c540 273e 49da ee3d 26a8 1d3e 1c91 293e
00000020: 3d18 323e b6d3 263e 0eec d03d 4457 ef3d
00000030: ef8e 353e 599f ef3d d45c 313e 4ce0 443e
00000040: f741 393e 1b07 343e dd74 0f3e 97fb 143e
00000050: 3a46 0d3e 879d 343e 3dd3 2a3e 8ee9 d03d
00000060: aa11 1c3e 634f 0c3e 2a39 e63d 5a60 2d3e
00000070: 6fbf 3a3e ba99 e03d ca31 fc3d a9ec 1a3e
00000080: d337 193e c89b fd3d 805a 1f3e f480 2a3e
00000090: 26e3 bd3d c41e 273e 1191 103e af07 103e
000000a0: c6df 023e f589 133e d1b6 3d3e 1fc1 043e
000000b0: 7081 ed3d e9df ed3d a2d9 0d3e 3fe8 ee3d
000000c0: 37ae 0e3e 7a3d 023e 6505 df3d 1e31 493e
000000d0: c91a 4d3e 53ab d53d da6f 4f3e 8dc1 053e
000000e0: f9c4 233e f686 483e 9a29 df3d 6fe0 4e3e
000000f0: 7758 2d3e 2f4f 023e e308 293e 8065 fb3d
0.16961351 0.12315324 0.15100642 0.10674208 0.16333301 0.11662728 0.15396175 0.16559261
0.17392059 0.16291699 0.10201274 0.116865665 0.17730306 0.11700315 0.17320567 0.19226187
0.1809157 0.17580836 0.14009424 0.14549099 0.1379632 0.17638217 0.16682144 0.10200797
0.15241113 0.13702159 0.11241372 0.16931286 0.18237089 0.10966821 0.12314184 0.15129341
0.14962701 0.123832285 0.15561867 0.16650754 0.09271841 0.1632033 0.14117838 0.14065431
0.12780675 0.14408095 0.1852677 0.12964295 0.11596954 0.11614973 0.13852552 0.11665391
0.13933645 0.12718764 0.10889701 0.19647643 0.20029749 0.10433068 0.20257512 0.13062115
0.15993108 0.19582734 0.10896607 0.20202802 0.16928278 0.12725519 0.16507296 0.12275219

main.3.weight f4 [64, 32, 4, 4]
00000000: 2b10 b4bc 5bca dfba f961 b4bc b03b 6fbd
00000010: 6c2b 5bbe b4b3 c9bd 4d7e a4bd d04e 433b
00000020: 3ec7 90bc ef75 17bd d179 0cbe d045 a4bc
00000030: c256 a4bc 5230 5fbd 1d1e 49bd e876 8cbd
00000040: d738 9e3b 5eca 083d 4397 b2bc a142 5c3c
00000050: fdf1 0c3d 9ee8 843d 9364 3bbd b724 62be
00000060: a136 85bd 7e88 503c b5da 5abb e7a0 8cbd
00000070: 8ba3 1d3d 7023 ad3d 9e74 36bd f0c5 12bd
00000080: 9a22 d53c ff97 8dbd 21c2 ccbd e7f1 0d3c
00000090: ec91 013d f967 3cbd ed29 2ebd d7be 96bd
000000a0: 5497 d4bd 57f8 04bc e18a 4f3d 1f2a 7fbe
000000b0: 3733 273d 40c6 f93c b588 32bd 0814 0bbd
000000c0: 46f8 92bd a0f1 1b3e 31c4 f5bc b05a febc
000000d0: 5104 3fbe d7f7 c83d 48a7 1d3a 2472 0dbe
000000e0: 7295 eabc 0d3e 1abd 8498 86bd 23b6 303d
000000f0: baf7 0cbd 2037 59bb e4a1 453d 4827 c43c
00000100: e877 ebbb 8dfb bbbd f3c4 5cbd d850 24be
00000110: 7d62 233b b2d8 b23d f4fc 313d 4b2f 23be
00000120: f554 0e3c 9890 3fbd f63f f5bd e65c 36be
00000130: 96eb 433d dc59 25be 5d00 8cbc 0471 90bd
00000140: 0a9c 073e 2595 57bd ae5c 60bd d21a ccbd
00000150: 3d22 c43b 1c72 993c 2182 ee3a 3f79 0cbe
00000160: 8c1f 933d 8044 81bd 4c85 c3bd 4944 b4bd
00000170: fd07 04be b404 153e 070d 25bd effc 0dbe
00000180: 2857 2a3d b607 27be 5e93 abbd 482d 67bc
00000190: e632 febd 191d bf3c 1c4b 15be 6f93 bdbd
000001a0: 249f a53c a0e7 49be ee20 56bd 1eee 0fbe
000001b0: e7e9 b2bd 194c 72bd 94ce 18be 9b43 d6bd
000001c0: 24dd ad3c a73a 81bd a484 31be 7aec c0bc
000001d0: aee3 b9bd 46f3 313d 2070 a03d 139c d8bd
000001e0: ca26 f3bd 5952 cc3d 53e1 8b3d 2379 fbbd
000001f0: 0c34 c5bd d90d eebd 19fd b5bd bee9 d5bd
00000200: a542 0b3e c9cc c6bc cf71 b0bd 5387 b93d
00000210: 4ac9 cf3d 0f1a 053e 10a4 093d bca9 86be
00000220: 6035 c33d 25a0 0bbe e051 42bd f0a2 84be
00000230: 8802 213e 8a20 8f3d b211 7cbd b903 cb3c
00000240: b19c 84bd 39b8 26be 6682 e6bd a600 23be
00000250: d628 8abc fc90 d0bd 6327 a13c 8644 99bd
00000260: 73cc 8fbd 72c2 98bd 440b 9fbd 7aca 2bbe
00000270: d2e3 14bd b253 973d 5239 93bd b29f 8d3d
00000280: 1412 013b 9908 043d c4cb b8bc 259c b1bd
00000290: 8c5d 00be 4320 fcbd 2fe2 45bd c29a 75bd
000002a0: b75e f93c 5c31 c83c 1136 3dbd 2739 3ebc
000002b0: 8087 343e a93a 4d3d 5c7f 2d3d c069 d83d
000002c0: abb7 1c3d e5cf be3a 51ea 07bd e27c c9bd
000002d0: d7f8 d2bd 3751 283c c5de b13d 6973 98b9
000002e0: a841 3cbd a960 71bc 15e2 a33c 8ec2 6fbe
000002f0: f7f7 8ebd 472c bcbd 973c afbd d1c0 75be
00000300: 60aa 9eba 9c1b 0e3d 1e23 c9bd 6c6a d3bd
00000310: c987 553d 4c72 97bc 06a2 4cbd 58ae 8dbd
00000320: f3e8 a83c 6952 883c 237c 1fbe dbec 8abd
00000330: cd4f c33d d880 873d 9f6d f2bd e1ea 11bd
00000340: b95e 99bc 21e9 89bd 3e66 31bd 368f 173d
00000350: 9991 953b e43c 18be 692d bdbc afca a6bd
00000360: f147 45bc fabb 04be fd9a f73b 9a19 96be
00000370: f3ce 27bb 3529 a2bc 7ec4 6abb 26b0 c53b
00000380: 9a20 59bd f528 90bd 8e9d 17be f582 bebd
00000390: 77a8 603d 0f48 22bd 70bc e5bd c5fe 8fbd
000003a0: db28 cebd e171 23be 47c3 0bbe 15ca 5bbe
000003b0: 799a 633d 4e81 1ebc cc0d cabd dd6b 96bd
000003c0: 7645 633d 24fe edbd 396f 91bd 3cb0 34be
000003d0: bab3 ddbd 0847 92bc cf54 1e3d 2530 acbd
000003e0: 170a 70bd 0eb4 e6bd 7fb5 a0bd d11b 75bc
000003f0: e9f9 873d 38f0 6dbd 1376 2ebe fea8 e53a
-0.021980366 -0.0017073856 -0.022019373 -0.05840653 -0.21403283 -0.09848729 -0.080319025 0.0029801615
-0.017673131 -0.036977705 -0.13718344 -0.02005282 -0.0200609 -0.05448944 -0.049100984 -0.06858617
0.004828553 0.033396117 -0.021800643 0.01344362 0.034410466 0.06489681 -0.045750212 -0.22084318
-0.0650456 0.012727855 -0.003339452 -0.06866627 0.038486045 0.08454025 -0.04454481 -0.0358333
0.026017476 -0.069137566 -0.09997965 0.008663631 0.031633303 -0.045997594 -0.042520452 -0.073606186
-0.10380426 -0.008115849 0.050669555 -0.24918412 0.040820327 0.03049004 -0.043587405 -0.03395465
-0.07176261 0.15228891 -0.030000778 -0.031049103 -0.1865399 0.09812897 0.00060140016 -0.13813072
-0.028635714 -0.037656832 -0.06572059 0.04314245 -0.034415938 -0.003314443 0.048250094 0.023944512
-0.007185925 -0.09178839 -0.053898763 -0.16046464 0.002493053 0.087327376 0.043454126 -0.1593601
0.0086872475 -0.046768755 -0.1197509 -0.17808875 0.047832094 -0.1614756 -0.017090017 -0.07052806
0.13243118 -0.05263247 -0.054775886 -0.09966053 0.005985527 0.01873117 0.001819674 -0.13718127
0.071837515 -0.063118935 -0.09546909 -0.08802087 -0.12893672 0.14552575 -0.040295627 -0.13866018
0.041587025 -0.16311535 -0.083777174 -0.014109917 -0.12412052 0.023329305 -0.14579433 -0.09256636
0.020217486 -0.19717264 -0.052277498 -0.14055678 -0.087360196 -0.059154604 -0.14922553 -0.104621135
0.021223612 -0.06310015 -0.17335755 -0.02355026 -0.090766296 0.043444894 0.07833886 -0.10576644
-0.11872633 0.09976644 0.068300866 -0.12278964 -0.09629068 -0.11623735 -0.08886165 -0.104449734
0.13599642 -0.024267571 -0.08615457 0.09059014 0.10145815 0.12998222 0.033603728 -0.26301372
0.09531665 -0.13635309 -0.047441363 -0.2590556 0.15723622 0.06988628 -0.061540313 0.024782049
-0.06475199 -0.16281213 -0.1125534 -0.15918216 -0.016865175 -0.101839036 0.019672101 -0.07483773
-0.070214175 -0.074589625 -0.077658206 -0.16776457 -0.03635008 0.073890105 -0.07188667 0.06915225
0.0019694613 0.032234762 -0.0225581 -0.0867236 -0.12535685 -0.12310841 -0.04831141 -0.05996204
0.030440671 0.024437599 -0.04619414 -0.011610306 0.17629814 0.05010477 0.042357787 0.10567045
0.038261097 0.0014557807 -0.033182446 -0.09838273 -0.10301369 0.010273269 0.08685068 -0.00029077686
-0.045961052 -0.014732518 0.020005265 -0.2341406 -0.06980889 -0.09188133 -0.085564785 -0.23999335
-0.0012105219 0.0346943 -0.09821151 -0.10323033 0.052131448 -0.018487118 -0.049959205 -0.06918019
0.020618891 0.016640859 -0.15574698 -0.06783458 0.09536705 0.06616372 -0.11837315 -0.03562439
-0.018721925 -0.06733919 -0.043310396 0.03700181 0.0045644757 -0.14866978 -0.023092942 -0.081441276
-0.012041078 -0.12962332 0.007556318 -0.29316407 -0.002560553 -0.01979504 -0.0035822685 0.0060329614
-0.053009607 -0.07039062 -0.14806196 -0.09302322 0.05484816 -0.0396195 -0.11217582 -0.07031015
-0.10066386 -0.1596141 -0.13648711 -0.21463807 0.05556724 -0.009674383 -0.09865913 -0.07344792
0.055486165 -0.11620739 -0.07101292 -0.17645353 -0.10825296 -0.017856136 0.0386551 -0.0840762
-0.058603372 -0.112648115 -0.07847118 -0.014960245 0.066394635 -0.05809042 -0.17037229 0.0017521677

main.3.bias f4 [32]
00000000: 8c2f d93c aacc 2e3c bc01 efba 3494 f63d
00000010: 290e f7bc f173 6a3c a3fb ff3c f8cd 363d
00000020: 53f4 233c 4491 3ebb 82db 643d 7c5f 11bd
00000030: 3b14 a33c 06b4 f1bc 58a5 b0bc db67 ebbd
00000040: f6d3 803d cd60 9d3d 5ea5 7b3c 8c7a 8abd
00000050: b1ed 643c eaa5 3ebd 2658 54bc 70dd f5bc
00000060: 00f6 943d a554 853d 5a5b 143d a6f8 533d
00000070: dbf3 9dbc 91e9 3b3d f427 efbd cf37 bbbc
0.02651193 0.010668913 -0.001823477 0.12039986 -0.03015812 0.014309869 0.03124792 0.04463002
0.010006982 -0.0029078284 0.0558734 -0.03549145 0.019907108 -0.029504787 -0.021563217 -0.11494418
0.06290428 0.07684479 0.015359251 -0.06761655 0.013972686 -0.046544947 -0.012960469 -0.030012816
0.07273483 0.06510285 0.036219932 0.0517508 -0.019281318 0.045877043 -0.11677542 -0.02285376

main.4.weight f4 [32]
00000000: 6348 4c3f d535 803f 4119 6a3f 82ec 3a3f
00000010: 56db 433f 0a57 5f3f c02e 613f 5414 3b3f
00000020: dd22 8c3f 9073 393f 4697 903f 41d8 5b3f
00000030: fc9a 703f f4d5 823f 9513 423f 8675 383f
00000040: 485a 543f 21a4 5b3f 561f 583f 9a20 143f
00000050: 12fa 2a3f 7222 2a3f 4deb 6c3f c775 593f
00000060: 691d 6c3f 1ea3 483f b19c 6a3f eb63 563f
00000070: cfc2 613f 6304 593f 3046 5c3f 57fd 843f
0.79797953 1.0016428 0.91444784 0.7301713 0.76506555 0.87242186 0.8796196 0.73077893
1.094814 0.7244196 1.1296165 0.8587685 0.9398649 1.0221543 0.7581113 0.72054327
0.8295026 0.85797316 0.84422815 0.57862246 0.66787827 0.6645881 0.9254654 0.8494534
0.92232376 0.783739 0.9164534 0.8374621 0.8818788 0.8477232 0.860446 1.0389813

main.4.bias f4 [32]
00000000: afb1 2abf 254e 13bf b7b0 0abf d510 70be
00000010: a006 25bf a58c 2dbf f472 48bf d52b ddbe
00000020: c7f8 0dbf 7325 10bf 7d8d 1dbf 9e4d e6be
00000030: 0c3a 2ebf db1c 1cbf 9f23 fbbe 1f22 babe
00000040: 3bcd e6be c15c 07bf 22c5 2fbf cd57 d1be
00000050: e69d 2bbe bf90 fdbe 993c cfbc c0c8 34bf
00000060: adfc fcbe 4e97 1dbf a7d7 63bf f2cc 1dbf
00000070: b06a 0fbf 9d84 04bf eb7f 1fbf 7be8 3cbf
-0.66677374 -0.57541114 -0.54175895 -0.23443921 -0.64463234 -0.6779273 -0.78300405 -0.43197504
-0.5545773 -0.5630714 -0.6154402 -0.44981092 -0.6805732 -0.6098153 -0.49050614 -0.36354157
-0.45078453 -0.52875906 -0.68660176 -0.408873 -0.16759452 -0.49524495 -0.02529745 -0.7061882
-0.49411526 -0.61559 -0.89000934 -0.61640847 -0.5602217 -0.5176485 -0.6230456 -0.7379224

main.4.running_mean f4 [32]
00000000: 5e3c 08c0 94ca 98bf bb61 83bf 9417 8abf
00000010: 54f9 cebf bda7 b0bf f073 41c0 af41 6abf
00000020: 0352 44bf 15aa 21c0 8037 74bf cc5b 24bf
00000030: ee3d b8bf 895c 8abf 4485 1dc0 05a9 79bf
00000040: 1e62 cdbf 556d 3dbf 35e8 17c0 f25d 29bf
00000050: 29c7 febf 623e b9bf df05 cebd d184 0ec0
00000060: 6733 76bf 3063 03c0 e578 29c0 c8e9 dcbf
00000070: 086c ccbf 67f3 cbbf 656b fcbf b941 4ebf
-2.1286845 -1.1936822 -1.02642 -1.0788445 -1.6169839 -1.380119 -3.0227013 -0.91506475
-0.7668764 -2.526006 -0.95397186 -0.6420257 -1.43939 -1.080949 -2.461259 -0.9752353
-1.6045568 -0.7399495 -2.3735478 -0.66158974 -1.9904529 -1.4472163 -0.100597136 -2.2268565
-0.96172184 -2.052929 -2.6480038 -1.7258844 -1.5970469 -1.5933656 -1.9720274 -0.80569035

main.4.running_var f4 [32]
00000000: 37c1 c840 dc9c cd40 f367 9e40 6a07 7740
00000010: cff1 e040 2004 bf40 8300 2b41 bb07 9b40
00000020: 19d8 ea40 5377 ec40 f3aa 5040 2046 a540
00000030: e6e1 d840 6e62 a640 9f8c 1341 0219 9b40
00000040: aa72 3d41 c595 4a40 229b 2141 9def 0141
00000050: 6dd0 ea40 1652 cf40 c51b 1541 432d f140
00000060: 3925 bb40 a14a 3341 390a db40 0602 1341
00000070: 922f 0441 b88e e940 d291 f840 e8d1 1641
6.273586 6.425398 4.950189 3.8598275 7.0295177 5.9692535 10.687625 4.8446937
7.338879 7.389566 3.260434 5.16481 6.7775755 5.1995153 9.221831 4.8468027
11.840494 3.1653912 10.100374 8.120999 7.3379426 6.4787703 9.31928 7.536775
5.848294 11.20572 6.844998 9.187994 8.261614 7.2986717 7.7678003 9.426247

main.6.weight f4 [32, 16, 4, 4]
00000000: 4000 3cbb 2fcd 5e3e a887 7ebd 224c 83bd
00000010: ef22 5fbd 5e0b 60bd c2d7 4dbd 2ff5 c53d
00000020: 1acc 2bbd ba54 39be 705c 34bd 9283 8cbd
00000030: 870d aa3b 89d6 9e3d 5642 6e3a 4d16 8cbd
00000040: 339b 853d 0dae c2bc d530 9fbc 25d2 2abd
00000050: 8e15 99bd 2436 283e ef25 9cbd de6e f63c
00000060: 7cae 5d3d ba5f 7e3d 146b 403c c903 a73d
00000070: d618 30bd b290 06bc 0658 bdbd 7389 5dbd
00000080: 6cbe 1dbe d45a 72bd 24d1 c5bd c620 16bd
00000090: 0007 e93d 536b 133e 105e 003d 2b4d 473d
000000a0: 14d6 49bd 81d3 003e ee90 f2bd e3b3 06bd
000000b0: ed63 9f3c 9e59 e33c e71c 5bbd 2229 bbbc
000000c0: 35dc bfbd eb73 723c 4062 f63b 71e3 b7bd
000000d0: f1b7 183d cdf5 783e 73b7 ddbd 0cb4 8cbc
000000e0: 16b9 4a3e 0422 c63d 5583 4f3d 878c eebd
000000f0: a41a 82bd c650 c23b 6ce6 b83c 3f36 ccbd
00000100: efff 86bd ae46 63bd bb7d 31bd 0cdc dfbd
00000110: 80ee 093d 38d1 8ebd d617 83bb f32a b93c
00000120: c5e3 c83d 81af 0fbe 3334 4fbb db32 50be
00000130: ac66 e4bc 1166 59bd 22da cabc 0ac9 9dbc
00000140: 7a6a 47bd a87b a93c 7e70 2fbd 6a33 a53d
00000150: 6e76 903d 5230 2a3c 296a 673e 5bd4 b0bd
00000160: d37a d1bd 1ba2 24bd 7378 48bd ce51 6abc
00000170: ea44 cf3a 3ec9 7cbc f3df 9c3d 42dc ab3d
00000180: af1c 303e 5d52 8b3e 9d9d 9e3d f52a 46bd
00000190: 58fb 673d 1356 0a3e 5386 17bd e5eb cbbd
000001a0: 5a8e 103d a26d 89bd ca48 08bd cd1c 3c3e
000001b0: 83f2 c2bd 319a 43bd 66b0 14be 3b6c adbd
000001c0: 5eb9 a53d d352 89bd 842d dbbd 0f30 8b3d
000001d0: cbe1 163e 477b c03d 0402 8a3d 38a3 88bb
000001e0: 8880 773b 14cb b53c 2e5d 863d af65 4abe
000001f0: b427 c8bd 405b 50be d30c 9c3a d2ed 09be
00000200: eaf7 5dbd 0dac b03c c931 ba3d dbc9 153d
00000210: f479 ee3c 1ece b2bc f017 2e3e ec33 23bd
00000220: bb2b 023d 0bfb ce3c e082 9e3d 45e1 81bd
00000230: 2869 3c3d e48b 0ebe 3979 bfbd e17d 3fbe
00000240: 585b 18be 0a67 39bd 5f97 f8bd 5ec8 e4bd
00000250: f524 473d 477a d73d 7783 0c3e 6646 fc3c
00000260: 02ea 7bbd eeac b6bd 5f3d 403e c037 c3bd
00000270: 373c 923d 0f5b b03c 6b03 2dbd cf2c 33bd
00000280: c747 f3bd 07ba 56bc ec0c 5b3d 9d86 123d
00000290: 1fec 27bd 7578 0ebd f808 1fbe 702e 6a3e
000002a0: 1e75 b33c f013 93bd 48e6 d0bc 01b4 b3bc
000002b0: 6a6f c1bd 0d23 57bd 2b6f 1abe 402e 36bd
000002c0: 91b6 693d d2a6 4ebd 840c ad3b 3b7f 41bd
000002d0: 3815 41bd ed1d 2f3d d7c0 03be 8584 f53b
000002e0: 9663 073e 28ff 5d3e ab4b 16bc 7bea 6b3d
000002f0: 3ca0 8bbd 108d babc 1a7d debd bb5e 24bd
00000300: dd9e 5fbd 3b69 263c c2ce 08be dac7 ab3c
00000310: fe62 00bc c630 f93c 889f 0a3e 742a 923d
00000320: e959 3fbd e0be 0cbe f845 fabd 0a94 eabc
00000330: dadd c5bc e6fd 943d 041a 1d3d 3b31 1abd
00000340: c9f8 bc3c 2cb3 edbc cb9c 55bd 49cf 3abd
00000350: 2627 24be 8ed3 153d 28fe babd f25f cb3d
00000360: 5cb8 bd3c 64f6 63bb 94e3 10bd e377 5e3d
00000370: 2448 3ebe 3129 8bbc 3c83 05bd a3bf f1bc
00000380: d80e e9bc d790 d1bd 98df 403c 93ae 86bd
00000390: 7b24 843d 24d6 973d 4813 3cbd 6336 763d
000003a0: f731 e83c d3e4 b2bd 0d90 433d 91b3 81bc
000003b0: e387 053c 8a37 193c c6ac 683c ca9f 00bd
000003c0: 7dc0 c4bd 9f76 9d3d e7ce 9d3e a613 61be
000003d0: 95e4 e23c 0c47 6b3e ecee 823d d60f 52bd
000003e0: 9246 bbbc 33db 85bc 1342 f2bb b988 8cbd
000003f0: 75f6 1abd 3248 e2bc 5dca 79be bc91 c5bd
-0.0028686672 0.21757959 -0.06214109 -0.064110056 -0.054476675 -0.05469834 -0.05025459 0.09665906
-0.041942693 -0.18098727 -0.044033468 -0.068610325 0.005189601 0.07755763 0.00090888643 -0.06840191
0.065237425 -0.023764635 -0.019432465 -0.041704316 -0.07474814 0.16426903 -0.07624423 0.030082162
0.05412148 0.06210301 0.011744279 0.08155019 -0.042992435 -0.008213209 -0.09245305 -0.05408616
-0.15404671 -0.05916865 -0.09659031 -0.03665235 0.11378288 0.1439641 0.031339705 0.048657577
-0.049276426 0.12580682 -0.118440494 -0.032886397 0.019456828 0.027752694 -0.05349436 -0.022846762
-0.09368173 0.014798145 0.0075190365 -0.08978928 0.037284795 0.24312516 -0.10826006 -0.017175697
0.19797167 0.09674457 0.050662357 -0.11647897 -0.063527375 0.005930039 0.022570811 -0.09971284
-0.06591784 -0.055487327 -0.043332797 -0.109306425 0.033674717 -0.06973499 -0.004000644 0.022603488
0.098090686 -0.14031793 -0.0031616807 -0.203319 -0.027880989 -0.053075854 -0.024762217 -0.019260902
-0.04868553 0.020688847 -0.04283189 0.08066447 0.07053839 0.010387497 0.2259909 -0.086342536
-0.10228505 -0.04019366 -0.048942994 -0.01430173 0.0015813385 -0.015428839 0.076599024 0.0839162
0.17198442 0.27211276 0.07744906 -0.04838081 0.056636184 0.13509397 -0.036993336 -0.09957103
0.035292007 -0.06710364 -0.033272542 0.18370362 -0.09518912 -0.04775447 -0.14520416 -0.08467909
0.080919966 -0.067052506 -0.10702041 0.06796276 0.1473457 0.09398513 0.06738666 -0.004169848
0.003776582 0.022191562 0.06560741 -0.19765352 -0.09773198 -0.20347309 0.0011905677 -0.13469627
-0.054191507 0.021566415 0.09091527 0.036569458 0.029110886 -0.0218268 0.17001319 -0.03984444
0.031779986 0.025266191 0.07739806 -0.06341795 0.045998722 -0.13920552 -0.09349293 -0.18700363
-0.14878595 -0.04526428 -0.12138247 -0.111710295 0.04861923 0.105213694 0.13722025 0.030795287
-0.061502464 -0.089197025 0.18773411 -0.09532118 0.07140391 0.021527795 -0.042239588 -0.043743905
-0.11878925 -0.013105876 0.05347912 0.03577291 -0.040996667 -0.034782846 -0.15530765 0.22869277
0.021906432 -0.07181537 -0.025500432 -0.021936418 -0.09445079 -0.05252366 -0.1508147 -0.0444777
0.057058875 -0.05045206 0.005281033 -0.047240477 -0.047139376 0.04275315 -0.12866531 0.007492604
0.13221583 0.21679366 -0.009173314 0.057596665 -0.06817672 -0.022772342 -0.10863705 -0.040129405
-0.054594863 0.010156925 -0.13360122 0.02096932 -0.007836102 0.030418765 0.13537419 0.071370035
-0.046716604 -0.13744688 -0.12220377 -0.028635044 -0.024153639 0.0727499 0.03835489 -0.037644606
0.023067849 -0.0290161 -0.052151483 -0.04560784 -0.16030559 0.036578707 -0.09130508 0.099304095
0.023159198 -0.0034784311 -0.035373285 0.05431355 -0.18582207 -0.016987415 -0.032595858 -0.029510325
-0.02844946 -0.10232704 0.011772059 -0.06576266 0.064522706 0.07413891 -0.045916826 0.06011046
0.028344138 -0.08735051 0.0477448 -0.015832694 0.008150074 0.00935162 0.014201349 -0.031402387
-0.09607027 0.07688641 0.30821916 -0.21980152 0.027696887 0.22976321 0.06393227 -0.051284634
-0.022860799 -0.016339874 -0.0073931306 -0.06862015 -0.037832696 -0.027622316 -0.24393602 -0.09646937

main.6.bias f4 [16]
00000000: cfc2 c93d bb73 053d 9796 36bd 773a 1abe
00000010: f5fd 04be 66ed 98bd 9f64 e6bd c3cb 793d
00000020: a570 72bd 7f07 24bd 5ffa 183d fabf 53bc
00000030: ed52 1e3e 9934 c93c 0ad1 243e 11f8 d53c
0.0985161 0.032581072 -0.044577207 -0.15061365 -0.12987502 -0.07467155 -0.11249661 0.060985338
-0.059189457 -0.04004621 0.037348147 -0.012924189 0.15461321 0.024561213 0.16095367 0.026119264

main.7.weight f4 [16]
00000000: ac64 663f 97db 493f fa12 483f a73f 0240
00000010: e2fe 313f 21fa 2c3f bc31 513f dc49 3440
00000020: ee22 383f 5a5e 353f 0da0 363f 3e13 273f
00000030: c1fa 3d3f 0eca 223f 7a8b 543f 823a 8a3f
0.89997363 0.7885069 0.78153956 2.035135 0.69529545 0.67569166 0.81716514 2.817008
0.719283 0.70847094 0.7133797 0.65263736 0.74210745 0.6358956 0.83025324 1.0799105

main.7.bias f4 [16]
00000000: 5a07 c8be f614 a2bc 7ab3 19be 77dc 7abf
00000010: 74a8 59bd bb70 18be 24bc 6dbe a776 dabf
00000020: 42a8 dfbd feb6 61be 54fc f7bd fdf6 efbc
00000030: 4952 52be dfe7 edbd 0d3f 88bc d0eb c1be
-0.3906811 -0.019785386 -0.15009871 -0.9799265 -0.053139165 -0.14886753 -0.23216301 -1.706746
-0.109207645 -0.22042462 -0.12108675 -0.029292578 -0.20539202 -0.116164915 -0.016631627 -0.37875223

main.7.running_mean f4 [16]
00000000: 7e30 4bbd 0367 c5bd 54ec a8be f852 b9be
00000010: 9956 fcbe 5073 aebe 3370 20be 9d52 5cbe
00000020: 4937 bdbe 4b86 a6be bac2 a6be e012 69be
00000030: 5f48 e3bd 47dc dabe 8843 34bd 1f48 8abd
-0.049606793 -0.096387886 -0.32992804 -0.36196113 -0.4928482 -0.3407235 -0.156678 -0.2151589
-0.36956242 -0.32524332 -0.3257044 -0.22761106 -0.11097788 -0.42746183 -0.044009715 -0.06752037

main.7.running_var f4 [16]
00000000: 9785 1d3e c345 7740 a213 3a40 eb42 ae3e
00000010: cea4 2241 f105 0240 2e0b 273e 938a 6c3e
00000020: ad20 a140 1078 2740 32b0 a140 b1a9 9c40
00000030: df05 0d40 8959 d340 dcab cb40 255b 3e3e
0.15382992 3.863633 2.9074483 0.3403543 10.1652355 2.0316126 0.16312858 0.23099737
5.0352387 2.616703 5.052758 4.8957143 2.2034833 6.6046796 6.364729 0.18589456

main.9.weight f4 [16, 1, 4, 4]
00000000: eb04 6ebb a8b0 44bd e148 e2bd a0a9 3ebd
00000010: 419e 83bc 9767 033d 591e 37bc 01f2 d3bc
00000020: 4701 09bc 5d57 afbc cad5 523d 2786 c23e
00000030: 6de4 5d3c d7a1 873e af22 2d3f cf6f e73e
00000040: a49a 843d b878 a13d fb9c dabb ee39 3abd
00000050: 180d a2bd ef67 9e3d 3289 37bd c108 263e
00000060: cedb 01bd 15de ad3d 6f89 a13c 4c2b 20be
00000070: 4e61 a43d e91a 1e3d b093 3bbd 0f53 29be
00000080: 3730 bfbd dc31 893d 99a4 0a3e d6de 513c
00000090: 7914 22bd 23ea c73d 0b0b ecbd 3bc5 e0bc
000000a0: 5db4 91bc 8cf6 733e 3eaa f7bb 51fb d8bc
000000b0: b860 4dbc 8821 21bd eded d4bc e737 84bd
000000c0: 388a 2e3e 0238 913d b66a 233c 5675 9bbc
000000d0: cce9 6c3f 3b40 a33f 8cb6 7d3e 632e b73b
000000e0: e67c 003f 5b09 3d3f 560c 023e 1c20 2b3b
000000f0: 5ab7 253c b27d fb3b c4db 983b cab6 5aba
00000100: 6dcb dcbd 0598 e83a a31a f63d 50c3 cf3d
00000110: a918 8ebd 4e81 63bd bbb4 493d 5e27 0abe
00000120: d5ac 033e 9f32 40bd 8714 153c 509b e3bc
00000130: ef8b 263d 3c3c af3d b8e7 553d 7cd6 ccbd
00000140: e1d7 a8bd 6f0c 0dbd 7fd6 35be 8050 94bd
00000150: 5272 e03c e748 dd3d d528 cfbd 4350 26bd
00000160: 7f35 4b3e 20f9 3abe ed4d 643c 37a2 fc3c
00000170: 7b30 a43c dc90 b93d 4dec e1bc 9851 c4bd
00000180: abf8 e43b fcc1 03bd 415e 2bbc de2c 10bd
00000190: dbac 833c fa5e cbbd 6585 b43c 627f 2d3e
000001a0: 67a0 353c 0340 c43e b542 c03e fea4 ad3d
000001b0: 87db a9bb ccd5 87bd e46b 653d 59be 593a
000001c0: 9a76 ab3c e4e4 123e 46f8 963d 08c2 063e
000001d0: 9d87 143c d265 933e 5f59 b23f daae 103f
000001e0: cad7 1b3d dbe1 a23f 725e a93f 06d4 663d
000001f0: d720 eb3b bf70 b43e ce85 793e 691f 28bb
00000200: f54b 4c3d 2365 0e3e 5ac5 bc3d e3d6 ac3d
00000210: 9fd9 babd 2fdc 06bc fa2c d73a 764a 5a3d
00000220: 77ed 10be 2c7d b6bd 6f60 07bd 570d 883d
00000230: e5d9 a6bd 24e3 13be 8693 5b3d 2123 923d
00000240: d15a 2a3d bf27 c9ba 4026 c03d 18df 4c3d
00000250: 798f 6a3e c669 a4bd f645 be3e 632d 33bd
00000260: c082 813e cfd6 a53e 17d2 15be 139a df3c
00000270: fc7e 05bd ea80 cdbc b5fb e53d 46fc 0cbc
00000280: 2591 c73d 3df6 0dbe 0ca6 25be faf1 b13d
00000290: 42e8 233e 09f0 09be 1d30 b73d 951e 60bd
000002a0: c90f 3abd a92c e03c da8a e83d a5b4 63bd
000002b0: aed4 573d f83f ba3d dec0 cabd 378b 9fbd
000002c0: 1b26 08be 6b24 edbd 8f1b 8e3c 97ca bbbb
000002d0: 22ae a63d 3d7b 04bd 922d 2dbc 0a34 43be
000002e0: 128d 983d cb06 dabd 58dc 823c de97 293e
000002f0: 7c21 8fbd 309b 2b3c 4d6f 2e3d 2ff4 603e
00000300: ee90 8c3d 567d 6fbd a1a3 4abd 6748 983d
00000310: 9f9a e53d e438 973d 7c4d 643d ac78 85bd
00000320: 7455 783d 626e 5ebe 0e3d abbd 34ad d9bd
00000330: 53ef 89bc 8a7e 80bd 3660 a9bc dd0f 5d3d
00000340: d4f9 8a3d 6ee1 59bd f82f 8e3c 87fe cdbd
00000350: 07fd acbd 09ea 68be b91f 633e fc7d 62bd
00000360: c0bb c1bd f586 9ebd 6d56 41be 9631 c83d
00000370: 55a5 9dbd 3d9b db3c a3e5 883d 7256 183e
00000380: 1308 d53d 5490 f93b dd05 8fbd bddd 133c
00000390: 52a4 613d 7855 66bd f5ac e73c 70d9 e83d
000003a0: 8f52 76bd 2ec3 8c3d db7f 0b3d 1875 493d
000003b0: e800 c13c e9ec 153d c8ce 9fbd ea76 573d
000003c0: 2961 793b 3b29 de3d 25b4 5f3e 62d6 3e3d
000003d0: 6f9d 0d3c cbec d13e b811 183f ba99 cd3c
000003e0: bc49 963c e90e 423f effd 833e 9ce0 ecbb
000003f0: 217e 0b3c d0f3 373e 8b83 203d 20f8 adba
-0.003631885 -0.048020035 -0.11049057 -0.046548486 -0.016066672 0.032081213 -0.011176669 -0.025872232
-0.008362121 -0.021403963 0.051473416 0.37992975 0.0135432305 0.26490662 0.6763105 0.4520249
0.06474808 0.078843534 -0.0066715456 -0.045465402 -0.07912654 0.077346675 -0.044808574 0.16214277
-0.031703763 0.084896244 0.019718854 -0.15641516 0.08026372 0.038599882 -0.045795143 -0.1653559
-0.09335368 0.06698963 0.13539352 0.012809476 -0.039570305 0.09761455 -0.11525544 -0.027437797
-0.0177862 0.23824519 -0.0075581362 -0.026487025 -0.012535267 -0.03933862 -0.025992358 -0.06455975
0.17044914 0.07090761 0.009974172 -0.018976849 0.92544246 1.2753977 0.24776667 0.0055902465
0.5019058 0.738424 0.12700018 0.0026111668 0.010114515 0.007674896 0.00466487 -0.0008343278
-0.10780988 0.0017745501 0.12016799 0.10144675 -0.06938297 -0.055543236 0.049244624 -0.1349158
0.12858899 -0.046923276 0.009099132 -0.02778402 0.040660795 0.08556411 0.052222937 -0.10001847
-0.08244301 -0.034435686 -0.17757605 -0.07241917 0.027398262 0.10804921 -0.1011521 -0.040603887
0.19844626 -0.18259096 0.013934595 0.030839069 0.020042649 0.09060833 -0.027578497 -0.09585875
0.0069876513 -0.03216742 -0.010459484 -0.03519904 0.016073635 -0.09930225 0.022036264 0.16943124
0.011085606 0.38330087 0.37550893 0.084787354 -0.0051836404 -0.066325754 0.056011096 0.0008306257
0.020930577 0.14345127 0.07371573 0.13159955 0.009065536 0.2878862 1.3933524 0.565168
0.03804759 1.2725176 1.3231947 0.056354545 0.0071755457 0.35242268 0.24367449 -0.0025653488
0.049877126 0.13905768 0.09217329 0.08439424 -0.09123539 -0.008231207 0.0016416602 0.053293668
-0.14153086 -0.089105934 -0.03305095 0.066431694 -0.08147029 -0.14442116 0.053607486 0.071356066
0.041590516 -0.0015346928 0.093822956 0.050017446 0.22906293 -0.08027987 0.3716275 -0.043744456
0.25295067 0.32390448 -0.14630924 0.027295148 -0.032591805 -0.025085885 0.1122965 -0.008605069
0.09744481 -0.13863464 -0.16176623 0.086887315 0.16006568 -0.13470472 0.08944724 -0.054716665
-0.04542521 0.027365046 0.11354609 -0.055592198 0.05269306 0.09094232 -0.09900068 -0.07790225
-0.13295786 -0.11579212 0.017347125 -0.0057309377 0.08138682 -0.03234409 -0.010569947 -0.1906282
0.07448782 -0.10645827 0.015974209 0.16561839 -0.069888085 0.010474011 0.042586613 0.21968149
0.06863581 -0.05846914 -0.049472455 0.07435685 0.11211132 0.07383898 0.055737957 -0.06517157
0.06062837 -0.21721795 -0.08361255 -0.10628739 -0.016837751 -0.062741354 -0.02067576 0.053970207
0.06785932 -0.053193502 0.017356858 -0.10058313 -0.08446699 -0.22745527 0.2218007 -0.05529593
-0.094596386 -0.07740585 -0.18880625 0.09775083 -0.0769755 0.026807422 0.06684425 0.14876726
0.10401931 0.007616082 -0.0698354 0.0090250345 0.05508835 -0.056233853 0.028280715 0.11369598
-0.060137328 0.06873165 0.03405748 0.049183935 0.023560002 0.03660289 -0.07803112 0.05260364
0.0038052297 0.10847708 0.21846063 0.04659117 0.008643492 0.4100097 0.59402037 0.025097717
0.018345706 0.75804 0.25779673 -0.007228924 0.008513958 0.17964101 0.03918795 -0.00132728
