saved_model/G_state_dict: n_epoch= 15, z_dim= 25.pt (torch, 277182 bytes, 19 tensors)

main.0.weight f4 [25, 64, 4, 4]
0.039359204 -0.004658625 -0.018247824 0.058466643 0.016923204 0.050233927 0.30729806 -0.07919103
-0.00033143256 0.08685875 0.2760897 0.0045285583 -0.1611328 -0.07906477 -0.14350165 0.029294807
-0.015100199 -0.09948234 0.09911145 -0.041583728 0.011684803 -0.40940922 0.10341225 -0.21025863
-0.17340027 0.29159483 0.11088069 -0.08140815 -0.040240243 -0.057956316 0.05540113 -0.06125375
0.117547885 0.12264054 0.07331266 -0.042199954 0.15504855 -0.16129827 -0.49852178 0.017509595
0.10058212 0.1791932 -0.0031315836 -0.12149226 -0.05421394 0.0788859 0.14767663 -0.03547237
-0.07432484 -0.035064492 -0.08472653 -0.00845232 -0.018386437 0.22116244 0.15846606 -0.0596385
-0.1695651 0.039996 -0.46399495 0.050932847 0.109084405 0.062405813 -0.035077028 0.00065939705
-0.035412263 -0.3637414 -0.40673786 0.18337084 0.016337419 -0.2689421 0.31466523 0.050930828
0.01741083 0.13307285 -0.10842706 -0.14911021 0.010706219 -0.12464056 -0.032312017 0.007066753
0.021751026 0.0018547613 -0.25289878 0.057252955 -0.14811271 0.053139158 -0.6050484 0.044978023
0.09335729 0.03312625 0.4151449 0.0013765747 -0.042309523 -0.034339044 -0.00021928045 0.021162538
0.07967381 -0.043035958 -0.21667907 0.066273496 0.07038669 -0.064883046 -0.45553643 0.00934095
-0.036454294 0.32453337 0.13971275 -0.03292234 0.13370658 -0.25674158 -0.39831367 0.13006015
0.10029233 -0.1214187 -0.06435504 -0.025972992 0.1124765 -0.13030735 -0.1574397 0.044805646
0.033320237 0.018412482 0.049207337 0.12474927 -0.036378846 0.23401932 0.12833759 0.015057662
-0.07948896 -0.24681869 -0.0040225 -0.07523454 0.06278085 0.20693117 -0.651589 -0.06431911
0.040406566 0.16516946 0.14643794 0.040706843 -0.0031455143 -0.06272894 0.18489453 -0.008716029
-0.07008827 0.059524264 0.024888432 -0.026088858 0.0032646174 -0.19895488 -0.24683762 0.018808436
-0.14624332 -0.42375955 0.28193492 -0.089051805 -0.197504 -0.003655421 0.03348298 -0.06634008
0.007678899 -0.16382843 0.14456671 -0.0024688204 -0.0091358125 0.103862084 -0.35489765 0.18042144
0.0048089228 0.29035845 0.20982748 -0.025673881 -0.14514059 -0.20912975 0.12161627 -0.11517373
-0.010807396 -0.14778556 0.019926965 0.23961924 0.039319217 -0.30426708 0.26754713 -0.24801384
-0.019568043 -0.34384215 -0.093278855 -0.01872648 0.006958414 -0.09714658 0.056942962 0.04727009
0.037274327 0.13963409 -0.170813 -0.1622562 -0.029775428 -0.20933226 -0.048744813 -0.057274144
0.1360765 0.09017931 0.21313418 -0.009704465 0.12398987 0.062726215 -0.1825903 -0.036800645
-0.05168132 0.017971544 0.005061302 0.006398832 0.006861264 -0.26206616 0.17996079 0.045439392
-0.0802346 0.25319684 0.057779297 0.18651797 0.05621362 0.04026556 0.17539966 0.12624149
0.024118384 -0.028330797 0.008289315 -0.011934083 0.17093948 -0.37301606 -0.28552413 -0.10030552
0.04591348 0.12548809 0.0831639 -0.03423655 0.13234562 0.080418706 0.06607321 0.032078575
0.13870879 0.18692705 -0.20038486 0.05843029 0.022901783 0.12573893 0.11122966 -0.14092305
0.17174946 -0.032622036 0.29722685 0.038876295 0.09931251 0.11240693 -0.0077186427 -0.02327416
00000000: 1e37 213d 61a7 98bb 767c 95bc b87a 6f3d
00000010: 88a2 8a3c 17c2 4d3d 2c56 9d3e e82e a2bd
00000020: 20c4 adb9 00e3 b13d a15b 8d3e 4d64 943b
00000030: ffff 24be b6ec a1bd 19f2 12be aafb ef3c
00000040: d366 77bc 66bd cbbd f2fa ca3d b353 2abd
00000050: 9e71 3f3c 169e d1be cdc9 d33d 0a4e 57be
00000060: d78f 31be eb4b 953e 6a15 e33d 51b9 a6bd
00000070: f4d2 24bd 9a63 6dbd 4cec 623d 36e5 7abd
00000080: f2bc f03d f72a fb3d f324 963d dcd9 2cbd
00000090: 0cc5 1e3e 602b 25be 3f3e ffbe 4870 8f3c
000000a0: 00fe cd3d 6c7e 373e 413b 4dbb efd0 f8bd
000000b0: 700f 5ebd ee8e a13d 8b38 173e 7a4b 11bd
000000c0: 9f37 98bd c99f 0fbd 1a85 adbd 997b 0abc
000000d0: 279f 96bc 6878 623e ed44 223e 8047 74bd
000000e0: 79a2 2dbe d8d2 233d bf90 edbe f69e 503d
000000f0: a567 df3d 3d9d 7f3d eeac 0fbd 63db 2c3a
00000100: 730c 11bd 503c babe f23f d0be 91c5 3b3e
00000110: 0dd6 853c c7b2 89be cd1b a13e d89c 503d
00000120: 28a1 8e3c 4044 083e 020f debd 59b0 18be
00000130: 2369 2f3c 8d43 ffbd 9b59 04bd 3990 e73b
00000140: 352f b23c 761b f33a f37b 81be 1382 6a3d
00000150: dcaa 17be 72a8 593d 74e4 1abf e03a 383d
00000160: 1b32 bf3d 64af 073d df8d d43e 2f6e b43a
00000170: c04c 2dbd 19a7 0cbd a6ee 65b9 0f5d ad3c
00000180: 062c a33d 7946 30bd 1ee1 5dbe 66ba 873d
00000190: e626 903d 67e1 84bd 123c e9be c90a 193c
000001a0: 1951 15bd 3d29 a63e dc10 0f3e 93d9 06bd
000001b0: 61ea 083e a273 83be c5ef cbbe 7d2e 053e
000001c0: 1166 cd3d 5eaa f8bd 93cc 83bd 50c5 d4bc
000001d0: 145a e63d 4a6f 05be df37 21be 2086 373d
000001e0: cd7a 083d c6d5 963c a28d 493d 8c7c ff3d
000001f0: fc01 15bd c3a2 6f3e ee6a 033e 69b4 763c
00000200: 1ccb a2bd 0abe 7cbe 2dcf 83bb 9114 9abd
00000210: 3f93 803d c4e5 533e 89ce 26bf bdb9 83bd
00000220: 5b81 253d 2f22 293e d4f3 153e 38bc 263d
00000230: f924 4ebb 0878 80bd fe54 3d3e adcd 0ebc
00000240: 708a 8fbd b7cf 733d d3e2 cb3c 4db8 d5bc
00000250: 31f3 553b d4ba 4bbe 00c3 7cbe 2614 9a3c
00000260: cfc0 15be 03f7 d8be c659 903e cb60 b6bd
00000270: 7d3e 4abe ca8f 6fbb 7325 093d 4fdd 87bd
00000280: 469f fb3b a4c2 27be 4c09 143e efcb 21bb
00000290: 60ae 15bc a5b5 d43d 25b5 b5be 66c0 383e
000002a0: 2b94 9d3b dda9 943e 04dd 563e 0852 d2bc
000002b0: bc9f 14be 1c26 56be f311 f93d 34e0 ebbd
000002c0: 8111 31bc 1955 17be e03d a33c bf5e 753e
000002d0: 300d 213d e5c8 9bbe f0fb 883e 57f7 7dbe
000002e0: 294d a0bc 140c b0be fc08 bfbd 4668 99bc
000002f0: 6803 e43b c9f4 c6bd 063d 693d 489e 413d
00000300: f7ac 183d 3dfc 0e3e 9ae9 2ebe 7d26 26be
00000310: 99eb f3bc 325b 56be a4a8 47bd 4b98 6abd
00000320: a357 0b3e eeaf b83d d93f 5a3e 7aff 1ebc
00000330: 67ee fd3d 9a76 803d f4f8 3abe 46bc 16bd
00000340: cbaf 53bd 0f39 933c 47d9 a53b 4bad d13b
00000350: 74d4 e03b 892d 86be a447 383e a81e 3a3d
00000360: 0a52 a4bd 04a3 813e fca9 6c3d 91fe 3e3e
00000370: 4140 663d 80ed 243d f89b 333e 7345 013e
00000380: eb93 c53c fd15 e8bc e8cf 073c 2c87 43bc
00000390: c20a 2f3e f6fb bebe 3830 92be fb6c cdbd
000003a0: c60f 3c3d f37f 003e d651 aa3d a03b 0cbd
000003b0: 9c85 073e 90b2 a43d 6451 873d d364 033d
000003c0: ad09 0e3e ce69 3f3e b031 4dbe 9a54 6f3d
000003d0: 859c bb3c b5c1 003e 60cc e33d 224e 10be
000003e0: 17df 2f3e af9e 05bd 1e2e 983e c03c 1f3d
000003f0: 5b64 cb3d 9b35 e63d abec fcbb 74a9 bebc

main.0.bias f4 [64]
0.21701366 -0.16840015 0.022659767 -0.044270795 0.13115789 -0.0012976222 -0.21575189 -0.041958682
0.029990524 -0.19200501 0.026813017 -0.18527031 0.025342727 -0.1644764 0.009210066 -0.020011295
-0.005497958 -0.010488602 -0.11406669 -0.083216615 0.0030442318 -0.12630023 0.055965204 -0.019450746
0.061351478 -0.12895241 -0.043601353 0.018009916 0.03101147 -0.048305828 -0.29398534 -0.19042233
0.07984217 -0.04929421 -0.050081342 -0.1839391 -0.026591428 -0.080756746 -0.09065287 -0.1722879
0.04888583 0.09755575 -0.18736458 0.17884012 -0.05133954 -0.023996145 -0.15085316 -0.10706899
-0.042029295 -0.016781049 -0.03998938 0.047391653 0.011812495 -0.09855204 -0.059457134 -0.014643828
-0.061225526 -0.06817721 0.08693079 -0.22919889 0.09830335 0.014532064 -0.068510175 0.23297118
00000000: d438 5e3e 1771 2cbe faa0 b93c 4b55 35bd
00000010: 414e 063e fa14 aaba 10ee 5cbe dedc 2bbd
00000020: b0ae f53c f69c 44be f9a6 db3c 80b7 3dbe
00000030: 8d9b cf3c 806c 28be d1e5 163c baee a3bc
00000040: 3728 b4bb 63d8 2bbc cc9b e9bd 796d aabd
00000050: bc81 473b d954 01be c53b 653d 2c57 9fbc
00000060: b04b 7b3d 1a0c 04be 5597 32bd 8889 933c
00000070: c40b fe3c 55dc 45bd 3f85 96be 12fe 42be
00000080: 4b84 a33d bae8 49bd 1822 4dbd 885a 3cbe
00000090: 44d6 d9bc cb63 a5bd 36a8 b9bd 3d6c 30be
000000a0: 823c 483d 4fcb c73d 80dc 3fbe dd21 373e
000000b0: 6949 52bd 9093 c4bc 4079 1abe fd46 dbbd
000000c0: e926 2cbd 6978 89bc e7cb 23bd c01d 423d
000000d0: 3289 413c a7d5 c9bd 5389 73bd abec 6fbc
000000e0: 9ec7 7abd 7ea0 8bbd c508 b23d 1db3 6abe
000000f0: 4453 c93d e517 6e3c 104f 8cbd ff8f 6e3e

main.1.weight f4 [64]
0.8770379 1.3473697 0.28260112 2.10723 1.3712047 0.39052328 1.4768394 -0.14406617
0.43985978 1.1432248 2.1265416 0.34218553 0.54974824 0.73072165 1.1039126 2.1517556
0.7528274 1.2463651 0.3635252 1.2133182 0.42492518 2.9053853 0.42343995 0.4332463
0.40839374 1.1405607 0.73057854 1.0449483 1.3398606 0.396401 0.63868684 0.9275764
0.5042428 1.1495084 0.4310225 0.512711 1.0921545 1.0459865 0.13074943 0.48202512
0.3267042 0.5509685 0.45261937 1.6532167 1.7443435 0.36723015 0.238331 1.3229442
1.0417627 1.2754495 0.8497569 2.4211116 -0.11851325 0.35966322 0.4018889 0.5883645
0.9264231 0.386359 0.5338815 1.5369661 0.6846613 0.49152222 0.3981234 1.7424304
00000000: 8e85 603f 9c76 ac3f 18b1 903e dbdc 0640
00000010: a383 af3f abf2 c73e 1309 bd3f 1586 13be
00000020: 4d35 e13e 3155 923f 4219 0840 f132 af3e
00000030: 4dbc 0c3f 9310 3b3f 024d 8d3f 5db6 0940
00000040: 4cb9 403f e488 9f3f fa1f ba3e 034e 9b3f
00000050: cb8f d93e d5f1 3940 1fcd d83e 76d2 dd3e
00000060: fc18 d13e e5fd 913f 3207 3b3f dec0 853f
00000070: 8d80 ab3f 12f5 ca3e fb80 233f a675 6d3f
00000080: 0e16 013f 1723 933f fbae dc3e 0741 033f
00000090: b8cb 8b3f e3e2 853f 2ee3 053e ffcb f63e
000000a0: c645 a73e 460c 0d3f babd e73e 9b9c d33f
000000b0: a646 df3f 9705 bc3e 0b0d 743e 3c56 a93f
000000c0: 7b58 853f ee41 a33f ab89 593f 7ef3 1a40
000000d0: 13b7 f2bd c725 b83e 62c4 cd3e 0e9f 163f
000000e0: 102a 6d3f d9d0 c53e 75ac 083f 4ebb c43f
000000f0: f745 2f3f cda8 fb3e d5d6 cb3e f607 df3f

main.1.bias f4 [64]
0.11558003 0.29745355 -0.04345936 0.07300995 0.39657423 -0.057855953 0.43933907 0.7564299
0.07050827 0.16061005 0.37745583 0.0075425133 -0.0190893 0.328887 0.060035933 0.25373593
0.059406016 0.5715966 -0.021375127 0.28571084 -0.07689523 0.2645137 -0.019745797 -0.085817195
0.12998128 0.21834278 0.24773559 0.25472724 -0.054714046 -0.06587528 0.21648331 0.18103383
0.08282384 0.2903654 0.30516234 -0.05616448 0.17407104 0.2236405 -0.014154004 0.021674158
-0.056594074 0.16360705 -0.092045516 0.18640502 0.3446504 -0.07051294 0.027670596 0.166264
0.2699182 0.1660259 0.35069326 0.19779477 0.6139429 -0.057532556 0.18510547 0.0061850953
0.36757123 -0.076662056 0.006006287 0.27665395 0.17022711 -0.07723854 0.08307264 0.34529543
00000000: 39b5 ec3d d54b 983e 7102 32bd 3e86 953d
00000010: c70b cb3e 5dfa 6cbd 0df1 e03e 64a5 413f
00000020: a466 903d f676 243e e441 c13e 3027 f73b
00000030: 2a61 9cbc e063 a83e 3de8 753d ade9 813e
00000040: b953 733d 2854 123f e41a afbc b148 923e
00000050: 3f7b 9dbd 576e 873e f0c1 a1bc edc0 afbd
00000060: d019 053e 4095 5f3e 66ae 7d3e 9c6b 823e
00000070: d61b 60bd 9ee9 86bd cdad 5d3e ef60 393e
00000080: 8c9f a93d c6aa 943e 3d3e 9c3e ba0c 66bd
00000090: ae3f 323e 0402 653e 32e6 67bc 018e b13c
000000a0: 30cf 67bd 9b88 273e 5c82 bcbd f5e0 3e3e
000000b0: 0476 b03e 1769 90bd 72ad e23c 1c41 2a3e
000000c0: b832 8a3e b202 2a3e 118e b33e b68a 4a3e
000000d0: 5d2b 1d3f 42a7 6bbd 4a8c 3d3e 57ac ca3b
000000e0: 4c32 bc3e ff00 9dbd 63d0 c43b 96a5 8d3e
000000f0: 0450 2e3e 3d2f 9ebd fd21 aa3d 90ca b03e

main.1.running_mean f4 [64]
0.22933316 -0.173273 0.019540118 -0.046484243 0.12464827 -0.0017202228 -0.21686488 -0.03713362
0.025429452 -0.20762531 0.0191672 -0.18273324 0.024491047 -0.14280172 -0.00030291945 -0.009199055
-0.010302779 -0.009559018 -0.11471964 -0.08709373 0.006469121 -0.1341772 0.06253667 -0.010167618
0.07110519 -0.113294736 -0.041114163 0.0100914175 0.029966468 -0.04609859 -0.29897183 -0.1903536
0.07551816 -0.038634155 -0.049519606 -0.19411692 -0.03862712 -0.08655635 -0.094196826 -0.18300043
0.05590135 0.08436599 -0.19222714 0.1760717 -0.05724973 -0.024748327 -0.14690883 -0.11262585
-0.022187013 -0.02638966 -0.04516418 0.045319326 0.0037545832 -0.0877101 -0.050202392 -0.018353755
-0.04908042 -0.056256276 0.08589346 -0.22136398 0.098619245 0.017501872 -0.079474404 0.2356534
00000000: 50d6 6a3e 7a6e 31be 9912 a03c 4366 3ebd
00000010: 9847 ff3d 1979 e1ba d411 5ebe 6c19 18bd
00000020: 6d51 d03c bb9b 54be 8804 9d3c 6c1e 3bbe
00000030: 73a1 c83c 9d3a 12be 29d1 9eb9 a2b7 16bc
00000040: fdcc 28bc 6d9d 1cbc 21f2 eabd 335e b2bd
00000050: ecfa d33b bf65 09be 3a13 803d 1596 26bc
00000060: 999f 913d 1207 e8bd 5367 28bd 7956 253c
00000070: 3d7c f53c e0d1 3cbd d612 99be 0eec 42be
00000080: 44a9 9a3d d93e 1ebd 12d5 4abd 96c6 46be
00000090: 7937 1ebd 7544 b1bd 44ea c0bd 7764 3bbe
000000a0: d0f8 643d 13c8 ac3d 31d7 44be 244c 343e
000000b0: b17e 6abd 01bd cabc 456f 16be 62a8 e6bd
000000c0: 8ac1 b5bc 212f d8bc 13fe 38bd c2a0 393d
000000d0: 740f 763b 5aa1 b3bd 06a1 4dbd 9d5a 96bc
000000e0: 8d08 49bd fb6c 66bd e9e8 af3d 3dad 62be
000000f0: e3f8 c93d 1660 8f3c 7ac3 a2bd 204f 713e

main.1.running_var f4 [64]
0.49484614 0.5644411 0.5795924 0.6193859 0.6005531 0.47896478 0.68704253 0.55590814
0.455635 0.5656478 0.682183 0.5464649 0.5654505 0.577596 0.52556545 0.6407444
0.5548932 0.6258171 0.53262484 0.68505234 0.5019881 0.6385825 0.45092088 0.5230016
0.5617952 0.60491127 0.5161005 0.57529354 0.5911205 0.425389 0.56786627 0.57998353
0.47280627 0.609061 0.65846646 0.5013053 0.6158799 0.5126263 0.42107847 0.63304657
0.4170451 0.64195114 0.5101668 0.61036295 0.5680188 0.437113 0.43979007 0.5452537
0.5482905 0.5485045 0.5853565 0.6493344 0.49287176 0.43748376 0.53301126 0.55212766
0.60363555 0.41101974 0.5197549 0.56819224 0.57238096 0.5730964 0.6017647 0.670378
00000000: 795c fd3e 367f 103f 2b60 143f 1390 1e3f
00000010: d9bd 193f df3a f53e 05e2 2f3f ff4f 0e3f
00000020: fe48 e93e 4bce 103f 8ca3 2e3f 20e5 0b3f
00000030: 5dc1 103f 55dd 133f 758b 063f d307 243f
00000040: 7b0d 0e3f 8d35 203f 1a5a 083f 975f 2f3f
00000050: 4b82 003f 257a 233f 1adf e63e 6fe3 053f
00000060: cfd1 0f3f 77db 1a3f 2a1f 043f 7046 133f
00000070: ac53 173f 96cc d93e af5f 113f cd79 143f
00000080: aa13 f23e 6ceb 1b3f 4291 283f 8b55 003f
00000090: 4eaa 1d3f 7a3b 033f 9997 d73e 570f 223f
000000a0: ef86 d53e e956 243f 4b9a 023f bf40 1c3f
000000b0: ae69 113f 46cd df3e 2a2c e13e bf95 0b3f
000000c0: c45c 0c3f ca6a 0c3f ecd9 153f c73a 263f
000000d0: b059 fc3e dffd df3e 6d73 083f 3d58 0d3f
000000e0: dc87 1a3f 2e71 d23e a80e 053f 0c75 113f
000000f0: 8f87 123f 72b6 123f 400d 1a3f e59d 2b3f

main.3.weight f4 [64, 32, 4, 4]
-0.112077996 -0.07456343 -0.06983867 -0.06769915 -0.17757796 -0.18901448 -0.4587015 -0.28198183
0.1595182 -0.12616625 0.091029115 -0.24343717 -0.42294908 0.13098301 -0.11764855 -0.031420466
-0.27386692 -0.116198175 -0.26676556 -0.42235547 -0.37471846 -0.19007196 0.029067773 -0.18018055
0.17887367 0.28005996 0.05872244 -0.16632265 -0.1721648 0.08123937 -0.39381963 -0.25035352
-0.13698536 -0.024506437 -0.114380546 -0.17025322 -0.02025702 -0.13475521 0.4153999 -0.3211274
0.068246126 -0.22796388 -0.18205193 -0.14451262 0.14097825 0.085119665 0.23610505 -0.012534474
-0.06179978 -0.34561467 0.104276806 -0.36931795 0.008753385 0.13884132 -0.23711178 -0.0683309
0.039608296 -0.12051383 -0.49048 -0.17493156 -0.08621309 0.29611388 -0.08876806 -0.0042412383
-0.0399228 -0.07215469 -0.33386263 -0.22528064 -0.04341394 -0.27664238 0.022511672 -0.092173934
-0.007954925 -0.32555154 0.16674292 -0.40349013 0.010966806 -0.14910689 -0.068934895 -0.09708473
-0.06860801 -0.13353617 -0.08722846 0.03790188 -0.092814706 -0.06808273 0.017688967 -0.08149571
0.114099026 -0.032152746 -0.016131977 -0.16860162 0.033609148 0.11548402 0.24244939 0.058041997
-0.36749226 -0.046403486 -0.30829987 -0.09830819 -0.32494062 0.19901845 -0.07724512 -0.44998837
-0.035303295 -0.07557603 0.06185295 -0.13252634 -0.1314629 -0.042890504 0.15423508 -0.22278522
-0.14338213 0.18765529 0.045192447 -0.08824312 -0.3100946 -0.11407447 -0.1386743 -0.54621387
-0.1615439 0.13257 -0.0639938 0.15835656 0.097060926 -0.059580103 -0.19109769 -0.18417682
0.0614269 0.117211625 -0.28150812 0.12697296 0.424632 0.45258012 0.12117711 -0.290633
-0.26318446 0.039939743 -0.20344001 -0.39217287 -0.016533324 0.22531486 0.15085945 -0.045066267
-0.050421495 0.38938987 -0.26030645 -0.31070146 -0.059625316 0.21480438 -0.19328354 -0.19652504
-0.15231825 -0.26025587 -0.07389372 -0.11355832 -0.027455153 0.19235016 -0.15767236 0.1796492
0.11981962 0.5132305 0.4226517 -0.025853543 0.2097151 -0.061156444 0.16040112 -0.03513057
0.3020589 0.0555617 -0.60508144 0.23273921 -0.19406024 0.2421734 -0.28131193 0.16597928
-0.12373143 -0.076758415 -0.07233077 -0.17589499 -0.22674198 -0.05804632 -0.11862388 0.014673732
0.28712022 -0.032791596 -0.12278028 -0.09854021 -0.1530845 0.18424265 -0.24598922 -0.4733826
-0.110985905 0.05597409 -0.06842347 -0.06104976 -0.23346128 0.11093645 -0.1855354 0.020418823
0.0070688506 -0.12172726 0.104710236 -0.1790496 -0.4099415 -0.058695234 -0.21228087 -0.07134583
0.20829444 0.109022774 0.09816298 -0.14016823 0.23560782 -0.50268245 -0.29209498 -0.38621905
0.4261433 0.2153873 0.037958585 -0.11632535 0.29849643 -0.12601277 0.050256982 -0.18262257
0.17958376 0.05083242 0.004567473 -0.101749256 -0.05352098 -0.0681305 0.019060979 -0.14894304
0.42317957 -0.051545437 0.14056036 -0.08038349 0.036820535 -0.15009214 0.022501707 -0.10023555
-0.07384465 -0.0138395205 -0.15678991 -0.2547911 0.22432522 0.10843407 0.03289335 0.092839286
0.18026243 0.01961658 -0.097501636 -0.44676867 -0.16377313 -0.140715 -0.36894974 0.19379012
00000000: 2689 e5bd b6b4 98bd 9407 8fbd daa5 8abd
00000010: ffd6 35be 038d 41be ecda eabe ec5f 90be
00000020: bd58 233e ba31 01be 796d ba3d 9847 79be
00000030: c88c d8be 6920 063e b9f1 f0bd bfb2 00bd
00000040: 4938 8cbe 4ff9 edbd 7f95 88be fa3e d8be
00000050: 19db bfbe 39a2 42be 8a1f ee3c 4081 38be
00000060: a92a 373e 0564 8f3e f186 703d 7c50 2abe
00000070: f84b 30be d460 a63d baa2 c9be 562e 80be
00000080: e445 0cbe b9c1 c8bc 5940 eabd dc56 2ebe
00000090: 0df2 a5bc 45fd 09be 4caf d43e d06a a4be
000000a0: a0c4 8b3d 5d6f 69be d26b 3abe 1efb 13be
000000b0: 9a5c 103e 3853 ae3d 86c5 713e 655d 4dbc
000000c0: c421 7dbd 68f4 b0be 148f d53d 3e17 bdbe
000000d0: 5c6a 0f3c 6b2c 0e3e 6ecd 72be 12f1 8bbd
000000e0: 4f3c 223d f4cf f6bd 3220 fbbe 4221 33be
000000f0: 7d90 b0bd 3d9c 973e 07cc b5bd 16fa 8abb
00000100: 1786 23bd d7c5 93bd 0bf0 aabe f8af 66be
00000110: d1d2 31bd 12a4 8dbe 666a b83c b0c5 bcbd
00000120: 6055 02bc b1ae a6be a8be 2a3e 4296 cebe
00000130: 1eae 333c 7aaf 18be bd2d 8dbd 5cd4 c6bd
00000140: 5b82 8cbd b5bd 08be d6a4 b2bd 003f 1b3d
00000150: a315 bebd f56e 8bbd 74e8 903c 39e7 a6bd
00000160: c0ac e93d 99b2 03bd 3527 84bc e7a5 2cbe
00000170: bfa9 093d e382 ec3d a744 783e 72bd 6d3d
00000180: f227 bcbe 9511 3ebd 7bd9 9dbe ce55 c9bd
00000190: 9e5e a6be 7ecb 4b3e b132 9ebd e064 e6be
000001a0: 309a 10bd 9bc7 9abd 8559 7d3d fcb4 07be
000001b0: 369e 06be f4ad 2fbd cdef 1d3e cf21 64be
000001c0: c4d2 12be b528 403e b71b 393d cfb8 b4bd
000001d0: b8c4 9ebe e09f e9bd a300 0ebe acd4 0bbf
000001e0: c46b 25be 6ec0 073e 2e0f 83bd 3928 223e
000001f0: e1c7 c63d 440a 74bd 1daf 43be d998 3cbe
00000200: c69a 7b3d a60c f03d d521 90be 3305 023e
00000210: 5e69 d93e 95b8 e73e b42b f83d d9cd 94be
00000220: 1dc0 86be db97 233d 9452 50be e2ca c8be
00000230: e570 87bc f0b8 663e e67a 1a3e 6897 38bd
00000240: c586 4ebd 1c5e c73e e346 85be 4314 9fbe
00000250: ad39 74bd aef5 5b3e 1fec 45be dc3d 49be
00000260: 51f9 1bbe 4240 85be 9755 97bd 4491 e8bd
00000270: a1e9 e0bc 71f7 443e dd74 21be f6f5 373e
00000280: fd63 f53d 1363 033f ce65 d83e cfca d3bc
00000290: 8ebf 563e 2e7f 7abd 3140 243e 13e5 0fbd
000002a0: 77a7 9a3e aa94 633d 9ee6 1abf 3053 6e3e
000002b0: bab7 46be 4efc 773e 1e08 90be 79f6 293e
000002c0: e766 fdbd 8433 9dbd 2822 94bd d11d 34be
000002d0: 0d2f 68be fac1 6dbd 14f1 f2bd 186a 703c
000002e0: 6c01 933e 7b50 06bd 3a74 fbbd 73cf c9bd
000002f0: 2fc2 1cbe 1baa 3c3e 99e4 7bbe 345f f2be
00000300: 944c e3bd 1645 653d 9b21 8cbd 500f 7abd
00000310: 7910 6fbe a632 e33d fefc 3dbe 6045 a73c
00000320: d1a1 e73b 244c f9bd 5272 d63d c758 37be
00000330: dae3 d1be 6a6a 70bd 2860 59be c31d 92bd
00000340: 234b 553e 5547 df3d ac09 c93d 4388 0fbe
00000350: 2d43 713e ccaf 00bf 798d 95be 81be c5be
00000360: 742f da3e 7d8e 5c3e 767a 1b3d fc3b eebd
00000370: 86d4 983e 7e09 01be 44da 4d3d 6901 3bbe
00000380: cee4 373e a835 503d beaa 953b ea61 d0bd
00000390: d138 5bbd 0188 8bbd c525 9c3c 8684 18be
000003a0: feaa d83e 4f21 53bd 0eef 0f3e 19a0 a4bd
000003b0: 21d1 163d c1b1 19be 8055 b83c 4c48 cdbd
000003c0: dd3b 97bd 28bf 62bc 898d 20be fb73 82be
000003d0: 83b5 653e af12 de3d 2dbb 063d 8622 be3d
000003e0: b796 383e f3b2 a03c f0ae c7bd ddbe e4be
000003f0: 25b4 27be 9817 10be fbe6 bcbe eb70 463e

main.3.bias f4 [32]
-0.11253664 0.03546976 -0.08320651 0.13721824 0.04202891 0.01980799 0.02390651 0.07941835
0.016381297 0.09778169 -0.08469549 0.00027720447 -0.000542151 0.08573824 0.05641019 0.021900468
-0.0065869186 -0.025011212 -0.13469455 -0.0070255436 0.030725684 -0.058471274 -0.10702302 -0.032763068
0.019716883 -0.012971274 0.08022078 0.010315282 -0.010404966 -0.05738751 -0.07842255 0.0040370636
00000000: 9c79 e6bd bd48 113d 2d68 aabd f082 0c3e
00000010: 8226 2c3d 5e44 a23c 96d7 c33c 16a6 a23d
00000020: 1232 863c c441 c83d d474 adbd c155 9139
00000030: 231f 0eba 8897 af3d 5f0e 673d 9c68 b33c
00000040: 14d7 d7bb 50e4 ccbc 5eed 09be 8836 e6bb
00000050: 6eb4 fb3c 937f 6fbd e32e dbbd 9132 06bd
00000060: 4d85 a13c 7785 54bc cb4a a43d 6e01 293c
00000070: 9779 2abc 2a0f 6bbd 009c a0bd 5849 843b

main.4.weight f4 [32]
0.8491475 0.77745324 0.75757647 0.6650925 0.9265609 0.780397 0.7321762 0.67462146
0.8826216 0.76048803 1.6949599 0.7416988 0.75625265 1.1865116 0.6845345 0.688379
0.7811674 0.8464156 0.73089653 0.9466835 0.8199233 0.94975823 0.9397524 0.9127988
0.76841587 0.87508595 0.7530484 0.7444844 0.81662315 0.70863676 0.77070177 0.6893126
00000000: bb61 593f 2d07 473f 88f0 413f 8143 2a3f
00000010: 1833 6d3f 19c8 473f e66f 3b3f feb3 2c3f
00000020: 7df3 613f 58af 423f 72f4 d83f f9df 3d3f
00000030: c699 413f 9ddf 973f a73d 2f3f 9b39 303f
00000040: 96fa 473f b1ae 583f 091c 3b3f da59 723f
00000050: 7ee6 513f 5b23 733f 9d93 703f 2fad 693f
00000060: e7b6 443f a205 603f c8c7 403f 8896 3e3f
00000070: 370e 513f 3869 353f b64c 453f ca76 303f

main.4.bias f4 [32]
-0.7655417 -0.9274261 -0.75191855 -0.8740221 -0.8683546 -0.8135893 -0.6998438 -0.73758155
-0.5837029 -0.8415887 0.58463025 -0.9576451 -1.0355656 -0.88840514 -0.6528111 -0.6363414
-0.94097304 -0.9065138 -0.64532334 -0.71549 -1.1116928 -0.8674131 -0.8815564 -0.6154494
-0.9536169 -1.0955162 -0.6005257 -0.76983804 -0.8073706 -0.5982071 -0.9071541 -0.3620942
00000000: 8afa 43bf cc6b 6dbf bc7d 40bf eabf 5fbf
00000010: 7d4c 5ebf 6347 50bf f728 33bf 25d2 3cbf
00000020: 8e6d 15bf 5b72 57bf 54aa 153f 3b28 75bf
00000030: 6a8d 84bf 856e 63bf a11e 27bf 45e7 22bf
00000040: 9ce3 70bf 4a11 68bf e933 25bf 5a2a 37bf
00000050: f34b 8ebf c90e 5ebf aead 61bf 188e 1dbf
00000060: 3d20 74bf e039 8cbf 0dbc 19bf 1b14 45bf
00000070: d7af 4ebf 1a24 19bf 403b 68bf 6964 b9be

main.4.running_mean f4 [32]
-10.131192 -8.55346 -8.121188 -8.131126 -9.337646 -8.886833 -8.338966 -8.99795
-2.8346379 -7.1335416 5.1322966 -10.421314 -9.6962185 -4.1840425 -8.833414 -9.344641
-9.443628 -11.808581 -11.520521 -6.5330844 -9.376013 -8.786216 -8.963569 -3.3465674
-10.2368965 -10.890682 -6.2956724 -5.752481 -4.7218747 -6.840569 -8.749314 -3.660474
00000000: 5d19 22c1 f9da 08c1 63f0 01c1 1819 02c1
00000010: ff66 15c1 7830 0ec1 686c 05c1 9af7 0fc1
00000020: b56a 35c0 f945 e4c0 c63b a440 b4bd 26c1
00000030: b623 1bc1 ade3 85c0 aa55 0dc1 a683 15c1
00000040: 1a19 17c1 f3ef 3cc1 0e54 38c1 070f d1c0
00000050: 2604 16c1 5794 0cc1 c76a 0fc1 292e 56c0
00000060: 54ca 23c1 3c40 2ec1 2676 c9c0 5314 b8c0
00000070: 9919 97c0 f1e5 dac0 31fd 0bc1 3545 6ac0

main.4.running_var f4 [32]
218.5603 58.658 74.99781 65.98586 68.55436 81.580414 56.84149 70.78909
37.110603 63.323757 38.394028 123.96091 72.688866 55.833763 99.53432 106.44204
100.823 131.54216 138.70906 79.84576 54.458282 89.65348 69.41883 55.48242
100.579605 82.189545 75.64422 42.849567 48.984634 86.84112 80.28286 29.463966
00000000: 708f 5a43 cba1 6a42 e1fe 9542 c3f8 8342
00000010: d51b 8942 2c29 a342 b05d 6342 0494 8d42
00000020: 4271 1442 874b 7d42 7c93 1942 fceb f742
00000030: b360 9142 c655 5f42 9211 c742 53e2 d442
00000040: 60a5 c942 cb8a 0343 85b5 0a43 07b1 9f42
00000050: 48d5 5942 954e b342 71d6 8a42 00ee 5d42
00000060: c228 c942 0c61 a442 d749 9742 f565 2b42
00000070: 44f0 4342 a7ae ad42 d390 a042 34b6 eb41

main.6.weight f4 [32, 16, 4, 4]
-0.20783173 -0.19004393 0.2407992 -0.002366371 -0.06143054 0.031885475 -0.09756599 -0.34780404
-0.13719267 0.113155164 0.014644929 -0.058552418 0.052174192 -0.17488721 0.19975899 -0.072303146
0.009295414 0.37073228 0.20502594 0.16502012 0.17478049 0.14657265 0.19417626 0.20879659
0.13690911 0.11587575 0.15113163 0.15773125 0.45136574 -0.21808973 -0.23784566 0.07172714
0.02468493 -0.07391906 -0.10937281 0.16847292 0.10183183 0.42419872 0.04263076 -0.25841987
0.11008179 0.2411795 0.12835176 0.26818085 -0.13926867 -0.5055784 0.27914664 0.21616675
0.1321495 -0.2744426 0.04511772 -0.19946258 0.45456353 0.25044098 0.2626359 -0.10966175
0.22975625 -0.105916165 0.14429033 -0.08737027 -0.10862581 0.19757149 0.29412445 0.0354411
0.030829938 0.17530145 -0.090064935 -0.028946053 0.011582501 0.3933375 0.0046631503 0.2971183
0.37770107 0.5385062 0.20115286 0.39534768 0.06556315 0.5274916 -0.23986328 0.17513137
-0.009360207 0.254823 0.12091392 0.38457662 0.292714 0.02382781 -0.15777914 -0.1517698
0.29290518 0.0015828661 0.20926064 0.22637591 -0.15439014 -0.15981108 0.39365816 0.17071487
0.09925706 0.30068952 -0.025971599 -0.044953108 0.10992066 0.17228511 0.06562956 0.21695812
0.1087621 0.10914211 0.06535545 0.1427737 -0.098175876 -0.020230051 0.43370107 0.1699107
0.18770061 0.23278978 -0.14721294 0.21882366 0.12449291 -0.11663503 -0.1367434 -0.27835542
0.22225077 -0.06546192 0.10485065 -0.25392073 0.0166472 0.05171423 -0.17334954 0.0972181
0.21669011 -0.3797019 -0.06673521 0.0038418095 -0.28431737 -0.08464708 0.06429523 0.13521805
-0.060002144 0.056715857 -0.120563604 -0.2431353 0.27835035 -0.08970072 0.3783984 -0.057612553
0.022038229 0.058961503 0.2992545 -0.063025065 0.32979426 0.23753324 0.4835762 -0.2512079
0.073538914 -0.15161686 0.13859448 -0.068463765 -0.29887712 -0.09517324 -0.12233581 0.2181678
-0.07818861 0.23167536 0.089022964 -0.11817466 0.10353964 0.3178551 0.2511793 0.006598266
-0.3259729 0.71344876 0.14090475 0.16971816 -0.023166329 -0.111830115 0.32268152 0.15684852
0.13593924 0.06474877 -0.14995806 -0.15038761 0.18761149 0.063940324 0.4046358 -0.09256211
-0.14895964 0.08370062 0.1963592 0.1446527 -0.09338241 0.2580611 0.2136289 0.061569624
0.43515685 -0.16928081 0.35026133 0.21085557 -0.027130773 0.45118952 0.30149773 0.013086579
0.103420325 0.319531 0.435817 0.29919568 -0.23047289 0.19796447 0.53051174 0.16778241
-0.015506273 -0.40406618 -0.09822121 -0.1316327 -0.0027473872 0.09713168 0.10923665 0.15262215
0.331969 1.0434543 0.10632533 -0.09085841 0.14404818 0.34322232 -0.26349834 0.13447107
-0.00032562713 -0.008438658 0.20828603 -0.1912954 0.12856391 0.5381647 0.4497453 0.10447903
-0.03165361 0.23084827 0.088232465 0.072307505 -0.5710154 -0.044239644 0.082932316 0.036684517
0.118661396 -0.074947864 0.021781856 -0.16583097 -0.45462757 -0.04104053 -0.026206858 0.1236659
0.08572768 -0.24814186 -0.15872134 -0.09923929 0.45326027 0.36686605 0.11576273 -0.11908243
00000000: d7d1 54be e09a 42be 1194 763e 1e15 1bbb
00000010: 979e 7bbd 589a 023d aed0 c7bd 5f13 b2be
00000020: 3c7c 0cbe e5bd e73d 49f1 6f3c a9d4 6fbd
00000030: 9bb4 553d a215 33be 9f8d 4c3e ac13 94bd
00000040: cb4b 183c 9fd0 bd3e 52f2 513e 09fb 283e
00000050: a8f9 323e 2417 163e 24d6 463e c6ce 553e
00000060: e731 0c3e 4450 ed3d 40c2 1a3e 4d84 213e
00000070: 6919 e73e ea52 5fbe d08d 73be aee5 923d
00000080: 0d38 ca3c e062 97bd dafe dfbd 2a84 2c3e
00000090: 358d d03d 9330 d93e 989d 2e3d 9c4f 84be
000000a0: 9072 e13d c2f7 763e a56e 033e 004f 893e
000000b0: 729c 0ebe 966d 01bf 4fec 8e3e d15a 5d3e
000000c0: 3352 073e be83 8cbe 5ccd 383d eb3f 4cbe
000000d0: 8dbc e83e cd39 803e 3678 863e 5796 e0bd
000000e0: 3945 6b3e 93ea d8bd d8c0 133e 2fef b2bd
000000f0: 3577 debd 2e50 4a3e 7b97 963e b02a 113d
00000100: 118f fc3c 3982 333e f773 b8bd 4620 edbc
00000110: 88c4 3d3c 8863 c93e 57cd 983b e41f 983e
00000120: 0962 c13e 8bdb 093f 04fb 4d3e 036b ca3e
00000130: f945 863d b109 073f b89e 75be a355 333e
00000140: 8e5b 19bc 2978 823e b8a1 f73d 3ae7 c43e
00000150: 9cde 953e 8a32 c33c db90 21be 8b69 1bbe
00000160: abf7 953e 2c78 cf3a 6c48 563e 16cf 673e
00000170: 7318 1ebe 84a5 23be 908d c93e e1cf 2e3e
00000180: 4947 cb3d faf3 993e 64c2 d4bc c020 38bd
00000190: 151e e13d 826b 303e ca68 863d 452a 5e3e
000001a0: aabe de3d e685 df3d 14d9 853d 4533 123e
000001b0: 6f10 c9bd 7eb9 a5bc 110e de3e 12fd 2d3e
000001c0: 9734 403e 7260 6e3e fdbe 16be 4f13 603e
000001d0: 24f6 fe3d 59de eebd 7606 0cbe 9a84 8ebe
000001e0: b595 633e e610 86bd f0bb d63d e601 82be
000001f0: b55f 883c 4dd2 533d 8b82 31be 491a c73d
00000200: 03e4 5d3e 4a68 c2be 78ac 88bd dec6 7b3b
00000210: 0c92 91be 735b adbd 38ad 833d 9a76 0a3e
00000220: cfc4 75bd e34e 683d 0dea f6bd 76f8 78be
00000230: f083 8e3e 03b5 b7bd 6fbd c13e 24fb 6bbd
00000240: 8489 b43c 9e81 713d e337 993e 4913 81bd
00000250: cbda a83e ea3b 733e 4d97 f73e 529e 80be
00000260: 929b 963d 7341 1bbe b6eb 0d3e bb36 8cbd
00000270: 6c06 99be 30ea c2bd 328b fabd 6167 5f3e
00000280: 5a21 a0bd 4e3c 6d3e ac51 b63d 8e05 f2bd
00000290: 970c d43d e7bd a23e 939a 803e 4436 d83b
000002a0: ece5 a6be 94a4 363f 5649 103e 99ca 2d3e
000002b0: 50c7 bdbc 3007 e5bd 8336 a53e e69c 203e
000002c0: a833 0b3e 019b 843d 9b8e 19be 36ff 19be
000002d0: 3a1d 403e 25f3 823d 6c2c cf3e 3491 bdbd
000002e0: e088 18be 3b6b ab3d 6312 493e d61f 143e
000002f0: 473f bfbd 9620 843e 89c1 5a3e 6e30 7c3d
00000300: e1cc de3e f357 2dbe 7455 b33e 86ea 573e
00000310: 5b41 debc 5002 e73e e95d 9a3e 1769 563c
00000320: 09ce d33d 9199 a33e 6823 df3e 2d30 993e
00000330: 1601 6cbe 33b7 4a3e 9ecf 073f 27cf 2b3e
00000340: 060e 7ebc c3e1 cebe 3428 c9bd b9ca 06be
00000350: 820d 34bb f9ec c63d 77b7 df3d fb48 1c3e
00000360: d7f7 a93e e98f 853f 18c1 d93d f913 babd
00000370: 5e81 133e d6ba af3e 41e9 86be c9b2 093e
00000380: efb8 aab9 4c42 0abc ef48 553e f1e2 43be
00000390: 42a6 033e 29c5 093f 0445 e63e 1af9 d53d
000003a0: 37a7 01bd 7d63 6c3e 39b3 b43d f515 943d
000003b0: 112e 12bf a134 35bd 6bd8 a93d 8142 163d
000003c0: bf04 f33d 447e 99bd dd6f b23c 98cf 29be
000003d0: f2c4 e8be 1d1a 28bd c4af d6bc 8c44 fd3d
000003e0: fe91 af3d e618 7ebe d987 22be f83d cbbd
000003f0: bb11 e83e ded5 bb3e 0315 ed3d 7de1 f3bd

main.6.bias f4 [16]
-0.06281365 -0.06560509 -0.2088426 0.23282254 0.04126735 0.21491358 -0.023051187 0.20938466
0.16836675 -0.46753404 0.19199884 -0.019114655 0.10459913 0.11394053 0.057257626 -0.10888381
00000000: 71a4 80bd f65b 86bd d6da 55be 0869 6e3e
00000010: f407 293d 4e12 5c3e d8d5 bcbc ef68 563e
00000020: 5568 2c3e 9f60 efbe 589b 443e 5696 9cbc
00000030: 1238 d63d a759 e93d f986 6a3d 7afe debd

main.7.weight f4 [16]
2.0246556 1.6977476 2.1634982 0.5004701 2.7311738 1.4103206 0.75786996 1.1908262
1.5493848 1.6481754 1.8287865 0.599463 1.5270857 0.79858243 1.6419584 1.8767854
00000000: f593 0140 cb4f d93f c176 0a40 cf1e 003f
00000010: 8dcb 2e40 6385 b43f c403 423f fe6c 983f
00000020: 3e52 c63f 69f7 d23f ad15 ea3f 6876 193f
00000030: 8b77 c33f e66f 4c3f b12b d23f 813a f03f

main.7.bias f4 [16]
-1.9860563 -1.5390544 -1.9250396 -0.55128455 -2.524666 -1.3281351 -0.8393187 -1.2082336
-1.6697463 -1.2846048 -1.9880059 -0.6472764 -1.6562154 -0.8938922 -1.4713303 -1.8577834
00000000: 1837 febf bcff c4bf b367 f6bf fc20 0dbf
00000010: 2194 21c0 5500 aabf 97dd 56bf 66a7 9abf
00000020: 3fba d5bf ee6d a4bf fa76 febf e8b3 25bf
00000030: defe d3bf 1fd6 64bf 8d54 bcbf d9cb edbf

main.7.running_mean f4 [16]
-0.73657405 -0.49400923 -0.61012053 -0.47608936 -0.5829266 -0.12654085 -0.4949914 -0.41599646
-0.47042736 -0.779021 -0.46678042 -0.8284408 -0.27365124 -0.55124 -0.18479165 -0.6901775
00000000: 1e90 3cbf c7ee fcbe dc30 1cbf fcc1 f3be
00000010: ad3a 15bf ed93 01be 836f fdbe 7dfd d4be
00000020: dbdb f0be ec6d 47bf d8fd eebe b214 54bf
00000030: 041c 8cbe 111e 0dbf 063a 3dbe 79af 30bf

main.7.running_var f4 [16]
0.7555457 0.44191974 0.31418565 0.8655105 0.69596803 0.31317762 0.436561 0.69849735
0.69178617 0.3264744 0.7437021 1.018839 0.41925803 0.74315786 0.24131626 0.75932336
00000000: 716b 413f 4e43 e23e f1dc a03e 1992 5d3f
00000010: f62a 323f d158 a03e ec84 df3e b9d0 323f
00000020: e618 313f a727 a73e 4363 3e3f 5169 823f
00000030: fda8 d63e 983f 3e3f 9c1b 773e 0463 423f

main.9.weight f4 [16, 1, 4, 4]
-0.16210368 0.12810455 0.24722047 0.0011304321 -0.049656864 2.834811 0.39761692 0.006459733
0.74649835 3.3098836 0.32109573 0.007180175 2.0367877 0.3194621 0.09602702 -0.00062988186
0.0063492362 0.27043736 0.5986731 -0.056717694 -0.002114402 0.451378 1.7122912 0.15103728
0.035117052 1.4618582 1.5473528 0.02023857 0.0078049786 0.7279337 0.27668712 0.0022432676
0.06351785 3.3736236 -0.028966924 -0.042981777 3.139948 4.7328196 -0.018059675 -0.0018344985
2.0041268 0.7912573 0.030853624 0.0010843399 0.69243556 0.21376078 0.0019512505 -0.0002578899
0.058061793 0.031135457 0.09174857 0.13845928 -0.1604652 -0.15945202 0.14023668 -0.4514438
-0.16934018 -0.5478073 -0.5638773 -0.37563184 -0.012327173 -0.03486022 0.0031420807 0.0075640995
-0.09737164 -0.010747521 -0.011695753 -0.032348007 0.0674825 2.7896943 4.704492 0.0035938523
0.30332226 5.150874 2.9214568 0.19048612 0.0063269925 0.4883891 0.084744476 0.08883979
-0.03696372 -0.051736563 0.13151267 0.0040623173 -0.09843606 0.70168084 1.5682058 1.276747
0.21828216 1.1934707 1.4433389 0.6461921 -0.0043795574 -0.00025218958 -0.010250453 0.00038881096
0.03074084 0.79806167 0.981769 0.40964457 0.4186714 1.5923129 0.9219283 0.10326502
0.12511057 0.09990236 0.12690493 0.04991018 -0.0050821123 -0.017463602 0.0068993964 0.005131104
-0.025584398 0.11533782 0.22815345 0.085956275 0.07679256 1.6201606 0.5931118 -0.08563196
-0.12867463 1.0332159 0.74109495 0.0032830848 -0.124619655 0.45889726 0.28869975 -0.03139925
0.108755104 1.6568086 2.5385299 0.36756504 0.00913492 2.4851658 3.0487678 0.090327874
-0.111555696 -0.02651671 0.25557852 0.12460535 0.005027164 0.0030769655 0.014837687 0.02418465
0.099629164 0.60962397 0.22832221 0.029402709 0.7599496 3.297223 0.20358568 0.016670246
2.1989021 2.4267173 0.028877623 -0.026769482 0.5482891 0.004678424 0.0031275486 0.0007403069
-0.014220493 0.02592751 0.17036457 0.057318296 0.029415881 0.23182897 0.1736876 0.3822469
0.023944547 2.1245313 2.7707667 0.46399477 -0.054601986 1.5388521 1.7365726 -0.10011665
-0.232058 -0.25771478 0.06001344 -0.006184918 -0.5628404 -0.81878275 0.04748266 -0.3018542
-0.06317012 -0.58437043 -0.23939763 -0.19199027 -0.28896764 -0.055453222 -0.025097558 0.0014933898
-0.029492773 -0.019289028 0.009466466 -0.02481896 0.044896867 0.2857717 0.2864726 0.15365183
0.15373053 1.1306341 2.1058934 1.3179773 0.27926958 1.4695845 2.120715 0.67406493
0.1348867 -0.22849883 -0.12594368 -0.07239912 0.55689937 1.0179677 0.2113374 -0.12387954
0.4468861 1.104924 0.19445623 0.26316816 -0.0064231423 0.047680456 0.49171788 0.073718674
0.055012386 0.11996295 0.2737162 0.3145149 0.47800207 1.5236443 1.3956976 0.2224883
0.5421222 2.2054377 0.59052706 0.30449328 0.009012161 -0.0055907858 -0.03750496 -0.045387972
0.020136291 0.090002276 0.2081078 0.7278548 0.014427751 0.075453684 2.393075 1.2584611
0.047887646 0.37709123 1.2037375 0.63416094 -0.013355909 0.053933457 0.21492028 0.2515452
00000000: 82fe 25be d72d 033e 5d27 7d3e 022b 943a
00000010: ff64 4bbd 8b6d 3540 7294 cb3e 2bac d33b
00000020: 841a 3f3f 22d5 5340 a966 a43e ac47 eb3b
00000030: bb5a 0240 8990 a33e d0a9 c43d a81e 25ba
00000040: 410d d03b c476 8a3e a442 193f d050 68bd
00000050: c791 0abb 041b e73e 5c2c db3f 84a9 1a3e
00000060: e6d6 0f3d 2b1e bb3f a80f c63f 5ccb a53c
00000070: e8c0 ff3b dd59 3a3f efa9 8d3e c903 133b
00000080: a615 823d 73e9 5740 0b4c edbc a90d 30bd
00000090: e8f4 4840 4273 9740 e2f1 93bc 8e73 f0ba
000000a0: 9d43 0040 d78f 4a3f bdc0 fc3c 6920 8e3a
000000b0: 7543 313f 1be4 5a3e 1ac1 ff3a 6535 87b9
000000c0: 34d2 6d3d c90f ff3c ade6 bb3d 45c8 0d3e
000000d0: fd50 24be 6447 23be 349a 0f3e a423 e7be
000000e0: 8367 2dbe 193d 0cbf 435a 10bf d152 c0be
000000f0: e9f7 49bc 97c9 0ebd 5eeb 4d3b 44dc f73b
00000100: c86a c7bd 5f16 30bc 8b9f 3fbc 587f 04bd
00000110: 4434 8a3d 5a8a 3240 338b 9640 d686 6b3b
00000120: 0e4d 9b3e f6d3 a440 26f9 3a40 cb0e 433e
00000130: a952 cf3b 230e fa3e 838e ad3d a3f1 b53d
00000140: 4567 17bd b8e9 53bd 42ab 063e 301d 853b
00000150: d898 c9bd 5ba1 333f f8ba c83f 726c a33f
00000160: 5c85 5f3e a6c3 983f 54bf b83f d86c 253f
00000170: 6482 8fbb 5038 84b9 84f1 27bc 53d9 cb39
00000180: 37d4 fb3c c54d 4c3f 3755 7b3f efbc d13e
00000190: 195c d63e e9d0 cb3f 7e03 6c3f 9c7c d33d
000001a0: fc1c 003e 9c99 cc3d 5ef3 013e 9e6e 4c3d
000001b0: d987 a6bb d40f 8fbc 5514 e23b d222 a83b
000001c0: 5f96 d1bc 3c36 ec3d 0fa1 693e d809 b03d
000001d0: 6b45 9d3d 6c61 cf3f 2dd6 173f cf5f afbd
000001e0: 48c3 03be 6b40 843f 66b8 3d3f 0629 573b
000001f0: 9738 ffbd 95f4 ea3e 74d0 933e 809c 00bd
00000200: ffba de3d 4e12 d43f 4677 2240 7c31 bc3e
00000210: a2aa 153c f50c 1f40 031f 4340 d2fd b83d
00000220: 5077 e4bd 9239 d9bc 30db 823e 1731 ff3d
00000230: e8ba a43b eaa6 493b c519 733c e31e c63c
00000240: 600a cc3d 5110 1c3f 4ccd 693e f3dd f03c
00000250: 0f8c 423f b405 5340 c478 503e 0a90 883c
00000260: d0ba 0c40 564f 1b40 c490 ec3c ac4b dbbc
00000270: ad5c 0c3f 774d 993b 8ff7 4c3b 2811 423a
00000280: 12fd 68bc ee65 d43c 0d74 2e3e 97c6 6a3d
00000290: 93f9 f03c 9364 6d3e 2adb 313e deb5 c33e
000002a0: 5b27 c43c 52f8 0740 3e54 3140 b990 ed3e
000002b0: 55a6 5fbd 1bf9 c43f 0348 de3f f509 cdbd
000002c0: 9da0 6dbe 31f3 83be a7d0 753d daaa cabb
000002d0: 4f16 10bf bf9b 51bf 2d7d 423d a28c 9abe
000002e0: 565f 81bd 4d99 15bf a724 75be 1999 44be
000002f0: 91f3 93be eb22 63bd 6599 cdbc d9bd c33a
00000300: d49a f1bc 0604 9ebc 3c19 1b3c 2251 cbbc
00000310: c7e5 373d ab50 923e 89ac 923e e856 1d3e
00000320: 896b 1d3e 9eb8 903f f5c6 0640 7bb3 a83f
00000330: 6cfc 8e3e 581b bc3f cbb9 0740 858f 2c3f
00000340: bd1f 0a3e 99fb 69be 61f7 00be fd45 94bd
00000350: f590 0e3f c44c 823f d568 583e 8eb4 fdbd
00000360: 41ce e43e 266e 8d3f 891f 473e fabd 863e
00000370: 3979 d2bb 954c 433d 72c2 fb3e d1f9 963d
00000380: ab54 613d 23af f53d 8824 8c3e 1908 a13e
00000390: b0bc f43e c706 c33f 38a6 b23f f9d3 633e
000003a0: 85c8 0a3f e425 0d40 c82c 173f 8be6 9b3e
000003b0: bea7 133c e932 b7bb cd9e 19bd bde8 39bd
000003c0: ddf4 a43c 1d53 b83d 361a 553e b154 3a3f
000003d0: 6062 6c3c 7687 9a3d 2428 1940 4115 a13f
000003e0: d625 443d 1a12 c13e 1214 9a3f 5f58 223f
000003f0: bed2 5abc 54e9 5c3d 1014 5c3e 88ca 803e
