saved_model/G_state_dict.pt (torch, 277182 bytes, 19 tensors)

main.0.weight f4 [25, 64, 4, 4]
000000 00 1a e3 bd 6c da 8a bd bb c3 bb bc 3b 7e df bd
       -0.110889435 -0.06779942 -0.02292048 -0.109127484
000010 cf 4a ad b8 4b eb 14 3e b0 d2 04 bc 31 3d 93 bd
       -8.263217e-05 0.14542882 -0.008106872 -0.07189406
000020 79 90 13 bc a3 e8 0d 3e ff df c1 bd 79 6d 33 3d
       -0.009006613 0.13858275 -0.09466552 0.043805573
000030 a4 d5 64 3d 31 79 6d 3e 3f 33 7d 3d e3 71 b7 be
       0.055867806 0.23190762 0.06181645 -0.35829076
000040 16 62 65 3d bc 2b 8b 3c 52 bd 89 bd f2 10 ce bd
       0.056001745 0.016988628 -0.06725563 -0.10061826
000050 c2 0d 9e 3b 8a bd 39 be bd bc 2f 3f ae a6 ec bb
       0.0048234174 -0.1813871 0.68647367 -0.007222018
000060 ce b7 9d bd 19 b8 3e 3c 99 6c 1f bd 0e f5 98 3d
       -0.077010736 0.011640572 -0.038921926 0.074686155
000070 c3 54 c4 bd ab 55 da 3d 31 a1 7a 3d 3e bd fb bc
       -0.095864795 0.10660871 0.06118888 -0.030729886
000080 6c 3b b2 be 9d 60 30 be b7 ee 26 be 5e e4 5b be
       -0.3481096 -0.17224355 -0.16302 -0.21473834
000090 5d c2 00 be 25 4c 99 3c ea df ce 3d 65 69 00 be
       -0.12574144 0.018713066 0.10101302 -0.12540205
0000a0 7d cc 8e 3d a7 3b d5 bb 96 86 3e 3e 8e 8b dc bd
       0.06972597 -0.0065073553 0.18606028 -0.107688054
0000b0 73 a4 f6 bd 06 86 f4 3d 5a 51 8b 3d 0f 40 0a bd
       -0.12043085 0.119396254 0.06802626 -0.033752497
0000c0 5f ee ed bc db 3e 5f bd 3d 03 32 be ae 10 28 bd
       -0.029044328 -0.054503303 -0.17384048 -0.041031532
0000d0 af 7a 80 3c 67 04 8c bd 5c ad 90 bd aa 65 93 3c
       0.0156835 -0.06836777 -0.07064316 0.017992813
0000e0 4e 72 da 3d cb cd 2b be 60 ee 8e be 03 26 a3 bd
       0.10666333 -0.16777723 -0.2791624 -0.079662345
0000f0 49 37 1e 3c a6 f0 04 be 5e ed be bd c4 6a 8f bc
       0.009656736 -0.12982425 -0.09322618 -0.017506965
000100 b9 04 aa 3d 5e 09 32 3c 75 c8 27 be c5 99 03 be
       0.08301682 0.010866491 -0.16385062 -0.12851627
000110 21 08 cb 3d 8a fc 6b 3d b9 8f e7 bd 58 9d 26 be
       0.0991366 0.057613887 -0.1130671 -0.1627096
000120 e7 4f 7b 3d 13 be b4 bd 83 9b e0 3d 28 ef 08 3e
       0.061355498 -0.08825316 0.109671615 0.13372481
000130 d6 b9 2e bd d7 ec 1d 3e 30 7e 8f 3d e2 f3 8b 3d
       -0.042657696 0.15422378 0.0700649 0.06833626
000140 fe 66 b6 3d de 9d c1 3d 7f 46 89 bc e5 3d d9 bc
       0.08906363 0.09453939 -0.016757248 -0.026518771
000150 9e 6a 0a 3e d8 58 35 3d 3a 61 fb 3d 30 ab 87 bd
       0.13517234 0.04427418 0.12274404 -0.06624448
000160 6f 53 fa 3a 06 c3 4b 3c 58 49 0d bd ee dd 06 be
       0.0019098351 0.012436634 -0.034493774 -0.13170597
000170 cc d8 38 be 54 aa ee bc d7 9d f4 bb 22 7d 16 3e
       -0.18051451 -0.029133953 -0.007465105 0.14696172
000180 1d 96 b1 bd c5 52 db 3d e4 3b 2b 3d 0d 3d ca bd
       -0.0867121 0.107091464 0.041805163 -0.09874926
000190 37 86 7b bc 6a 54 cc bc d4 e7 a8 3e 08 21 8b 3a
       -0.0153518235 -0.024942596 0.3298937 0.0010614702
0001a0 e9 90 9b bd 4e 2c 68 bd 4e 7c 13 bd e2 51 78 bc
       -0.07595999 -0.056682877 -0.036007218 -0.015156241
0001b0 8b c7 48 3d 16 aa 73 3e 86 3f c9 3d 9a e1 41 3c
       0.049018424 0.23795351 0.09826569 0.011833573
0001c0 eb 05 68 3d d0 ad 7d be e5 2f 83 3d 0a 0a 5f be
       0.05664627 -0.24773335 0.064056195 -0.21781173
0001d0 92 3f 16 3d 83 4b ba bd 8e 23 e6 bd 2d 61 03 3d
       0.03668172 -0.09096434 -0.1123725 0.032075096
0001e0 53 cb c5 3d 3d 0c 1c bd f1 23 7f bc 1d 4f f2 3b
       0.09657922 -0.03809761 -0.015572534 0.007394685
0001f0 79 77 da 3d 07 34 f7 bd 34 7b 40 bd 0b 96 8d bd
       0.10667319 -0.1207047 -0.046992496 -0.06913384
000200 08 9e dc bc ea a7 8c 3d f1 df b7 3c ca 9b 25 3e
       -0.026930824 0.068679646 0.02244565 0.1617271
000210 9a e5 e8 3d ee b0 f4 bd 42 c5 5a 3d 98 0b 10 3d
       0.11371918 -0.11947809 0.053410776 0.035167307
000220 08 da f1 3d cc 33 0a 3c fa e9 d5 bc 4f 37 aa bd
       0.11809164 0.008435201 -0.026112545 -0.083113305
000230 bc ac ac 3c 5c a2 79 3d db a7 34 bd cd 51 7c bd
       0.02107846 0.060945854 -0.044105392 -0.06160145
000240 02 01 9a bd a1 cb f0 bd 1f cb 7c 3d 82 8e c8 be
       -0.075197235 -0.11757589 0.06171715 -0.39171225
000250 4c d4 ed bc 04 aa 06 3f 85 60 bd 3d 5b bf b2 bd
       -0.029031895 0.52603173 0.09246925 -0.087279044
000260 dd dd 21 bd 9c 42 b9 3d 85 83 9a 3d 13 98 a6 3d
       -0.039518226 0.09045908 0.075446166 0.081344746
000270 d9 44 97 3d 78 77 a2 3e ec 27 33 bd bd 20 16 be
       0.073861785 0.31731772 -0.043739244 -0.14660926
000280 b5 7a 5b bc 95 de 3b 3c 45 61 af bc 91 46 b5 3c
       -0.013395955 0.011466642 -0.021408686 0.022128375
000290 24 ff 30 bd 19 e8 7b bd 26 b2 b2 3e aa b8 0b 3d
       -0.04321207 -0.061500642 0.3490154 0.034111656
0002a0 2d dd 2e 3d 31 07 c5 3d 2c 70 63 be c0 1a ac 3c
       0.0426914 0.09620512 -0.22210759 0.02100885
0002b0 b2 d6 d1 3d 9f 82 06 bd f4 0b a3 bb cb 26 45 bc
       0.10246028 -0.032839414 -0.00497579 -0.012033175
0002c0 d4 bf a3 3d 6f b9 7a 3c 4e 0d b7 bd 6a 18 8f 3d
       0.07995573 0.015303 -0.089380845 0.069870785
0002d0 0a 2e 88 3d bf 6e a8 3c 1c 4c 4d 3e d0 65 8b be
       0.06649406 0.02056062 0.20048565 -0.27226114
0002e0 48 54 99 3d 64 2c 26 be 8c bf cd bd 74 ea 94 3e
       0.074867785 -0.16227871 -0.100463 0.29085124
0002f0 18 96 8f 3d 26 2b 12 be 4a a5 0e be b6 eb 10 be
       0.0701105 -0.14274272 -0.1393024 -0.14152417
000300 a7 1c a0 3d ab cd dc ba 02 62 7f 3e fe 17 9f 3d
       0.07817965 -0.0016845962 0.24939731 0.07768248
000310 63 4b 24 bd 65 1e 67 bb 2f a7 90 be 87 9d 18 3e
       -0.040110957 -0.003526592 -0.2825255 0.14903842
000320 31 cd b4 3a 24 fe 94 bc bc f0 70 3d 4b 1f 71 3d
       0.0013794062 -0.01818759 0.058823332 0.058867734
000330 d5 19 90 3d ec bc c5 bd 76 aa a3 3e c1 41 fd bd
       0.07036177 -0.096551746 0.3196599 -0.12366057
000340 8f 0e 13 be 33 7a b8 3d 74 ab 61 bd ff 7e 06 3e
       -0.14361022 0.09007683 -0.05509515 0.13134383
000350 10 cf f5 3d 32 c7 56 3e 0f 51 32 3d 00 7c d6 3c
       0.12002385 0.20974424 0.043534335 0.026182175
000360 07 07 cd 3c f5 4a 51 be 8d 11 3d bd 3b 91 99 3e
       0.025027765 -0.2043875 -0.046159316 0.29993615
000370 8f 76 1f be 8a 4d 29 be 76 72 d0 3d 60 f9 23 3e
       -0.1557257 -0.16533485 0.10178082 0.16013098
000380 06 fd b4 bd a0 54 a8 3e 7f 1e 8b bd 87 06 22 be
       -0.08837323 0.32877064 -0.06792926 -0.15822802
000390 f3 f0 39 bd 54 d2 ac bc d4 ba d9 bc 71 04 57 bc
       -0.045395803 -0.021096386 -0.026578344 -0.0131236175
0003a0 cc 07 7c 3c 2b c7 2a 3e 5f 08 95 bd 1d 37 41 3e
       0.015382718 0.16677539 -0.07276987 0.1886868
0003b0 30 2e 92 3d d5 38 05 3e 96 9d cd bd 39 29 9a bc
       0.07137716 0.13009961 -0.10039823 -0.018818485
0003c0 b7 82 3f be 52 2e a4 be 4b f5 19 3d ba d7 3e bc
       -0.18702208 -0.3206659 0.037587445 -0.011648113
0003d0 7f 41 08 3e 41 05 91 3c 98 58 d0 3d af c8 1f 3e
       0.13306235 0.0177027 0.10173148 0.15603898
0003e0 1d c8 dd bc 11 4e c1 3c 53 f4 cb 3c e8 b8 cc bd
       -0.02707296 0.023596795 0.024896776 -0.099962056
0003f0 db 09 c9 3d 11 f5 3c 3e a1 eb ae bd fd dc 81 3c
       0.09816333 0.1845286 -0.085410364 0.015852446

main.0.bias f4 [64]
000000 28 13 80 bd 01 c8 b9 3c 7c 8e 5a 3c ba e4 bd bd
       -0.06253654 0.022678377 0.013339635 -0.09272142
000010 27 50 d3 3c a3 15 f8 3d f4 fe fe 3c 8b 62 17 3d
       0.025795056 0.12113502 0.03112743 0.036959212
000020 fd b0 30 3d ea 92 0b bd d2 32 de 3d 9c 8c ef bd
       0.04313754 -0.034075655 0.10849537 -0.11696741
000030 d9 94 10 3e d4 24 dc 3d b0 80 f3 3d 2b 59 ed 3d
       0.14119281 0.10749212 0.118897796 0.11589273
000040 43 2c 13 3d 9b 04 18 3c b0 de 60 3d ae c2 80 3e
       0.035930883 0.009278442 0.05489987 0.2514853
000050 fd d2 18 3e fe ec 15 3d 99 ba c8 3c 14 52 46 bc
       0.14924236 0.036602966 0.02450304 -0.01210453
000060 66 6f 0f 3e 32 0d 0d bd ee d6 4c bd d6 81 0e be
       0.14007339 -0.034436412 -0.05000966 -0.13916716
000070 7c fa b3 3c 92 d7 29 3d 92 43 0f 3e e8 7a 7c bd
       0.021970026 0.04146535 0.1399062 -0.06164065
000080 61 7e 85 bd 5d 05 3c 3e b8 32 40 bd 3a be 20 bc
       -0.065182455 0.18361421 -0.04692337 -0.009810979
000090 68 7a 6e bd 98 10 3c 3d 92 c6 dc 3c 3f 6f 6b bb
       -0.058222204 0.045914263 0.026950154 -0.0035924462
0000a0 f0 53 89 3d 74 d9 1e 3e 8e ae 99 bd 67 61 2f bb
       0.06705463 0.1551264 -0.07503997 -0.0026760937
0000b0 5a 47 f8 3d ed 13 c6 bd 2e cf 63 bd 85 5b bb bc
       0.12122984 -0.09671769 -0.055617504 -0.022870788
0000c0 28 69 98 bd 93 a1 24 3d b2 d9 1a bd cd a1 6e bc
       -0.07441932 0.04019315 -0.037805267 -0.0145649435
0000d0 9b 49 4f bd f0 c3 11 3d 32 64 90 bd 05 98 d4 3d
       -0.050607305 0.03558725 -0.07050361 0.10380558
0000e0 43 83 b7 bc 5e 29 59 bd 4c f1 be 3d 3f ba 86 bd
       -0.022401458 -0.053017966 0.093233675 -0.065784924
0000f0 13 40 02 3e f1 73 b3 3d 01 e9 ff bd f2 82 9e bd
       0.12719755 0.087623484 -0.12495614 -0.077398196

main.1.weight f4 [64]
000000 79 09 57 3f ab 5c 72 3f a2 4f 21 3f 61 66 4c 3f
       0.8399883 0.9467265 0.63012135 0.7984372
000010 a7 4e 8d 3f 53 2b 67 3f 8d 90 52 3f 45 92 33 3f
       1.1039628 0.9030048 0.82251817 0.70145065
000020 5b 9a 02 3f ab 21 8a 3f c5 85 27 3f f1 5a 6e 3f
       0.5101678 1.0791525 0.6543849 0.93107516
000030 70 be 8d 3f cb 2c 64 3f 64 8a 36 3f 5b 1a 7b 3f
       1.1073742 0.8913085 0.7130492 0.9808709
000040 aa ba 38 3f 26 df 56 3f 67 45 51 3f 44 41 5f 3f
       0.72159827 0.8393425 0.81746525 0.8720896
000050 21 b9 46 3f 35 e3 77 3f 92 c3 4b 3f bc 96 82 3f
       0.77626234 0.96831065 0.7959529 1.020225
000060 ff 6d 88 3f 49 69 86 3f cf 27 8c 3f 93 c8 80 3f
       1.0658568 1.050088 1.0949649 1.006121
000070 3f 21 58 3f 8c 38 85 3f ab 97 50 3f 3a cf 82 3f
       0.8442573 1.0407882 0.81481427 1.021949
000080 de c0 3a 3f b0 5e 8d 3f 84 ae 44 3f 1f 3a 6d 3f
       0.7295054 1.1044521 0.7682879 0.9266681
000090 0a 02 40 3f 9b c4 8c 3f 85 5f 8c 3f ad 70 5b 3f
       0.7500311 1.0997499 1.096665 0.85718805
0000a0 62 6f 5b 3f 90 be 4d 3f d5 5c 85 3f 5b 61 4e 3f
       0.8571683 0.803689 1.0418955 0.806173
0000b0 f1 1c 48 3f 28 21 66 3f 9c 7d 44 3f 27 5b 6f 3f
       0.7816916 0.8989434 0.76754165 0.9349846
0000c0 58 5c 6c 3f ad d3 96 3f b1 60 67 3f 6f dc 5c 3f
       0.92328405 1.1783348 0.90381914 0.86273855
0000d0 e9 12 2c 3f 40 b8 34 3f 43 e9 22 3f be 8d 33 3f
       0.67216355 0.70593643 0.6363718 0.70138156
0000e0 ca d0 7b 3f 11 b0 81 3f ea 13 5e 3f ff 2d 34 3f
       0.9836546 1.0131856 0.86749136 0.70382684
0000f0 df 3b 84 3f 37 53 42 3f 8d 16 80 3f ee 8b 68 3f
       1.0330771 0.75908226 1.0006882 0.90838516

main.1.bias f4 [64]
000000 5b 20 28 bf 86 fe 12 bf 58 2a cd bd e8 7c 50 bf
       -0.6567437 -0.5741962 -0.10017842 -0.8144059
000010 07 1d 21 bf 55 32 f0 be 0e 10 1c bf 71 89 f3 be
       -0.6293492 -0.469134 -0.60962 -0.47565797
000020 4d 98 01 bf 2d 0c da be 41 f3 0d bf e8 a9 aa be
       -0.5062302 -0.42587414 -0.554493 -0.33332753
000030 4b 38 a4 be 14 25 e2 be 37 fc 04 bf 59 92 f8 be
       -0.32074198 -0.44168913 -0.5194735 -0.48549154
000040 ff f1 35 bf 46 2b 22 bf 21 82 24 bf 4b d0 f7 be
       -0.7107238 -0.6334728 -0.6426106 -0.48401102
000050 69 eb c5 be 0d 06 03 bf b5 bd 5f bf 21 de d2 be
       -0.38656166 -0.5118111 -0.87398845 -0.41185096
000060 a7 15 29 be 04 0d 33 bf ec 35 f3 be a5 53 1f bf
       -0.16512166 -0.69941735 -0.47502077 -0.62237006
000070 65 1d cb be 02 6e c5 be d7 f3 92 be 7b 69 4f bf
       -0.39670864 -0.38560492 -0.2870166 -0.81020325
000080 e4 54 cc be 4c 90 27 bf af d0 a2 be 2f 61 03 bf
       -0.39908516 -0.65454555 -0.31799838 -0.51320165
000090 3e dd ec be e7 99 0f bf d2 90 46 bf fe 63 f3 bd
       -0.46262544 -0.5609421 -0.7756473 -0.11884306
0000a0 a1 d5 ee be 6a 51 99 be 86 a7 20 bf d7 e6 50 bf
       -0.4664736 -0.29944927 -0.6275562 -0.81602234
0000b0 ab d2 3e bf 4a 26 12 bf f1 5f ac be db 39 ff be
       -0.74540204 -0.57089674 -0.33666947 -0.49848828
0000c0 bb df 22 bf cf 82 63 bf bc 79 bf be e8 c4 0f bf
       -0.63622636 -0.88871473 -0.37397563 -0.5615983
0000d0 05 1a d7 be 6d 2f b0 be 18 99 cd be 17 e4 ab be
       -0.4201204 -0.34411183 -0.40155864 -0.33572456
0000e0 2c ff de be 0f 72 92 be 72 4f d3 be 71 c0 e1 be
       -0.43554056 -0.28602645 -0.4127155 -0.44092134
0000f0 b6 ed 3e bf 95 35 c7 be 97 43 d3 be 4b e0 12 bf
       -0.7458147 -0.38908067 -0.41262504 -0.57373494

main.1.running_mean f4 [64]
000000 7d 89 84 bd 8d d0 a1 3c df 03 aa 3c c9 52 b7 bd
       -0.06471536 0.019752765 0.020753799 -0.08951337
000010 0a 4f ac 3c 6e b7 f1 3d 57 bf d9 3c 4d 9c 30 3d
       0.021033783 0.118025646 0.026580496 0.04311781
000020 cf 5c 30 3d 23 a0 13 bd 0d 33 d4 3d 28 71 f0 bd
       0.04305726 -0.03604139 0.103613 -0.11740333
000030 ba 6b 13 3e 3e b3 d1 3d 04 6b fb 3d 4a cb f4 3d
       0.14396563 0.10239266 0.12276271 0.11952837
000040 d7 b7 25 3d e5 52 61 3c ae 0f 5c 3d 6c 0b 80 3e
       0.040458526 0.013752674 0.05372589 0.25008714
000050 31 df 16 3e fc bd 26 3d 4c db 94 3c 86 c7 88 bc
       0.14733578 0.040708527 0.018170975 -0.016696703
000060 32 80 0b 3e ca 90 1f bd e5 1e 63 bd 4f 2c 0b be
       0.13623121 -0.03895644 -0.055449385 -0.13591121
000070 3f 11 9c 3c 4d 71 2b 3d 76 5f 09 3e 19 23 64 bd
       0.019051192 0.0418561 0.13415322 -0.055697534
000080 83 36 66 bd 74 4f 36 3e 8c 67 5e bd 31 bd 67 bc
       -0.05620433 0.17803746 -0.05429797 -0.014144228
000090 2e 0b 69 bd d7 c5 40 3d 09 21 d7 3c e3 e0 44 bc
       -0.056895427 0.047063675 0.02626087 -0.012016508
0000a0 17 74 87 3d f0 5a 24 3e 30 91 99 bd 24 fc 8a 3b
       0.06613939 0.16050315 -0.074983954 0.0042414833
0000b0 51 39 0a 3e 90 5d be bd 4a f2 6d bd aa d6 b8 bc
       0.13498427 -0.092951894 -0.058092393 -0.022563297
0000c0 db 4f 8c bd 62 55 30 3d c2 19 14 bd e7 1d a0 bc
       -0.06851169 0.043050177 -0.036157377 -0.019545509
0000d0 1e d5 24 bd a0 34 15 3d 54 06 86 bd 71 e8 c8 3d
       -0.040242307 0.03642714 -0.06544176 0.0980996
0000e0 4d 69 a2 bc 95 73 51 bd 9f 57 ce 3d 60 03 88 bd
       -0.019825602 -0.05113562 0.10075306 -0.06641269
0000f0 b0 af 0d 3e 27 fe be 3d ba bd 01 be cb e2 95 bd
       0.1383655 0.093258195 -0.12670031 -0.07318648

main.1.running_var f4 [64]
000000 19 32 be 3e 47 78 b2 3e 65 54 b8 3e c1 bb 8b 3e
       0.37147596 0.3485739 0.36001888 0.27291682
000010 d0 8b a4 3e 77 4f 87 3e 86 9e 8c 3e f7 52 a9 3e
       0.32137918 0.26427814 0.27464694 0.3307111
000020 da d0 88 3e 16 29 c2 3e d3 9f 70 3e fe 0a dc 3e
       0.2672184 0.3792197 0.23498468 0.42977136
000030 a6 78 dd 3e 9f 38 ba 3e 64 4e 9f 3e c7 15 d2 3e
       0.4325611 0.36371323 0.31114495 0.4103224
000040 0e 60 98 3e 93 93 a9 3e a7 fd 85 3e fe 2e b9 3e
       0.29760784 0.33120403 0.26170084 0.36168665
000050 52 79 aa 3e 7f 1f d0 3e 98 80 91 3e 21 88 c2 3e
       0.33295685 0.4064903 0.28418422 0.37994483
000060 63 b5 bd 3e 4e 6c a3 3e a8 28 c9 3e 02 08 c5 3e
       0.3705245 0.31918567 0.3928883 0.38482672
000070 01 cc ca 3e ae 08 c3 3e 9a 27 d1 3e ba fa a2 3e
       0.39608768 0.3809256 0.40850526 0.31831914
000080 7f 0d 65 3e 32 2a bd 3e 21 2d b3 3e 40 ac b2 3e
       0.2236843 0.36946255 0.34995368 0.3489704
000090 52 ed a8 3e c9 30 b6 3e 35 fd e2 3e 1c 54 b6 3e
       0.3299356 0.35584095 0.44333807 0.35611045
0000a0 1f 94 a9 3e 48 25 a3 3e 32 b3 c6 3e 5e 93 a6 3e
       0.3312082 0.3186438 0.3880859 0.32534307
0000b0 9e eb 72 3e 0e 1c c6 3e 6b 3f a9 3e e7 78 95 3e
       0.23722693 0.3869328 0.33056197 0.29193804
0000c0 0e 56 a1 3e 9b 17 9e 3e a1 32 b1 3e be 10 aa 3e
       0.31510967 0.30877385 0.3460894 0.33215898
0000d0 c9 ff 94 3e b4 cf 83 3e f9 94 8b 3e 16 bc 96 3e
       0.291014 0.25744402 0.27262095 0.29440373
0000e0 90 c8 cb 3e c6 11 c5 3e 8f b5 cc 3e 14 67 83 3e
       0.39801455 0.38490123 0.39982268 0.2566458
0000f0 b4 73 b0 3e 50 dc a6 3e 7a fd b9 3e ab 89 9b 3e
       0.34463274 0.3258996 0.363262 0.3037847

main.3.weight f4 [64, 32, 4, 4]
000000 89 55 76 be b4 37 1e be e5 fb 73 be dc 7e 20 3d
       -0.24056067 -0.15450937 -0.23826559 0.039183483
000010 74 d4 4a bc d6 b8 b9 bd c7 16 fb 3d fb 97 57 3d
       -0.012379754 -0.09068458 0.12260204 0.052635174
000020 eb fb 58 3d 92 e3 71 bd cf 7a 82 3d 19 1f f0 38
       0.052974623 -0.05905492 0.0637108 0.00011449884
000030 70 0c 22 3e 3e f2 d3 bd 73 0f 91 3b 31 0c 26 be
       0.15825057 -0.103489384 0.0044268905 -0.16215588
000040 8c a6 f9 bc 83 8a 82 3d 78 24 e7 3d cf 59 62 be
       -0.030474924 0.06374075 0.11286253 -0.22104572
000050 aa a1 73 be c5 9d b8 bd 85 90 e2 bd 87 60 1b be
       -0.23792139 -0.09014467 -0.11062721 -0.15173541
000060 12 ae a5 bd b2 73 69 bd 67 bd 30 bd 22 1c 96 3d
       -0.08089842 -0.0569951 -0.04314938 0.07329585
000070 f1 67 4e be 48 b9 ec bd 09 56 15 be 72 65 00 3e
       -0.20156838 -0.11558777 -0.14583601 0.12538698
000080 7b 1c 54 3e b3 44 31 bb 88 a2 a4 bd a6 74 4c 3c
       0.2071399 -0.0027049005 -0.08038813 0.012478983
000090 59 94 a8 bd 12 47 a8 bd 1e 2e 49 be bc d4 bd bd
       -0.0823142 -0.082166806 -0.19646499 -0.092690915
0000a0 e7 8f 7f bd 5e b8 fd bd 08 a6 c0 3c 05 4e c5 bd
       -0.062393095 -0.12388681 0.02351667 -0.09634022
0000b0 aa f7 58 3d 7b bf 6a bd 4a e2 5d 3e bf 1c 1e bd
       0.052970566 -0.057311516 0.21668354 -0.038601633
0000c0 c6 54 2c be ff 0f c0 bd ac 48 8a bd 70 d5 34 be
       -0.16829214 -0.09378051 -0.06752142 -0.17659545
0000d0 e9 ce 05 be e7 48 e6 bb ed 1d ac bc 1f be 85 be
       -0.13067211 -0.0070277336 -0.021010363 -0.26121613
0000e0 f4 f5 42 3d a0 8d 70 3e e3 32 04 3d bf 72 c0 3d
       0.04759784 0.23491526 0.03227509 0.09396886
0000f0 3c 14 0d be 5d 3a d1 bd 83 db 61 3e ed 76 f0 3d
       -0.1377725 -0.1021621 0.22056393 0.11741433
000100 20 6a 1f bd 01 f2 28 be 2d 42 a6 bd af 51 66 be
       -0.038919568 -0.16498567 -0.08118091 -0.22492097
000110 e6 41 26 be 14 3f 11 be 54 75 25 bc f4 55 09 3e
       -0.16236076 -0.14184219 -0.010098774 0.13411695
000120 c0 73 27 be 80 76 3f 3e be 27 ee 3c 31 9e 0b be
       -0.16352749 0.18697548 0.029071685 -0.13634564
000130 8c 51 08 be 05 99 9d be a7 70 1c be e6 ff fd bd
       -0.13312358 -0.30780807 -0.15277348 -0.124023244
000140 1f 88 53 3e 65 85 b6 bd 2c a1 59 be ba ad 92 be
       0.20657395 -0.08912162 -0.21252888 -0.28648168
000150 67 97 85 3e 44 6e 8d 3d ba 35 db bd d3 95 2c 3d
       0.26092073 0.06905797 -0.10703607 0.04213507
000160 e8 3b 85 bd 8d 63 2f be d0 78 c6 3d 16 ca 62 bc
       -0.06505567 -0.1712782 0.09691012 -0.013842126
000170 21 51 62 be 50 41 05 be 4b bb f5 3d da a7 db bd
       -0.2210126 -0.13013196 0.11998614 -0.107253745
000180 b3 9c 10 3e 1c 23 54 bd f6 c9 03 be ce 93 a0 be
       0.14122276 -0.051791295 -0.1287001 -0.31362766
000190 35 4f 32 be 87 c2 2c be 16 1c 29 be ea f4 43 bd
       -0.17413028 -0.16871081 -0.1651462 -0.04784099
0001a0 20 a6 ae bd ae 8b a5 bb 13 86 eb 3d a3 b6 e1 3d
       -0.085277796 -0.0050520515 0.11500182 0.11021163
0001b0 11 89 27 be 30 cc 49 be b1 ed 28 3d 38 f5 94 3d
       -0.1636088 -0.19706798 0.041242305 0.07273334
0001c0 94 01 6a bd e9 f9 d6 bd 55 00 d5 3c c5 23 05 be
       -0.05713041 -0.10496885 0.026001135 -0.13001926
0001d0 ef a2 44 3d fe db e6 3d b3 18 65 3b 43 56 c7 bc
       0.048006948 0.11272429 0.0034957349 -0.024333125
0001e0 8a 41 87 3d f6 98 e3 bd 76 9f 6a b9 4e c8 c8 bc
       0.066042975 -0.11113159 -0.00022375383 -0.024509575
0001f0 d9 7e 4d 3e f2 c2 a0 3d af d4 1f 3e 7f 1b 64 be
       0.2006792 0.07849683 0.15608476 -0.22276114
000200 dc 26 0a be 11 e5 97 bd 3e 79 da bb 25 d6 4d 3e
       -0.13491386 -0.07416738 -0.006667285 0.20101221
000210 aa 94 cb bd 0e 65 0a bd fb 86 f2 bd af 7b 93 bc
       -0.09940465 -0.03378778 -0.11842152 -0.018003313
000220 43 bc ac 3d 22 32 a2 3b cc 15 b9 bd e3 6b 84 bc
       0.084343456 0.004949824 -0.090373605 -0.016164726
000230 c5 ef 66 be 76 f7 77 3e d0 85 29 bd 3f 4b bf bd
       -0.22552402 0.24215493 -0.04138738 -0.09340524
000240 02 53 18 3e 2a 77 f0 bc 61 5d 75 3d 00 08 b6 bd
       0.14875415 -0.029353697 0.059903506 -0.08888245
000250 b6 40 5a bd 3d a3 11 3e fd 05 e5 bd f4 f1 e1 bd
       -0.05328437 0.14222427 -0.11182783 -0.11032477
000260 42 66 b6 3d 86 6e 76 be 85 25 74 be d4 e7 bf 3d
       0.08906223 -0.24065599 -0.23842438 0.093703896
000270 f8 7e 99 3a 5a 4f 7d bc df 50 3e be 04 50 94 be
       0.0011710813 -0.015460813 -0.18585537 -0.28967297
000280 e2 e3 b7 be 04 04 d5 bd c7 11 9e bd 3f f5 92 3a
       -0.35916048 -0.104011565 -0.077182345 0.0011212005
000290 2e e9 3d 3d da 6d 32 3e 02 7e d7 3d 1f 5b cf 3c
       0.046364956 0.17424718 0.10522081 0.025312005
0002a0 e7 50 58 3a 36 6a 94 3d 72 5d 1e bd 60 c4 ae bd
       0.00082518015 0.07246821 -0.038663335 -0.08533549
0002b0 a6 aa b0 3c 99 68 e9 bd 60 a2 8a be 09 e2 24 be
       0.021565747 -0.113969035 -0.27077007 -0.1610185
0002c0 00 71 5d bc 35 bb 2a 3c 64 c8 b0 3d a7 46 f9 bc
       -0.013515711 0.01042061 0.086319715 -0.030429197
0002d0 4d a2 49 be 1c d9 1f 3b 87 6c f7 bd f0 76 a2 3b
       -0.19690819 0.0024390882 -0.12081247 0.004958026
0002e0 ab 82 8d 3d 56 15 a1 bd bb f6 6a bd 92 8b bb bd
       0.069096886 -0.07865398 -0.057364207 -0.0915748
0002f0 2a 7b 90 3e 4b f6 3f bc d5 30 94 3d 60 6e 24 be
       0.28218967 -0.011716436 0.072358765 -0.1605773
000300 00 9f 8a bc 79 8f 85 be 7c 53 6a be 55 4b 18 bc
       -0.01692152 -0.26086023 -0.2288341 -0.009295304
000310 c7 e4 00 3d c3 08 ef 3b 91 37 89 bd 97 67 6c 3d
       0.03146818 0.0072947457 -0.067000516 0.05771598
000320 c8 f1 c0 3c 90 f0 85 bc 26 79 9d bc fd 72 96 3d
       0.02355279 -0.01635006 -0.019222807 0.07346151
000330 90 42 19 be 5b 90 b1 bd 57 6a 36 bc 2d c6 d2 3d
       -0.14966798 -0.08670112 -0.011133752 0.10291705
000340 19 8a 87 be d1 72 b5 3d c3 95 e5 bd 1d d8 ee bc
       -0.26472548 0.0885979 -0.112102054 -0.029155785
000350 27 e3 fe bc 3a d5 f0 3c d7 66 d4 3c 4c 94 b7 3d
       -0.031114174 0.02939855 0.025927944 0.08963832
000360 f5 22 93 3c 91 3a 4b 3d 51 9c f6 3c f6 87 9b 3d
       0.017961005 0.0496164 0.030103834 0.07594292
000370 39 a6 a4 bd 73 cd 6f be 1a d0 17 be b3 6d 60 bd
       -0.08039517 -0.23418216 -0.14825478 -0.054792117
000380 5c f5 51 bd 40 15 e6 3d 54 08 fc 3d e9 2b 79 bd
       -0.051259384 0.11234522 0.12306276 -0.06083289
000390 6b 3c 4e be dd 9e e8 3d e4 44 51 3c fa d5 8c bd
       -0.20140235 0.11358426 0.012772772 -0.0687675
0003a0 a7 54 1d 3e c6 b1 9f bd 2c 10 26 3e 4c 09 81 bd
       0.15364324 -0.077975795 0.16217107 -0.06300601
0003b0 3a f1 57 be 45 16 05 be 94 d0 0c be e6 47 0f 3e
       -0.21088114 -0.12996776 -0.13751441 0.13992271
0003c0 46 4a c6 bd d0 8e 6e be 7d d4 73 bd 37 47 0a be
       -0.09682135 -0.23296666 -0.059528816 -0.13503729
0003d0 ba bb 00 3e cf 8d fb 3c 6e 9f 6c 3d 1b f5 ef 3d
       0.12571612 0.030707268 0.05776923 0.11716672
0003e0 2e 66 b2 bc d6 8b 74 bc 4c 57 46 bd cc 01 a2 3d
       -0.021777239 -0.014925918 -0.048423097 0.07910499
0003f0 27 20 11 be 5f 00 2e be 36 43 02 be 35 bd 14 be
       -0.14172421 -0.16992329 -0.12720951 -0.14525302

main.3.bias f4 [32]
000000 9e df 72 3d 7b 5c 9a bd a2 97 8f 3a 9e 64 b3 3c
       0.05929529 -0.075371705 0.0010955224 0.021898564
000010 a9 80 32 3e f6 5f 5e 3e 99 8a c3 3c c9 11 b2 3d
       0.17431892 0.21716294 0.0238698 0.086947985
000020 5e c7 2d be a4 14 ec bc 9a 56 c8 3b 46 ad c3 3c
       -0.16970584 -0.028818436 0.0061138393 0.023886334
000030 44 a7 9e bd 37 ce 14 3e c6 f5 c9 bc f3 36 3e 3e
       -0.07746747 0.1453179 -0.024653327 0.18575649
000040 21 c3 ea 3d d7 ab c0 3d 2f 64 ab 3d 1f aa 37 be
       0.11462999 0.09407776 0.08368718 -0.1793599
000050 d3 55 a0 3c 8a ce f2 3d 6f fb a0 bc 6a eb 07 bd
       0.019572174 0.118558004 -0.019651143 -0.033183493
000060 40 de 30 bd ef e9 60 3d 08 d9 17 3e 12 de 13 3d
       -0.043180704 0.054910596 0.14828885 0.036100455
000070 15 1d cc 3d de 61 ca bd 3f 11 91 3d 8c 2a 65 be
       0.099664845 -0.09881948 0.070833676 -0.22379512

main.4.weight f4 [32]
000000 5e f8 58 3f 80 43 6d 3f 60 57 3e 3f 03 69 54 3f
       0.8475398 0.9268112 0.74352074 0.82972735
000010 9f cd 1d 3f 88 70 29 3f de 30 62 3f 1d a8 80 3f
       0.6164188 0.66187334 0.88355815 1.0051304
000020 c0 c0 94 3f 2e b9 06 3f e5 71 54 3f 76 1f 87 3f
       1.1621323 0.5262631 0.8298629 1.0556476
000030 5f 65 47 3f ce 89 3d 3f af 3d 1c 3f 88 25 4e 3f
       0.77889055 0.740384 0.6103162 0.8052602
000040 e4 f2 4e 3f a4 a2 2e 3f d9 7b 3a 3f eb 71 34 3f
       0.8083937 0.6821692 0.72845227 0.70486325
000050 5d fc 37 3f 3a e6 4c 3f 7f e2 4c 3f 56 81 31 3f
       0.7186945 0.800388 0.80033106 0.69337976
000060 25 b9 51 3f a2 0d 79 3f cb 0a 7c 3f 04 f0 3e 3f
       0.81923133 0.9728643 0.9845397 0.74584985
000070 c6 ee 4f 3f 3f 3a 17 3f 3b 8a 1e 3f f3 d9 66 3f
       0.81223714 0.5907325 0.6192967 0.90176314

main.4.bias f4 [32]
000000 28 8e 41 bf 24 04 77 bf da 5e 2e bf ae c1 67 be
       -0.7560754 -0.96490693 -0.6811348 -0.22632477
000010 2d b1 31 bf de 72 39 bf 01 1c 48 bf c0 e9 b0 bd
       -0.69410974 -0.724409 -0.7816773 -0.08638334
000020 d2 1c 03 3d 3b f7 91 be f0 43 4e bf 35 2e ed 3c
       0.032009907 -0.28508934 -0.80572414 0.028952697
000030 ae 55 fa be 04 6f 2c bf 6f e4 cb be 00 1a 4c bf
       -0.48893493 -0.67356896 -0.39822719 -0.7972717
000040 74 8d 5f bf 16 df 51 bf e6 e6 31 bf 49 20 32 bf
       -0.87325215 -0.8198103 -0.6949295 -0.69580513
000050 c3 00 4a bf 65 e0 3f bf 7f 0e 70 bf bc 11 e1 be
       -0.7890741 -0.74951774 -0.9377212 -0.43958843
000060 3e c2 7c bf 64 1e 29 bf 02 58 69 bf c4 c7 63 bf
       -0.9873389 -0.66062 -0.91149914 -0.88976693
000070 a0 a1 6f bf 9f 61 15 bf 52 b4 25 bf 96 e0 35 bf
       -0.93605995 -0.5835208 -0.6472827 -0.71045816

main.4.running_mean f4 [32]
000000 79 4d b3 bf 1c f2 ad bf 95 7a 8c bf ea 9f 54 bf
       -1.4008018 -1.3589511 -1.0974909 -0.8305651
000010 9f e4 87 bf ba 7b a1 bf ba 7a 93 bf 64 2d 1f bf
       -1.0616645 -1.2615883 -1.1521828 -0.62178636
000020 4c 7f 27 bf df f2 a8 bf b8 a5 9d bf 0a c6 f7 be
       -0.65428615 -1.3199118 -1.2316198 -0.4839328
000030 cc 26 bf bf f9 b2 8b bf 1a 07 ac bf e8 44 97 bf
       -1.4933715 -1.0913993 -1.3439667 -1.1817904
000040 4d af a1 bf 38 5a a7 bf 07 63 9c bf 5d 8d b7 bf
       -1.2631623 -1.3074408 -1.2217721 -1.4340016
000050 b3 f2 91 bf f4 dd 8c bf 3b 29 a2 bf f3 22 9d bf
       -1.1402191 -1.1005235 -1.2668833 -1.2276291
000060 70 d8 9c bf 8a c2 9d bf eb 03 83 bf d2 e5 a4 bf
       -1.2253551 -1.2324994 -1.0235571 -1.2882636
000070 6b 62 a0 bf bc cb 98 bf 90 e0 88 bf 94 cb bb bf
       -1.2530035 -1.1937175 -1.0693531 -1.4671502

main.4.running_var f4 [32]
000000 b8 57 0b 40 f3 ea 02 40 4d 33 cb 3f d1 de f4 3f
       2.177229 2.0455902 1.5875031 1.9130498
000010 92 f2 cd 3f d3 1f eb 3f 5f 0e e4 3f f2 e5 1d 40
       1.6089652 1.8369087 1.7816886 2.4671597
000020 38 40 44 40 e0 0e fb 3f e4 eb df 3f 05 79 4a 40
       3.0664196 1.9613914 1.7493863 3.1636364
000030 19 6a dd 3f 0c 0c e2 3f 63 30 9d 40 a5 1e f2 3f
       1.7298003 1.7659926 4.9121566 1.8915602
000040 82 61 01 40 09 9d cf 3f 6f a4 dc 3f a8 4b bf 3f
       2.0215764 1.6219798 1.7237681 1.4944963
000050 79 2d e0 3f bc 38 df 3f b7 fd cd 3f f3 f7 e8 3f
       1.7513877 1.7439189 1.6093053 1.8200668
000060 32 19 df 3f 0c 79 06 40 0e 92 0b 40 8e d0 de 3f
       1.7429564 2.101138 2.1807895 1.7407396
000070 1f 6e d3 3f aa e1 da 3f e1 35 e8 3f e6 19 f7 3f
       1.6517981 1.7100117 1.8141443 1.9304779

main.6.weight f4 [32, 16, 4, 4]
000000 9f 86 5e bd 95 ed 4c 3c fb 36 04 be 16 73 9c bd
       -0.054327603 0.012507816 -0.12911598 -0.076391384
000010 2f 36 24 bc 85 19 32 bd 5d 04 3e be 72 a5 1b bd
       -0.010022684 -0.04348137 -0.18556352 -0.037999578
000020 09 7b 44 be f8 64 30 be d2 19 6c bd 66 e3 14 be
       -0.19187559 -0.17226017 -0.05764181 -0.1453987
000030 20 28 53 bc 06 57 92 bd 39 a0 1c 3d 29 40 2c bd
       -0.0128879845 -0.07145505 0.038238738 -0.042053375
000040 ab ca 1a bc ec af 0e 3d a1 74 10 bd 78 36 91 bd
       -0.009447734 0.03483574 -0.035267476 -0.07090467
000050 bd 75 92 bd 29 85 fa bd a5 59 fe bd 50 21 29 bc
       -0.07151363 -0.122324295 -0.12419442 -0.010322884
000060 a1 8b 13 be 4b c0 ef bd c8 de 1c be 25 7e f5 bd
       -0.14408733 -0.11706599 -0.1531936 -0.11986951
000070 7e 3b 02 be e3 8a b7 3d 90 03 5e be 92 f4 0f 3d
       -0.12718007 0.089620374 -0.21681046 0.03514535
000080 98 fd f6 3c eb ea 46 3b 4b 84 e3 3c 97 59 b1 bc
       0.03015022 0.0030352424 0.027773043 -0.021649165
000090 c8 0b 84 bb 70 68 6e 3d e9 8b e1 bd 01 97 01 bd
       -0.0040297247 0.058205068 -0.11013014 -0.03163815
0000a0 c7 44 f2 bc 14 07 4e bd 52 b7 08 be 40 ad af 3c
       -0.029573811 -0.05029972 -0.13351181 0.021444917
0000b0 9a 85 7b be f7 29 d4 3c 01 ad 90 be 1d 28 9c 3d
       -0.24562684 0.025898917 -0.28256992 0.076248385
0000c0 53 a6 30 3d f9 94 81 3c 4b 32 35 bd 8b f6 5a bc
       0.04312737 0.015818106 -0.044237416 -0.0133644445
0000d0 02 99 3e bd 68 a8 a0 3d e8 6f 3b bd 60 45 ea bd
       -0.04653264 0.07844621 -0.04576102 -0.114390135
0000e0 20 0d f9 bd f7 91 2d bc 00 26 36 be 23 92 bd bd
       -0.121607065 -0.010593883 -0.17787933 -0.09256389
0000f0 4b 43 97 bd 5d ee 01 bd 2b 3c d9 bd 6f 1b 1f bc
       -0.07385882 -0.03172146 -0.10607179 -0.0097111305
000100 0e d7 f9 3c 15 f7 9f bd 36 fc 6d bd d6 97 82 bc
       0.030498054 -0.07810799 -0.058101855 -0.015941542
000110 d6 57 53 be 04 58 cb be 86 6f 84 be 82 73 92 bd
       -0.20638976 -0.39715588 -0.25866336 -0.071509376
000120 e1 dd 2c 3d 4f bb b7 3d 36 57 b0 bc 13 26 d6 3b
       0.042203788 0.08971273 -0.02152596 0.0065353005
000130 d1 ce 73 3d a9 59 b3 3d 6e 61 37 3c 04 db d1 bc
       0.059523407 0.08757336 0.011192663 -0.02561713
000140 79 4a b0 bb 10 6c 71 3d 44 cf d1 bb f5 14 91 3c
       -0.0053799716 0.058940947 -0.006402882 0.017710188
000150 15 11 82 3a 75 ce dd bd ab 4b 6c be 3e f2 04 be
       0.0009923304 -0.10830394 -0.2307574 -0.12983033
000160 84 f4 8e bd 0c ae 9d be e2 fd a3 be 04 a1 ec bd
       -0.069802314 -0.3079685 -0.32029635 -0.11554149
000170 dd 4f 90 3d 73 69 13 3e fc 5e 09 3e e8 81 bb 3a
       0.07046483 0.14395694 0.1341514 0.0014305683
000180 83 a2 07 bd 3c ef 80 3c 5e c5 17 3c 04 86 10 bd
       -0.033113968 0.015739076 0.009263365 -0.035284057
000190 19 cd 38 3d 52 a5 a3 be 42 6c 39 be e0 b8 92 bd
       0.04511747 -0.31962067 -0.18107703 -0.07164168
0001a0 e2 cc 9a bd 75 38 ae be ce c4 23 bd 29 b3 3a bd
       -0.075586095 -0.34027448 -0.03998261 -0.045581017
0001b0 b6 e9 37 3e 42 2b 10 3e 3d fd 72 3d 6e 7c a8 bc
       0.17960247 0.14079002 0.059323538 -0.020567145
0001c0 c0 89 15 bc 81 16 87 bc f9 54 af bd 62 dc 48 bd
       -0.00912708 -0.016490223 -0.08561129 -0.0490383
0001d0 bf c7 49 bc 33 47 54 be 38 51 c4 be ed a8 a2 bc
       -0.01231569 -0.20730285 -0.38343215 -0.01985594
0001e0 24 1f 12 be e2 e5 40 be 74 26 6e be f5 1f 9d bd
       -0.14269692 -0.18837693 -0.23256856 -0.07672111
0001f0 55 97 8d 3d 39 e7 1f 3e c6 2d 83 3d fa 85 18 3a
       0.0691363 0.15615548 0.06405215 0.0005818304
000200 57 69 f9 bd ab 29 b3 bd db 71 d8 bd d6 9d 8f bd
       -0.12178295 -0.08748182 -0.10568591 -0.07012527
000210 16 a1 89 3d b2 d2 7e ba 1f dc 82 bd 95 c2 9e bd
       0.06720178 -0.0009720727 -0.06389641 -0.07751957
000220 27 bd ab bd a6 42 60 bd 4f ba 00 bd 5d 7b 25 be
       -0.08385687 -0.05475106 -0.031427678 -0.1616034
000230 8c fd cf 3d f5 d6 5d be 49 b1 0e 3e e5 d9 05 be
       0.10155782 -0.21664031 0.13934816 -0.13071401
000240 31 99 11 3d 44 92 04 be 7e 10 d1 bc 70 08 d2 bd
       0.035546485 -0.12946421 -0.02552056 -0.102555156
000250 da 08 23 bd 41 40 9a b9 1c ae bb bd bd 2d 3f bd
       -0.039803363 -0.00029421042 -0.09164068 -0.04667448
000260 1c f6 90 bd 00 54 6b be 50 d4 a9 bd 02 6a d5 bd
       -0.07078192 -0.22981262 -0.082924485 -0.1042061
000270 02 04 f6 3d 64 7a de 3d 22 95 18 3d 97 6a db 3c
       0.12012483 0.10863188 0.0372516 0.026784224
000280 50 62 12 3d 7d 71 12 3d 0f 25 08 bd 6f 1c 06 3d
       0.03573829 0.035752762 -0.033238467 0.03274196
000290 3b e8 36 bb 07 55 5b be dd 4a 20 be 8d 18 89 bd
       -0.0027909416 -0.21419154 -0.15653558 -0.06694136
0002a0 b4 07 40 be ba 4d 98 be 02 e5 4c be ea 2c 03 bd
       -0.18752939 -0.297468 -0.20009235 -0.032025255
0002b0 8a 1b e6 3d 28 cf 42 3e a0 ae 4d 3d 3e c2 05 3c
       0.112357214 0.19024336 0.050215364 0.008163987
0002c0 12 2e 93 bb 21 b9 11 3d e5 5d e8 bc 67 6b 5d 3c
       -0.004491576 0.035576943 -0.028365085 0.013514376
0002d0 b1 c6 b5 bd 06 d6 85 bd 1b 75 08 be 6b 02 8b bd
       -0.08875788 -0.06534962 -0.13325922 -0.067875706
0002e0 52 9a a8 3b c7 05 9b 3d 61 b9 0b bd 13 6f b3 bd
       0.0051453495 0.07569461 -0.034112338 -0.0876142
0002f0 41 9e 78 3c 73 86 47 be 59 20 62 3d 01 57 5c be
       0.015174449 -0.19484882 0.05520663 -0.21517564
000300 d1 d0 95 3c 17 33 80 3c fb af ce bd 23 dd f7 3b
       0.018288048 0.015649362 -0.10092159 0.0075642033
000310 89 b3 8f bd 0f d6 9b be 88 19 af be 77 6e 34 be
       -0.070166655 -0.3043675 -0.34199166 -0.17620264
000320 a9 9e ba 3c be 6b 0e bc c8 45 93 bd 5b 10 8b bc
       0.022780733 -0.00869268 -0.07191044 -0.016975572
000330 0e a2 df bb dc e3 81 3d 40 fc 92 3d 6e 9f 23 bd
       -0.0068247383 0.06342289 0.07177019 -0.039946966
000340 9f a2 6e 3d b6 56 2a bd a4 a0 5c bd 54 3e 0d bc
       0.058260556 -0.0415866 -0.053864136 -0.008620817
000350 59 08 cf bc 73 62 99 be c1 a6 7b be db 3e 92 bc
       -0.025272535 -0.29957923 -0.2457533 -0.017852237
000360 b2 51 fe bd 86 66 5e be ce 66 db bd 06 8e 48 bd
       -0.12417926 -0.21718797 -0.10712968 -0.04896357
000370 45 1d e9 3c ec 25 ab 3d 3d 8f d1 3c 84 b7 2d 3b
       0.02845634 0.083568424 0.025580997 0.002650709
000380 e1 cf b8 bc 4b 43 b9 bb 28 86 82 3b 60 92 ae bc
       -0.022560062 -0.005653774 0.003983278 -0.021310031
000390 5b 05 6f bd 0f c9 fe bd 80 63 97 bd 72 6a 42 bd
       -0.058354717 -0.12440693 -0.07392025 -0.047464795
0003a0 97 86 31 be 28 cd 60 be ba bd be be e7 33 29 be
       -0.17336498 -0.21953261 -0.37254125 -0.16523705
0003b0 6f cb bf 3d 50 23 15 3e 99 ad fe 3d 86 81 ae 3c
       0.09364974 0.14564252 0.12435455 0.021301996
0003c0 a1 36 46 bd e7 76 20 bb e2 a9 95 bd a4 06 73 3c
       -0.048391942 -0.0024484934 -0.07307793 0.014833126
0003d0 5a fe 47 bd 54 f9 93 38 cf 87 d1 3c b8 99 fc bd
       -0.048826553 7.055947e-05 0.025577454 -0.12334007
0003e0 0f e0 6a bd 60 85 b3 3c ac 4f b2 bb 79 24 ba bd
       -0.057342585 0.021914184 -0.0054416265 -0.09088988
0003f0 1f 1c 83 be 23 10 44 bd 3b c0 41 bd 4c b4 2c 3c
       -0.25607392 -0.04786695 -0.047302466 0.010541033

main.6.bias f4 [16]
000000 b1 49 1e bc ea 3a 0f 3d 1b d2 00 3d 14 b6 87 bd
       -0.009661124 0.034968294 0.031450372 -0.066265255
000010 ff 16 12 bd 9f 7e ce 3d 3d e1 41 be 70 fa 53 3e
       -0.035666462 0.10082745 -0.18933578 0.20701003
000020 59 1f 26 bc c6 95 56 bb 1a be 4b be 88 43 ba bb
       -0.01013931 -0.003274308 -0.19896737 -0.00568432
000030 39 d1 ff 3d 94 af 64 bd 67 49 fc 3c f2 1f 00 be
       0.12491078 -0.055831507 0.03079672 -0.12512186

main.7.weight f4 [16]
000000 56 b7 27 3f 7e b9 f1 3e 32 d6 f3 3e b4 f4 fa 3e
       0.65514123 0.47211832 0.47624356 0.4901482
000010 ec ca b2 3f fe a0 b7 3f 15 d5 11 3f 75 f1 36 3f
       1.3968177 1.4346006 0.5696576 0.71462184
000020 d8 ea dd 3e 2b 39 df 3e 41 6d b1 3f 98 eb e6 3e
       0.43343234 0.43598303 1.3861467 0.4510162
000030 4b b6 bc 3f 4a 87 6b 3f cc 80 62 3f ed bd d7 3e
       1.4743131 0.9200331 0.8847778 0.4213709

main.7.bias f4 [16]
000000 4c 07 46 bf 8b 01 e6 be 9d ce 56 be 87 51 f6 be
       -0.77354884 -0.44923052 -0.20977254 -0.48109075
000010 b7 57 a6 bf b3 6b ad bf 9d 8a 1d bf 81 f8 30 bf
       -1.2995518 -1.3548492 -0.6153963 -0.69129187
000020 67 65 bf be ab f8 a5 be d1 0b a9 bf 75 9e 93 be
       -0.3738205 -0.3241628 -1.3206731 -0.2883183
000030 68 07 b5 bf f3 a8 6c bf fa 32 5d bf 31 d0 87 be
       -1.4142885 -0.92445296 -0.8640591 -0.26526025

main.7.running_mean f4 [16]
000000 cd 64 01 bf 22 6a e6 be c2 d0 df be 31 8c 31 bf
       -0.50544435 -0.45002848 -0.43713957 -0.6935454
000010 7b 3e 38 bf 1b a3 1f bf 30 f8 4c bf 6b 5a ec be
       -0.7197034 -0.62358254 -0.80066204 -0.46162733
000020 4f 3e ea be ac 56 10 bf af a2 6f bf a3 e7 d4 be
       -0.45750663 -0.5638225 -0.9360761 -0.41582975
000030 f3 68 1c bf 55 61 47 bf ee 0f 1f bf 47 b6 18 bf
       -0.6109764 -0.7788289 -0.6213368 -0.59653133

main.7.running_var f4 [16]
000000 e9 80 3e 3e c7 26 57 3e ac 02 08 3f 95 81 4d 3e
       0.18603863 0.21010886 0.53129077 0.20068963
000010 79 54 98 3e 4d 86 a2 3e 61 c7 77 3e bb f8 91 3e
       0.29751948 0.31743088 0.24197151 0.2851008
000020 fe 8e 4c 3e e9 c2 65 3e d6 be a9 3e 62 a6 9e 3e
       0.19976422 0.22437634 0.3315341 0.30986315
000030 5c 7a a0 3e 41 06 8e 3e 2e 14 84 3e 42 6d 85 3e
       0.31343353 0.27739146 0.25796646 0.2605992

main.9.weight f4 [16, 1, 4, 4]
000000 b2 3a 49 b8 07 b1 c2 39 1d 3e 2b 3e 42 7d f4 3d
       -4.79768e-05 0.0003713446 0.16722913 0.119379535
000010 6e 36 86 bb 30 2b d9 bb 64 df fe 3d 1d 7c 03 3f
       -0.004095844 -0.006627463 0.12444952 0.51361257
000020 d7 44 e0 3b fe b4 5f 3c c1 1c 07 3f 2c 48 09 3f
       0.006844144 0.013653992 0.5277825 0.5362575
000030 8c 22 0e bb 43 ad b9 3b bd 80 fc 3e d5 1d 9e 3e
       -0.0021688072 0.0056664064 0.4931697 0.30882135
000040 e7 7a a6 3d a8 9a 91 3a cc 8d 80 3d d0 04 6a 3c
       0.081289105 0.0011108713 0.062770456 0.014283374
000050 4c 58 f9 bd 01 45 a6 3e 89 7b 14 3d f6 c4 6a 3d
       -0.121750444 0.3247452 0.036250625 0.057316743
000060 0c 3c 9c bc be 9c 84 be 9f d3 20 3e 9f 3f 28 3d
       -0.019071601 -0.25900835 0.15705727 0.0410763
000070 f0 b9 96 bd 9e a4 6a bd 3b 47 0f 3e 49 b2 f3 bb
       -0.073596835 -0.057285897 0.13992016 -0.0074370247
000080 06 19 de 3c 0a d4 9c 3b a4 2c b1 3c 22 bc a2 ba
       0.027111541 0.004786019 0.021627732 -0.0012415687
000090 fb 81 8e bd 4a 77 a7 bb 17 f9 88 bd 39 c7 64 3b
       -0.069583856 -0.005110656 -0.06688135 0.0034908785
0000a0 58 c2 6d bc 0b 6c 92 bc 01 48 7c bc d9 ba ae bc
       -0.014511667 -0.017873785 -0.015398026 -0.02132933
0000b0 34 84 5b bd f6 9a 7a bc f4 73 eb bd 26 a3 c6 b9
       -0.053592876 -0.015295735 -0.11496726 -0.00037887058
0000c0 42 c9 99 3d 5e 57 e9 3c f1 23 9e bd 88 b4 0b bc
       0.0750909 0.028484043 -0.07721699 -0.008526929
0000d0 87 54 b2 bd fa 0f 3b 3d 19 d8 84 bc e5 d1 2f bd
       -0.087075286 0.045669533 -0.016216325 -0.04292478
0000e0 fa b7 5f be 2b 15 36 be 8b 71 02 bd c3 d0 1c bd
       -0.21847525 -0.17781512 -0.031846564 -0.03828503
0000f0 16 ec e9 bd 37 68 ae 3d db 47 b0 bc 80 73 72 3c
       -0.11421983 0.08515971 -0.021518638 0.014798045
000100 c1 dc a7 bb c3 3f 06 bb 3f ba 2f 3b 34 18 41 ba
       -0.0051227515 -0.0020484782 0.0026813892 -0.0007365972
000110 d8 1f 01 3c 99 e5 97 bc 67 e7 47 bb 37 bf a5 3b
       0.007881127 -0.018542098 -0.0030502917 0.005058195
000120 2d da 44 bb 13 c2 b5 3c ba 17 05 40 74 e9 e9 3d
       -0.003003727 0.022187268 2.0795732 0.11421481
000130 59 22 09 3c 6c 34 c9 3a 10 bb 9f 3e c5 24 ff 3b
       0.0083700055 0.0015350706 0.31197405 0.0077863657
000140 e0 ff 73 bd ea 6b 63 bc cf 08 83 bc f4 17 21 3c
       -0.059570193 -0.013880709 -0.015995411 0.009832371
000150 41 ec 13 3e dc fb 10 40 44 1c 05 3d 1f e3 f6 ba
       0.14445592 2.2653723 0.03249766 -0.0018835998
000160 6d a4 fe 3c 6e e4 28 3d 17 e0 02 bc c7 b9 5a ba
       0.031084264 0.041233473 -0.0079879975 -0.0008343723
000170 9e 45 54 3c 0d 4a c3 bc 05 4d 48 3c d0 f7 5b b9
       0.012956051 -0.023839021 0.012225394 -0.00020977785
000180 04 d3 58 3c 49 57 05 3c 99 ca a0 3e b1 19 97 3e
       0.013233904 0.008138486 0.3140457 0.29511788
000190 d3 9f 17 bc 17 73 27 3d 81 ff 7e 3f 45 76 f9 3e
       -0.009254414 0.040881243 0.9960862 0.48723045
0001a0 de 89 cb ba d5 48 b2 3e f9 bd df 3e 0f 22 8c 3d
       -0.0015528759 0.3482119 0.43699625 0.06842434
0001b0 e5 28 9a bb 5d 36 84 3d 2b 47 1d 3d a2 42 3e bb
       -0.004704582 0.064556815 0.03839795 -0.0029031415
0001c0 65 42 48 bb c6 b2 2c 3c c0 78 f2 3d f5 27 be 3c
       -0.0030557152 0.01054067 0.118394375 0.023212412
0001d0 61 cd 22 3c 58 e1 42 3f 65 01 e7 3e 13 58 bd bc
       0.009936661 0.761251 0.4511825 -0.023113286
0001e0 7d d6 c2 bb bb d4 05 3f 38 a7 01 3e 44 04 25 3b
       -0.005945979 0.52277726 0.12661445 0.0025179544
0001f0 c8 ee b5 3b 5a 02 fe 3b 1b 1b bd 3c be fc a6 3b
       0.0055521466 0.007751745 0.023084214 0.005096047
000200 d9 5b 1d be b4 89 1c bd fb 5a 82 bd 68 0e 07 3c
       -0.15367068 -0.03821726 -0.063650094 0.008243181
000210 cc 51 5d 3e c4 1b 42 be 75 97 b3 3d a3 ce 0c bd
       0.21613234 -0.18955904 0.087691225 -0.03437675
000220 ea e4 c9 3d 18 67 b3 bd 3b ed 06 3e 16 42 84 bd
       0.09858115 -0.08759898 0.13176434 -0.064579174
000230 21 8a d6 3d 43 08 5f 3c e4 50 63 3d bf ae 16 3d
       0.10475565 0.01361281 0.055497065 0.036787745
000240 ee 5d 85 3c 25 49 ab b9 13 17 b3 bd 46 84 18 bd
       0.01628014 -0.00032670159 -0.087446354 -0.03723552
000250 c5 20 1b bd 2c c1 ae 3d 60 3b 05 3e 00 bb 31 be
       -0.03787305 0.08532938 0.13010931 -0.17356491
000260 e6 e2 5b bc 09 78 ae bd 95 a8 a1 3d a9 64 84 be
       -0.013420796 -0.08518989 0.078934826 -0.25858048
000270 0c 94 8b bc 24 f8 b6 bc b0 1c 5a bd 75 7f ab bc
       -0.017038368 -0.02233512 -0.053250015 -0.0209348
000280 ae f5 18 3c dc b6 99 39 46 1f 7d 3d 26 d4 a0 3b
       0.009335918 0.00029318675 0.061797403 0.0049081026
000290 5c 43 c5 bb 25 2a 38 3d 62 76 22 40 1d 82 63 3d
       -0.0060199928 0.044962067 2.5384755 0.055544008
0002a0 c5 4a e9 3b 64 70 09 bd bf 04 db 3a 35 53 c5 b9
       0.007119509 -0.03355445 0.0016709788 -0.00037636762
0002b0 ed 3c 70 3b ac 11 77 ba a6 e9 a2 bc 17 e8 d0 3a
       0.0036657408 -0.00094249356 -0.019886803 0.0015938309
0002c0 41 43 75 ba 4e 48 1a 3c f5 74 15 3e a7 b7 4a 3d
       -0.000935603 0.009416653 0.14595397 0.04949155
0002d0 fc 18 24 3d 7d 59 73 3d f5 a1 80 3d 8b 85 68 3d
       0.04006289 0.059411515 0.06280891 0.05676798
0002e0 a2 93 c6 3c 20 8f 56 3d e3 09 03 3d 97 8e 25 3d
       0.024240319 0.05238259 0.03199185 0.040419187
0002f0 2a db a9 3b 2b 34 27 bc 90 59 18 3d 07 3b 12 3c
       0.005183597 -0.010205309 0.03719479 0.008925206
000300 7a c0 18 3c ae cc 8b 3b 5a 63 3d 3b 9c 6b 8c 3a
       0.009323234 0.004266343 0.002889833 0.0010713222
000310 cc 90 b9 bb a5 ac 49 3c 0e ca 32 bc da 55 6d 3b
       -0.005663013 0.012309228 -0.010912431 0.0036214502
000320 a4 56 c1 3d 94 79 17 40 77 5c 29 3d aa 29 47 3a
       0.094403535 2.3667955 0.041347947 0.0007597456
000330 f0 d4 b5 bc 57 4a 8b bc 6c 11 07 bd 5f 1c 2b 3c
       -0.022196263 -0.017003221 -0.0329756 0.010443776
000340 10 b6 2f ba 4d 3c 0c 3b 34 05 d0 bd 59 10 09 bd
       -0.00067028496 0.0021398247 -0.101572424 -0.033462856
000350 6d d5 97 3b be d2 68 bb 10 3d 0c 3e 31 09 9c 3d
       0.0046335966 -0.0035526003 0.13695168 0.076189406
000360 22 6b c1 3b e7 60 36 3e 66 48 eb 3f 8f 1a d2 3d
       0.005902664 0.17810403 1.8381469 0.10258972
000370 59 d3 3b bc 0d 2b 01 3c 39 1d 9e be b2 99 ba bd
       -0.011463963 0.007883799 -0.3088167 -0.09111346
000380 a5 81 d1 3c 21 7f 6a 3f f3 7e 48 3e 8d ca 0e bd
       0.025574515 0.91600233 0.19579677 -0.034861136
000390 cf df 80 bd 69 69 d8 3e d2 bd 0d 3e 89 8a 91 3b
       -0.06292688 0.42267922 0.13841942 0.0044415635
0003a0 31 73 03 bd 50 04 76 bc 71 6e 06 3c 2f 1b 08 3b
       -0.032092277 -0.015015677 0.008205042 0.0020768156
0003b0 60 a2 fc ba d5 cd 46 3c 14 8b ad bb f5 c3 e6 37
       -0.0019274466 0.012134035 -0.0052961204 2.7509386e-05
0003c0 8f c6 03 be cc 10 b7 bc 1d d0 9a bd e4 27 8b 3c
       -0.12868713 -0.022346877 -0.07559226 0.016986795
0003d0 13 cf 15 3e f9 e1 95 be da 53 5c bb 51 f4 ca bc
       0.14629774 -0.29273966 -0.0033619315 -0.024774702
0003e0 ac 6a ea bc 1f 45 38 bd 52 0a 2c bd 09 7f 92 3b
       -0.028615318 -0.044987794 -0.04200203 0.00447071
0003f0 11 6f 40 3d b3 c7 41 bc 56 35 e9 bb bc 9d ea bb
       0.04698092 -0.011827397 -0.007116954 -0.0071599167
